Fuentes/model_rdim.npz (npz, 31850 bytes, 3 tensors)

V1 f8 [42, 41]
000000 89 c5 dc 31 66 49 81 3f af 18 c7 ad 9c 38 ec 3f
       0.008440779110602719 0.8819106477829076
000010 1f eb 9a df be 09 72 3f 38 54 59 f0 35 f2 b2 3f
       0.004403825377887554 0.0740083419598968
000020 90 60 8c 2c 81 c2 96 3f 0b fb f8 87 c4 12 c4 bf
       0.022226351112380416 -0.15682274474416888
000030 95 7d 0c 5f ee 87 b8 3f 74 e1 5e 84 73 22 91 3f
       0.09582414455916528 0.01673298354555315
000040 7c 95 8e 6e e5 ac af bf c6 e5 94 9e c9 86 d4 bf
       -0.061865968461726845 -0.32072678076255234
000050 1f c4 1d 16 0c 2e c3 bf 0f 09 f2 39 ed 16 e4 bf
       -0.14984274940391715 -0.6277986652133069
000060 5c c6 3b 7e 0c 7e ad bf 5c 22 40 30 27 ae ca bf
       -0.05760230103431915 -0.20843973022444373
000070 e9 12 af bc 79 1d d0 bf ba aa 6b dd e0 e7 b3 bf
       -0.25179904390488034 -0.07775693326736191
000080 7c a5 b9 60 fe 13 eb bf 37 ca 2e b4 7c f5 c5 3f
       -0.8461906327403734 0.17155417249667135
000090 42 28 e2 93 0e 99 d5 3f 40 e0 a3 0d 71 f8 9f bf
       0.3374668544935312 -0.03122116704705058
0000a0 e0 5a 63 d2 6b d6 a6 3f 1c fb 56 75 09 68 c5 bf
       0.04460465377058198 -0.1672374556491939
0000b0 15 f4 aa 74 cb 25 7c bf 43 eb aa ba 73 7b 98 3f
       -0.006871981381377364 0.023908432262696577
0000c0 61 3b 5c d7 c9 bc d9 3f 73 3a f2 1f df b8 dd 3f
       0.40214773207929083 0.46440866584536095
0000d0 aa e7 5b fa ce d4 c1 bf ec 1d 75 0d 57 c8 74 bf
       -0.1393069002586434 -0.005073871659369438
0000e0 b6 76 6d 36 11 41 a2 3f 24 10 7f 31 19 ff 8e bf
       0.035652673620217554 -0.0151349991064152
0000f0 90 ec 66 9e 2e 6e 3d bf 94 20 98 c5 0c ed 86 3f
       -0.0004490722480132237 0.011194324283693192
000100 2a 03 e9 65 df ff a9 bf b7 d2 93 00 53 58 76 3f
       -0.050780278387270464 0.005455326297341293
000110 d5 0e d0 97 42 f1 81 bf ef de 45 9d 9b 29 83 3f
       -0.008760948427159057 0.009356704461182612
000120 7c 14 4c d8 62 37 60 3f 9d 57 c4 6f b2 10 af bf
       0.0019795351566949653 -0.060674263137271846
000130 3d bb 80 6e 9a 73 ba 3f d4 2b e3 34 43 50 d9 bf
       0.10332646558593424 -0.3955238358000177
000140 07 ba fa 5e ae b0 b9 bf 95 1a ec 07 3a 57 d4 bf
       -0.100352190197306 -0.31782389424953666
000150 b3 76 ad 8b cd ff b9 3f 43 a3 4d d3 b0 23 92 3f
       0.10155949268434021 0.017714274308136223
000160 3e 15 fc 94 9d 3f cf bf 2b 4b 80 ec 64 ab cf bf
       -0.24412889265674126 -0.24741803691775863
000170 b4 70 bf 3f 6a a3 af 3f 26 b8 e0 f2 75 a9 dd bf
       0.061793632775989066 -0.4634680625775921
000180 f2 06 e9 f8 99 de d0 3f 35 4a d7 ad 7c ef c4 bf
       0.2635865145458488 -0.163558564074792
000190 b7 88 fa 38 01 b3 df bf b4 c6 67 37 9f 1b d3 bf
       -0.4953005844528308 -0.2985609093731043
0001a0 9e 9c 24 17 04 94 a5 bf ae 42 7b 30 c5 2a c6 bf
       -0.042144897294116065 -0.17318024508724278
0001b0 ff 05 72 84 d4 c7 d0 bf 81 47 87 5e a0 04 bd 3f
       -0.2621966641819142 0.11335184390853038
0001c0 1d c2 91 57 8c 89 dc bf ee 12 0a 1e f5 bf a9 bf
       -0.44589527656265365 -0.05029264442149449
0001d0 9a 24 05 fd fa 3a bf 3f d8 fc a5 a3 50 d0 99 3f
       0.1219937198376492 0.025208721149735464
0001e0 59 30 90 88 d3 1d d0 3f fa 54 96 6b 90 b6 c6 3f
       0.2518204530358666 0.17744641545565526
0001f0 b1 be 69 01 ba 3f d0 bf f4 d6 4f bb 4c 5a ca bf
       -0.25388956201548313 -0.20588072916114408
000200 99 21 db 9d d8 52 aa bf 4f 3f ca 24 0c 63 d0 bf
       -0.05141331603005312 -0.2560453757550833
000210 1b 4f be bf 62 c0 b8 bf ee 94 43 07 cd a1 cd bf
       -0.09668557339892596 -0.23150027136504242
000220 75 a3 b7 ae 85 a6 c6 3f eb 8b 53 3e ba 44 d7 3f
       0.17695685416336074 0.3635697945266531
000230 05 16 39 c6 48 b6 c9 bf 3a a7 0c ec b4 f8 8e 3f
       -0.2008753745923714 0.01512280793538744
000240 56 bd 22 71 9b 6d b1 bf e0 50 2c cc 83 ba 86 3f
       -0.0680787230692109 0.011097936313980872
000250 5b e5 a9 54 9b d2 c3 3f 95 53 9e 13 ab 42 8b bf
       0.15486470827071738 -0.013310753380020116
000260 1c 00 3d fb b4 91 ab 3f fa 4c b1 50 9a ee aa bf
       0.053846030873046596 -0.05260164484993797
000270 49 35 da 67 78 5c af 3f 3a c6 0e 86 e5 2e d8 3f
       0.06125236766556925 0.37786233989308793
000280 1f f9 76 bd 01 f4 b0 3f 10 95 7b bb 28 97 c0 bf
       0.06622324824909186 -0.1296130099719126
000290 ef 1d 90 cb c5 bc ba bf 16 ab 66 2d a1 19 bd 3f
       -0.104442941854465 0.11367232664512658
0002a0 a9 3f 0d fa a0 4c c2 bf a0 01 e6 32 b7 33 dd bf
       -0.14296352586324915 -0.45628147097161253
0002b0 46 90 f2 ab c5 4b 96 bf 3a 28 d6 f3 b1 34 d6 3f
       -0.02177342283233965 0.3469662553039857
0002c0 08 6f ff aa 94 c4 c7 bf 9f 3e 63 d2 c8 19 93 3f
       -0.18568666791440358 0.0186530474100538
0002d0 c4 63 5f d6 7e 46 bb 3f 7a 97 63 ad 6c e8 c0 bf
       0.10654442533213088 -0.13209303346883045
0002e0 2b ee 15 96 85 ed ce 3f 21 49 16 ab fd f5 cf 3f
       0.2416235907402194 0.24969454625949886
0002f0 2b ae a7 f9 17 9b c4 bf e0 59 42 30 8a 9b c7 3f
       -0.16098308267770398 0.1844341979637667
000300 d3 65 8b 48 d0 93 b4 bf 7f 28 cd 8d 95 ab de bf
       -0.08038045664888864 -0.4792226681498803
000310 8f b0 30 56 8f 42 58 3f 08 e5 63 4c e7 7e c4 bf
       0.0014807128689069725 -0.16012278776160138
000320 18 4c 09 81 88 2b 81 3f 42 da f4 80 25 bb c0 bf
       0.008383814275623222 -0.13071125790311738
000330 1c b8 24 99 bc d0 c2 3f 9e b5 89 3d 1f 03 d9 bf
       0.1469951389094043 -0.39081555375636323
000340 e7 9d 15 78 c2 37 ca 3f ef 64 e7 f1 3b d6 b5 3f
       0.20482664931772307 0.08530020385605373
000350 47 04 d6 ce 9e 4a a9 3f dc 2b 33 06 66 e8 b2 bf
       0.04939743304112958 -0.073858620179791
000360 69 20 03 b0 1b 9c bf bf 97 df 4d 55 5d 3a d8 bf
       -0.12347577140019585 -0.37856229143607706
000370 b8 62 ab 6a b9 1a c2 bf bf 05 75 77 d7 2e bc 3f
       -0.14144056042166198 0.1100897471087796
000380 d8 f9 15 34 d0 40 c3 bf e8 11 9f 59 f2 47 ab bf
       -0.15041544478658753 -0.05328328460703685
000390 30 9c 32 e2 0d b4 b2 bf 13 31 dd de 72 9c ab bf
       -0.07305990955738717 -0.05392798395641498
0003a0 05 96 f9 b1 b6 e6 c1 bf fe d9 e3 10 06 3e ad bf
       -0.1398533219354904 -0.057113828241131856
0003b0 f5 7b 51 a3 10 93 cb 3f 9c 62 84 24 95 dd de bf
       0.21542556738401655 -0.48227432790876335
0003c0 b3 17 2a 22 e6 7c c0 3f 41 1a 3f c9 49 a5 de 3f
       0.1288116137331464 0.47883839276292767
0003d0 69 0c 11 d9 3c 09 d6 bf a3 5f f4 7b e5 7c be bf
       -0.3443138236800168 -0.11909326816782921
0003e0 80 2c 3f e2 26 4f 92 3f 23 4c a0 a1 23 af be 3f
       0.017880065497405173 0.11985991188002791
0003f0 5f db cd 41 50 ef a2 3f df e9 2d 12 47 3e c8 3f
       0.03698206713936857 0.18940056216872755
000400 07 09 a8 07 37 8f b7 bf e9 fb 73 7f 8e 03 bd bf
       -0.09202903687404183 -0.1133355199017242
000410 59 0c 0c 77 f3 5f 92 3f 98 94 cb dd 15 d3 cb bf
       0.01794414915185558 -0.21737931566091073
000420 39 34 cb 65 84 25 d1 bf 10 22 0a ca af 37 e9 3f
       -0.26791486683652327 0.7880476900182334
000430 8d 6f 48 2b 3b 4a b6 bf b5 3b b2 1d 50 33 d0 bf
       -0.08707017714226435 -0.2531318941118415
000440 39 27 7c dc bf d9 c3 3f 6e 64 02 00 7c 58 d0 bf
       0.1550826860987458 -0.25540065766251174
000450 a2 bc a3 bd e1 48 b8 3f 9f 79 d0 30 8f 00 e2 3f
       0.09486208801148391 0.5625682786374461
000460 c8 50 7f 7a 00 b5 c4 3f c5 01 87 f1 b6 ad ce bf
       0.1617737386828877 -0.23967634957626963
000470 b6 45 e0 a3 11 d7 b5 bf bc 2f 46 2a 32 09 b1 3f
       -0.08531294108276807 0.06654656917652252
000480 5c 0e d0 bd b1 d4 e9 3f 51 c3 8a 42 1b 74 ce bf
       0.8072136599807425 -0.23791828869937118
000490 8a b0 2f c9 8e aa d6 3f 45 1f c9 e5 a4 62 b2 bf
       0.3541600193700637 -0.07181768999100509
0004a0 97 bf a1 4e f3 ef d8 3f 07 76 3a 9e 52 61 9d bf
       0.38964541129006974 -0.028691569240086447
0004b0 28 a6 b8 82 03 6f bd bf e3 a6 7c 29 ea e9 df bf
       -0.11497518483579283 -0.4986520199914663
0004c0 b1 6e c7 c3 81 1c b8 bf c4 a2 f6 0a 56 b0 d1 3f
       -0.09418498067628424 0.2763877017082843
0004d0 35 fe 3d 92 f7 ba c0 3f 48 70 7c 16 1d 4e cb bf
       0.1307057823250816 -0.21332133863404779
0004e0 0e 71 e1 0a 1d 63 d4 3f a5 46 3b 77 4a a8 c2 3f
       0.3185494047409215 0.14576083013394228
0004f0 0a c6 d1 4b 86 6f b7 3f b6 db b4 98 e9 ea b9 3f
       0.09154548026142365 0.10124073007760512
000500 4c 1a 5e c8 4a 4c d5 bf de 81 e5 32 8a ec 9f 3f
       -0.33278150145671215 0.031175765377499214
000510 27 7a a3 bb 66 92 ad bf 97 17 a2 40 86 81 c5 3f
       -0.05775757828245203 0.1680152717200911
000520 fb d4 a8 3a 31 ce c4 3f 6f 88 ed 63 5a c6 b4 3f
       0.1625424896643962 0.08115162791867346
000530 ef 9b 94 5e 41 b7 86 bf b0 46 f6 da 69 5d d2 bf
       -0.011091719340198451 -0.28695150740632425
000540 1a c4 c6 35 0d f3 c6 bf 06 f2 04 41 57 59 c0 bf
       -0.17929234624674067 -0.12772646593829523
000550 71 d9 77 dc 31 7f bd 3f db 87 3d 0c b9 91 a0 3f
       0.11522208817027547 0.03236177706163775
000560 06 fa 37 13 59 2a c8 3f 2a a6 4d 4a 91 7f ba 3f
       0.18879235685740542 0.10350902618451899
000570 0a ec 26 31 77 9a da bf 4f 2d 62 a4 b2 ee a1 bf
       -0.41567783164981675 -0.035024244848581014
000580 34 2b 3b 1d 84 52 b3 3f 0e 67 f9 c4 70 6a db bf
       0.0754778453221377 -0.4283716128899052
000590 b1 03 16 3f ab bb db bf 90 31 a4 bc ba bd d3 3f
       -0.43332940254918656 0.30845516607293977
0005a0 6f 17 74 89 b7 17 e6 3f e2 80 8b 04 c9 53 cf bf
       0.6903951344145137 -0.24474442216797515
0005b0 0e 82 0f cc 8f 2a da bf d0 3d 92 64 05 67 bb bf
       -0.4088477604655346 -0.10704072671273157
0005c0 22 aa 0d 27 c0 b6 be bf 4b 3f 2f 0a 39 6a c9 3f
       -0.11997605279399484 0.1985541629533095
0005d0 c3 6d 23 be 45 07 ca 3f a3 03 90 6d 03 a1 34 bf
       0.20334693702794313 -0.0003147729271973326
0005e0 78 9d 24 70 f6 08 a4 3f 09 c0 b5 fe 2a 22 a7 bf
       0.03913087958272404 -0.04518255576374492
0005f0 a3 b0 e9 4e 98 51 9d 3f 3e b0 0e 17 35 89 db bf
       0.028631572548349592 -0.43024947406479785
000600 40 b4 d2 f0 b1 68 cc 3f 36 65 e4 8a e7 0c b2 bf
       0.22194504031122797 -0.0705094064800463
000610 b8 34 4f ea d3 a1 c0 3f 3a 73 bc b5 48 1c ca bf
       0.1299385923470362 -0.2039881598838294
000620 9e bc e9 b3 aa 30 72 bf 88 b3 a5 3d fd f6 d1 bf
       -0.004440943534617462 -0.28070002575150754
000630 fe 0a 53 7a 07 cb d0 bf 30 85 bd 7d 11 77 be 3f
       -0.26239191957226626 0.11900433845359681
000640 c1 55 85 ca 6e 48 c2 3f 64 d3 fc 40 a4 56 b0 3f
       0.14283547295296553 0.06382204615222303
000650 99 1e 0f 74 16 d4 a5 3f c1 9c 0c b4 d5 78 ba 3f
       0.042633725802770424 0.10340629239782385
000660 13 86 81 37 73 ad a1 3f ba 8b 4f 4a 41 95 a2 3f
       0.03452644398272411 0.03629497558701851
000670 a8 b6 62 bf 74 9c ad bf 1b 05 76 cd 5e d4 b3 3f
       -0.057834289896488145 0.07745926395547935
000680 6b de ce 27 de 82 e0 bf 2f de 79 14 94 99 c7 3f
       -0.5159750726224507 0.1843743419628807
000690 f1 7a ae 76 17 28 c3 3f 69 d2 29 8a 78 b9 d8 bf
       0.14966100020406928 -0.3863202428104047
0006a0 01 86 4e 24 97 3e 9e bf b6 07 fb 05 2b 26 d1 bf
       -0.02953563841913898 -0.2679545935062565
0006b0 19 d9 a1 1a f0 0c a7 3f 2f ee ef cf a0 4c ce bf
       0.04502058339214638 -0.23671350625214546
0006c0 cd 63 2f 0b 59 e4 83 3f 0b cc b7 29 ce 4f d5 3f
       0.009712882665484113 0.33299593042392023
0006d0 6b a5 ca 8e bc 13 cd 3f 65 28 d1 7c f4 bf a0 3f
       0.22716481182332457 0.032714500652745206
0006e0 02 1d 73 28 df 02 da bf 3e f1 8f f4 87 0e cb bf
       -0.4064252753273224 -0.21138095323102307
0006f0 85 c2 30 65 fc 47 c7 bf e1 82 33 fe 2d ac e0 3f
       -0.18188433590832545 0.5210180249087807
000700 4a 09 fd 9d 19 4d d0 bf 5e 78 0c 4b 2f 2c c5 bf
       -0.2547058146339124 -0.16541091122138857
000710 ed 23 52 d9 38 b4 ca bf 4e f6 3c ea a8 3b 90 bf
       -0.2086249409806266 -0.015852584168206278
000720 49 cc ca 2a e3 11 a7 3f 21 fd f4 23 3f 2b bd bf
       0.04505834481587862 -0.11394114139419688
000730 85 6d c5 e1 3e 72 d3 3f d2 34 7e 56 de 57 aa bf
       0.3038480000302218 -0.05145163350889849
000740 4b 12 ec ff fa b8 c6 bf fd 4b 1f 41 14 f4 d4 3f
       -0.17752015587042744 0.3273974071464066
000750 07 3e 19 f3 c1 ea bc bf aa 65 0e 33 b7 c3 86 3f
       -0.11295711693787079 0.011115485425579791
000760 a4 69 e9 df fe e2 c5 3f 17 c1 b2 8b a9 66 e4 3f
       0.17098985608283812 0.6375320175630205
000770 c5 48 b4 dd 03 e5 cb bf 29 51 20 af 06 88 cb 3f
       -0.2179264862575733 0.21508868743024692
000780 34 59 17 41 4c 2e 8b 3f a3 f9 aa 5f f7 c8 c3 3f
       0.013271899925638132 0.1545705048683433
000790 4e b4 16 1d 72 92 db bf ad 97 61 50 4e d3 a4 bf
       -0.43081333962147006 -0.04067463618484566
0007a0 b4 84 f4 b5 e5 f4 cb bf 81 1b 39 3b db 2c af 3f
       -0.21841117271927646 0.06088910196245135
0007b0 26 fb 9c dc 41 68 be bf ff c2 26 a4 5f d6 a0 3f
       -0.11877833972992544 0.03288554076005389
0007c0 de a0 84 35 c7 3a 89 bf d9 40 39 c5 14 8d c6 bf
       -0.012319141693823029 -0.17618045454083278
0007d0 2c 35 26 fb 22 0d af 3f 6f e8 2e 9e 82 42 b7 3f
       0.06064709964548806 0.09085861551185002
0007e0 9c 9b de e5 dd 4b b8 3f c7 00 dc 24 7b 1b aa 3f
       0.09490763532686092 0.05099091362899482
0007f0 6e 20 62 5c 91 09 cb bf fb d5 84 ce 46 7d a6 bf
       -0.21122948656943968 -0.04392453452093644

V2 f8 [28, 42]
000000 da ba 3f 3d 3f 1a e1 3f 81 33 2e d6 6b 24 b8 3f
       0.5344539829510169 0.09430574397101844
000010 4c df c3 0c fb 17 c6 bf 61 a0 01 32 90 5b cc bf
       -0.17260683177277725 -0.22154428903309323
000020 ec f4 54 ee 65 e1 b7 3f b6 ff af e8 8a b6 7e bf
       0.0932830530991457 -0.007498304951695836
000030 2a 54 55 f5 d1 10 ac 3f 95 af 53 ca c8 b8 9e 3f
       0.054815827558435906 0.030001771306089237
000040 0c e3 89 12 06 ee b8 bf ce 07 34 11 c2 2e 8e bf
       -0.09738195374110264 -0.014737621450425478
000050 d4 75 b4 10 66 98 84 bf ef 72 01 07 65 ff aa bf
       -0.01005630243758563 -0.05272975645559607
000060 f1 24 30 d9 fe 48 b0 bf 7c fe 80 4f 4b 93 d4 bf
       -0.06361382296030961 -0.32149012340594374
000070 37 97 37 a5 fe 0b ca bf 3a 41 f2 4f f3 a9 71 bf
       -0.20349104945415217 -0.004312467993387076
000080 b3 63 a8 a7 00 30 d4 3f 40 90 03 78 9f 88 b4 3f
       0.3154298436434672 0.08020970039393749
000090 b6 94 53 0c c9 5b ae bf ab c3 cb b7 fc a6 b2 bf
       -0.05929401660413573 -0.07286052214818876
0000a0 40 a0 cc 0a 55 0c c7 bf 34 ea eb 98 88 13 91 bf
       -0.18006384875593717 -0.016676077207174525
0000b0 d0 22 fb 9e e1 69 c3 bf e9 6e d4 1d e1 5c c0 3f
       -0.15166874182457102 0.12783445316824008
0000c0 09 36 a8 f8 02 9c 86 bf 9f 3c b1 8e 16 d2 d2 bf
       -0.011039756024753282 -0.29407276091382956
0000d0 ce bd e6 b4 20 fb c5 3f 5a 82 90 70 d4 d7 dd bf
       0.17172631104538855 -0.46629820816636924
0000e0 b8 b5 07 dc f6 86 c2 bf c7 cf c4 85 79 a8 a2 bf
       -0.14474378341348682 -0.03644160993499628
0000f0 e5 cb 8d da a6 70 9e bf a9 7c 96 a2 ec d6 86 3f
       -0.02972660740801904 0.011152123176371669
000100 db c6 3f 48 4c 5e c0 bf 71 1e 8c b4 20 63 b7 3f
       -0.12787774589337783 0.09135631950277358
000110 35 32 c4 07 9c af d0 3f 6f aa b6 0f 71 2b c1 bf
       0.2607183528751052 -0.13413823382628062
000120 be da 29 58 0b 6b c0 3f 09 df 20 8f 31 69 aa bf
       0.12826673321588616 -0.051583813401917374
000130 76 1c a1 77 83 8a c9 3f f8 57 d9 6d b7 6b a8 3f
       0.19953959790493386 0.047696811827947216
000140 52 5a f5 5a c5 75 89 3f 08 c0 4b 0f 72 f4 c5 bf
       0.012431661451654783 -0.17152238604421677
000150 c0 3e 43 e4 3a 45 a7 bf 99 df 05 dd 83 32 6e bf
       -0.04545005833062765 -0.003686196847578271
000160 0f 93 4a 89 5f 8a b5 3f 20 c8 11 8c b5 7c ca 3f
       0.08414265729750191 0.2069308217938337
000170 d3 ac 9d 08 7d 12 cd 3f 00 23 13 d2 92 e9 ba 3f
       0.22712672157954347 0.10512654904153962
000180 81 d5 c6 5f 62 25 c3 bf a2 a9 4c 3c 8c d0 a1 3f
       -0.1495783775005002 0.034794218407415714
000190 7e 4e 34 fe f5 36 a2 3f 66 d2 67 db 1c 4f cd bf
       0.03557556846695052 -0.22897682870065522
0001a0 89 4d 19 15 fc 50 ba 3f 6c be 44 c2 54 c7 c2 bf
       0.10279822840793974 -0.1467081020905313
0001b0 11 a1 78 7a 84 fc 99 3f 79 4a 84 ed 9c 1a de 3f
       0.025377340292977616 0.47037432856556155
0001c0 88 aa 61 a3 aa 30 d1 bf 46 6e 30 09 83 a2 a0 bf
       -0.26859537081933427 -0.03248986708805694
0001d0 e3 6a 6f 39 6c 1f d7 bf a4 22 ae 5a 65 f4 bf bf
       -0.3612928925410143 -0.12482293571350539
0001e0 5c a7 33 11 d2 86 c9 3f 1e bc d4 ea 38 7b a9 3f
       0.19942689742975517 0.04976823679532337
0001f0 8b 80 6e f9 3c 21 c4 bf a7 e5 ce 3c 03 64 88 3f
       -0.15726434878616077 0.011909508984774343
000200 87 f1 e8 44 e4 2a b9 3f 5f 58 41 b6 7a 4d c1 3f
       0.0983107250439784 0.1351769819181667
000210 ef 84 5f e7 f3 1b b5 bf a0 c2 c3 84 32 24 c2 bf
       -0.08245777510412088 -0.1417296551003533
000220 d4 0b 53 8d 99 b5 b1 bf 6d 11 25 db c3 59 a4 3f
       -0.06917724323561397 0.03974735307795894
000230 0d 30 f5 39 e7 86 c6 bf 66 ae 0a 5a 27 c5 b8 3f
       -0.17599191980332343 0.0967583269909312
000240 bd c0 c8 44 c5 09 a0 bf ec 41 04 3f 46 ec c9 3f
       -0.03132454361582535 0.20252302243217402
000250 fb 7b 8d 71 44 aa c6 bf be 78 92 07 f8 9c d4 bf
       -0.17707114739002336 -0.32208061923473597
000260 b5 f0 12 41 f3 af c0 3f f7 c2 d0 55 63 3e c7 3f
       0.13036957433167165 0.18159143152436005
000270 57 d2 e0 b7 f5 40 ba 3f 78 be 09 63 ba 41 d3 bf
       0.10255370845045185 -0.3008867232483463
000280 b7 f0 c6 c4 d9 4b b2 3f 15 23 bd f4 d9 ad 8d bf
       0.07146988920334506 -0.014491751462303118
000290 89 32 1f d2 f1 09 a9 bf 38 a3 db 66 a0 57 c4 3f
       -0.048903996371881205 0.15892415068017285
0002a0 4e 9e 3a 8d e9 97 b3 3f c0 a0 71 d7 4f 13 c5 bf
       0.07653674791310403 -0.16465185184211428
0002b0 0d c2 36 df 6e 49 b5 3f c0 49 1e 41 55 40 ba 3f
       0.08315175008352345 0.1025441440563446
0002c0 26 4e 69 9a b8 15 b5 3f 53 47 26 0d 1e 33 ae 3f
       0.08236268777664488 0.05898374472157166
0002d0 7d 60 61 3b 17 55 c7 3f c4 fd d8 af ac 7a b6 3f
       0.18228426360542818 0.08780936520724142
0002e0 68 f4 01 71 63 99 95 bf a5 22 b3 74 5f 53 c7 bf
       -0.02109294297450895 -0.18223183820943692
0002f0 ec a8 53 82 ec e7 cf bf c1 d7 c9 ba 4d 03 b9 3f
       -0.24926525462735272 0.09770665941490987
000300 73 08 df fb 1f 62 b8 bf 33 6f 8a 61 53 cb b9 3f
       -0.09524726771545193 0.10075875407568162
000310 41 55 06 20 84 76 c6 3f fc 3d 43 34 73 54 c4 3f
       0.1754918247576516 0.158827209967498
000320 ce b9 1d 10 04 1a b7 3f 7f 84 93 5e 45 90 a2 bf
       0.09024072068652986 -0.036256950182868224
000330 8c 3b 29 1f 25 bb c5 3f bc 2a ba ad b7 95 c4 bf
       0.16977371236358996 -0.16081901533865117
000340 ba 6f da 87 5d fa bc 3f 06 05 3c ff 15 90 a4 bf
       0.11319527212839278 -0.04016178837447097
000350 bc f9 6a 41 e3 d6 99 3f 5d 14 52 35 91 bd c3 3f
       0.02523379408625613 0.1542226324419599
000360 9f e2 e0 67 9e d5 c7 bf 25 08 0c 08 7c d8 c0 bf
       -0.18620662758055048 -0.13160658257408034
000370 90 81 ee 0e db 95 a1 bf f0 68 a1 6d 4d 51 ae bf
       -0.03434643323203368 -0.05921403849852591
000380 05 11 bc a4 22 45 b5 bf 7d cc 64 b5 ba cb b4 bf
       -0.08308617135850589 -0.08123366287763818
000390 59 db 7d 36 89 75 9d bf 17 eb a8 f7 d2 57 b4 3f
       -0.0287686767109919 0.07946508928663963
0003a0 b3 38 23 e5 33 0d b3 bf 20 7b 56 97 b0 39 77 3f
       -0.07442020744494719 0.005670251664382758
0003b0 20 3c cb b5 c2 ad c3 bf b7 de 05 07 26 e2 bf bf
       -0.15374025227217292 -0.12454450293977969
0003c0 f0 c2 2f 99 ed 87 c4 bf 7b 73 f3 76 81 d1 d1 3f
       -0.1603981969815531 0.27841221443468783
0003d0 b6 33 d1 5c 97 32 b5 3f c8 6a d4 c9 a9 67 c7 3f
       0.08280321136517341 0.1828510509011123
0003e0 6e 8f 64 d2 b8 de 76 3f 6d ec c3 bf 2d df d6 bf
       0.005583497963275492 -0.357371747275187
0003f0 80 cf 9d 60 ee 21 b2 3f 92 0d ed dc 80 c7 b0 bf
       0.07083024843978869 -0.06554417985630881
000400 ec a2 59 64 da 92 7d 3f b7 0e 8b 1f 01 1a 9c bf
       0.00722012814876714 -0.027442948866122942
000410 35 2c 0f 9f ef 0d bc 3f 6b 68 1f e4 45 a1 b7 3f
       0.10958764680178563 0.09230458087350406
000420 3f 6a 6d 77 d4 7f a3 bf b5 d1 10 d1 12 11 c9 bf
       -0.03808464010099443 -0.19583354194913985
000430 9b bd ca 8c 57 d3 b5 bf ae bb b1 38 8c f8 b5 bf
       -0.08525607287696461 -0.08582378753793193
000440 b7 cd 98 72 08 5a ba bf 76 3e 89 51 20 0e cf 3f
       -0.10293629453445062 0.24261859875922526
000450 cf 44 b6 13 93 ff b0 3f 0d b5 34 72 82 6f c9 bf
       0.0663997576832742 -0.19871550156077725
000460 c2 a9 a6 1a b1 4f 57 bf ca fe fd ca 61 05 d4 bf
       -0.0014228086025506047 -0.31282849143461233
000470 23 08 8c 1e c6 51 c8 bf d6 a0 7a ee a5 07 a9 bf
       -0.189995541492011 -0.04888647590752419
000480 d3 42 77 c4 6f ee c1 bf 80 e1 08 41 2b 96 91 3f
       -0.140089007311437 0.01717441162529232
000490 37 b6 ae bf 9d 76 ca bf ca fb 38 37 5e 79 ab 3f
       -0.20674487933631422 0.05366033958534151
0004a0 a6 79 c9 55 df 33 c6 bf 69 82 82 31 50 80 b8 bf
       -0.17345802010363548 -0.09570790489898119
0004b0 be db a0 fd 90 ca c1 bf 13 5a 07 b1 2e b6 a3 3f
       -0.13899433502385067 0.03849931632037253
0004c0 37 1e 21 83 b1 c6 c7 bf 82 38 1b b3 89 47 ab 3f
       -0.18575114157487047 0.05328016578060703
0004d0 e9 13 41 c7 3a 90 a4 3f 17 21 af 96 fa 9d d2 bf
       0.040162884543441475 -0.2908922645115281
0004e0 eb a3 2f f6 f1 4e c0 bf 9c d5 b4 04 79 3d c1 bf
       -0.12740921517186563 -0.13468849878124167
0004f0 02 98 89 58 03 85 be bf 9b 5d bf ae c2 67 d0 3f
       -0.11921711837348428 0.25633303704440785
000500 75 5e 7e 5c 87 59 c8 bf 05 ed e9 0f a7 50 95 3f
       -0.1902322007779166 0.02081547770147287
000510 b0 4a b4 7d d5 5e b3 bf 10 92 18 8e f7 f6 b3 3f
       -0.075665801229017 0.07798716754093271
000520 c1 1b cb 6a 98 c3 bc 3f 95 85 3d f0 65 58 c0 3f
       0.11235954863796761 0.1276976988838611
000530 e2 58 9e 1a 02 e6 bc bf c7 94 37 03 c0 bf bd bf
       -0.11288464689127722 -0.11620712355177708
000540 75 a8 9c 47 ff 85 c7 3f 46 71 ae ba 84 47 c1 3f
       0.18377676960637115 0.13499507060340415
000550 34 b8 85 3b e6 02 b2 3f b1 ea 2f 72 db 91 c1 bf
       0.07035674050504853 -0.13726370883508346
000560 95 57 18 7e 93 1a b8 3f b3 e3 12 ee a8 4e c4 bf
       0.09415551975720711 -0.15865050911614062
000570 6e 08 6c 33 57 f0 9a bf d0 c8 5f 23 db 63 59 bf
       -0.026307451737928415 -0.0015496864339153323
000580 a7 47 58 1b 00 bc 51 3f b4 8f 0b b0 a0 76 b1 bf
       0.0010824204486010543 -0.06821636484124732
000590 e6 ee 18 01 73 5e cb bf 01 7f fe a4 d5 14 c7 bf
       -0.21381986192306285 -0.18032331997255116
0005a0 65 d3 c5 63 cf fc b3 bf a5 e4 f9 e9 20 fb c9 bf
       -0.07807632623537371 -0.20297633576027355
0005b0 95 f1 69 58 46 3f ca bf ff df 69 f2 1a 64 a8 bf
       -0.20505599324304727 -0.04763874253416133
0005c0 0f 19 e8 43 bb bf 90 3f 27 42 af d1 19 21 99 bf
       0.016356397647563855 -0.02454033224404575
0005d0 a9 2f 69 ac ba cd d9 3f 5e cf 34 37 03 8a d2 3f
       0.4031817134571108 0.28967361823310067
0005e0 99 2e 6f 47 52 78 b4 bf 2a 3a f9 4a 62 14 bb 3f
       -0.07996095890046674 0.10577978449257644
0005f0 f1 de ec 2f bc 6e c2 bf ec ef cd 49 f7 fb 92 3f
       -0.14400436725713164 0.0185392988964707
000600 b1 bc 25 18 29 ea bf bf 62 9d b7 a4 e0 6b d8 3f
       -0.12466675605331791 0.38158432088535765
000610 cd 75 66 ab d7 0b b9 bf 8c 35 57 e9 97 a4 ae 3f
       -0.09783695158554125 0.059849498018233666
000620 6c 87 d8 8b b0 d9 8c 3f 0c e2 b2 af b1 ee 98 bf
       0.014087085025554301 -0.024348045681764005
000630 48 2c 27 0c f7 28 b5 3f 4f 4d 83 ee fe c8 a3 bf
       0.08265632673935486 -0.0386428514626923
000640 93 30 62 42 17 0d b1 3f 86 74 2d 2d 82 1d bc bf
       0.06660600062076787 -0.1098252640053535
000650 c1 bc 50 eb 2f 8f 9c bf bd b3 21 00 7f 4f a7 bf
       -0.02788996576071834 -0.04552838207823793
000660 14 81 cf 0f 29 ae ae bf 10 0e 44 0d 62 ab c8 3f
       -0.05992248838424721 0.1927301945471389
000670 67 9c 18 aa 7c c6 c2 3f bb 89 77 82 de 1c b6 3f
       0.1466823416278402 0.086378008701593
000680 9f 3d d7 7e 05 9c 97 bf 15 39 60 6a 17 5c c9 3f
       -0.023056112162348815 0.1981229085362847
000690 ca 80 b5 17 a9 4d bc 3f b9 99 ac cf 2c c0 bd 3f
       0.11056000546296044 0.11621360845729257
0006a0 46 46 2e c0 88 b2 d1 3f 9e 5a cb ae cc 07 95 bf
       0.2765218617215378 -0.02053756539211326
0006b0 4b aa dd 4a 73 82 c6 bf 88 a2 61 60 98 b3 cf bf
       -0.17585602908669026 -0.24766831117746713
0006c0 58 75 3f 98 34 ab b0 bf 54 03 ad 60 7f 34 a9 3f
       -0.06511238781918871 0.049228649665116336
0006d0 fe f3 e0 13 b8 b1 a3 3f b1 07 be 9a de d3 ae 3f
       0.038465263773538524 0.06021018637603904
0006e0 ef 19 f1 db ce 42 b3 bf fe 1a 25 4f db e6 bc bf
       -0.07523815984414005 -0.11289759332894886
0006f0 a1 ed 4e 28 84 1a cd 3f 4d 13 1e 6d 53 fe 66 bf
       0.22737171142749182 -0.002806818906665154
000700 5e d9 43 94 bb fc af bf da 3a 1c 06 00 bc c8 bf
       -0.062475072716483324 -0.1932373075328176
000710 21 41 f4 c7 d8 05 a8 bf 8a e4 6d b1 3c 34 c2 3f
       -0.04691960755201508 0.1422191492418146
000720 ba 0c 3a 7e bd d8 c8 bf 36 d2 76 c1 43 79 9d 3f
       -0.1941143862096391 0.028782900508035968
000730 19 fa 9d 08 39 d6 b7 3f 5c 63 8f bb ef 00 be bf
       0.09311253033045154 -0.11720178917984242
000740 96 e3 e0 54 3a 24 9a bf 49 81 8c 15 36 4f c4 bf
       -0.0255288233094891 -0.15866733600797492
000750 a9 7a 84 44 5c 8d c2 bf 1f 5c ee b6 8b 0a c5 3f
       -0.14493897767620936 0.1643843310564259
000760 e5 f8 e6 b7 35 3d d3 3f 0a 20 58 ec dd 02 b6 3f
       0.30061095198824567 0.08598124523280162
000770 f0 59 ac f9 b6 45 6a bf 56 62 6f ab 09 ba b7 bf
       -0.0032070707069451407 -0.09268246112277131
000780 30 26 77 07 dc c9 ab bf 5d 36 56 53 34 f6 9b bf
       -0.054274440680796565 -0.027306382738564106
000790 61 cc 46 4e e6 1c 8d bf 91 5f f6 c1 af 03 ac 3f
       -0.01421527792340366 0.05471562617020632
0007a0 2c 9e 58 a3 df 6f c5 3f 95 e8 96 f9 39 fc b5 bf
       0.1674766109074296 -0.08587992042058297
0007b0 03 ac d7 8a f7 26 ab bf 66 08 20 d7 cd 8c 51 3f
       -0.05303166932920791 0.001071167961072672
0007c0 38 8e b3 2d 68 25 ad bf cb 24 02 ca c3 68 a4 bf
       -0.05692601735952646 -0.03986179200098546
0007d0 48 ea fd 5a 20 6e af 3f de fc 19 be 6c f6 b0 3f
       0.06138707266560012 0.06626014367246877
0007e0 47 ec 7a 34 47 54 a6 3f 3f 45 16 86 be a3 9d bf
       0.04361174121501015 -0.028944947179813992
0007f0 3d fb 18 87 ba b8 b3 3f 73 59 4b 31 20 00 bb bf
       0.07703748510628557 -0.10547066882586424

V3 f8 [21, 28]
000000 b8 15 fa 25 e5 84 ce bf 11 41 a6 02 25 be d2 3f
       -0.23843063692417643 0.29285550364240104
000010 4d 72 73 4e a2 69 c7 bf ba 89 31 ad 1a ea c5 bf
       -0.18291119413960857 -0.1712067933722901
000020 8c cc 42 f9 67 11 cc 3f 63 0e 79 62 ee 8c d1 bf
       0.21928119345611596 -0.27422675720683837
000030 d2 e8 c0 bb 79 b4 d1 3f 67 1e 1b d7 71 b0 ca bf
       0.27664035163219325 -0.20850966456622474
000040 71 57 66 42 83 f9 b7 3f 30 5e b1 ce 15 7a d0 3f
       0.09365101214492967 0.25745148835037224
000050 31 f6 11 80 d3 31 cf bf ab e1 b1 f3 dd 21 4b 3f
       -0.2437080741255371 0.00082801187035302
000060 c3 9a 6a 93 75 e9 b1 3f 88 e1 34 a6 80 fd c2 3f
       0.0699685559180621 0.14836128345065114
000070 32 5f 96 30 8e 38 9d bf bc c2 b4 04 19 e5 85 bf
       -0.028536054339922852 -0.010690875488394418
000080 fe 12 9e 24 a3 09 d3 3f 1a e3 34 ab 69 a6 ab bf
       0.2974632127373268 -0.054004003667108516
000090 eb e8 20 d6 2b 72 d1 3f 56 61 47 2a 47 19 cc bf
       0.2725934592341576 -0.21952142300029703
0000a0 1a d3 8e ad 92 0b bd 3f 5c 58 75 b5 f2 12 80 bf
       0.11345783936742429 -0.007848640597028993
0000b0 92 2b ca 4b 2c 1c b6 3f 0e f6 37 f1 7a 9c d2 bf
       0.08636738634429111 -0.29080079609397635
0000c0 68 78 41 e2 cb 2d b4 3f 75 b5 b6 bf b8 30 c5 bf
       0.0788237979299723 -0.16554936753292862
0000d0 23 60 07 d1 2b 2e a8 bf 4e 90 4a 02 38 b8 c7 3f
       -0.04722725798245644 0.18530941116216798
0000e0 cf 56 2e b6 54 43 c2 3f 43 3c 01 20 fb 8c b6 bf
       0.14267977614934188 -0.08808869868629281
0000f0 e5 eb e8 fe e7 51 80 3f 7c ff eb e3 17 f8 d4 bf
       0.007968723742228742 -0.32764241464609944
000100 30 b1 05 e1 e1 08 d4 bf e7 30 b2 dd 49 f7 ac 3f
       -0.313042134998585 0.05657416182757107
000110 ab 2e 7e aa 45 86 c4 3f 3d 44 b3 bf 17 ac c7 bf
       0.1603476603016721 -0.1849393545185495
000120 6b b5 e3 20 02 04 d7 3f 0b d9 50 60 da 84 c5 3f
       0.3596196480928799 0.168116852788167
000130 b5 86 a0 03 54 61 ca bf 2d 59 fd 81 35 a3 c6 3f
       -0.20609522034742658 0.1768557438578652
000140 05 52 b1 bc 36 7c b4 bf e0 24 83 de 9c 75 d2 3f
       -0.08002035242800083 0.28842851381030066
000150 99 29 d5 90 99 d1 d3 3f 47 c3 a0 79 dc b0 89 bf
       0.3096679605847839 -0.012544367276946423
000160 64 65 f0 fb fa e5 a8 bf 56 89 83 6a 92 24 c4 3f
       -0.04862961125781842 0.1573660869681343
000170 8e 55 aa 9c ad 89 c4 bf 4b 47 0c 37 bd 1d ac 3f
       -0.1604516043632142 0.054914391488763835
000180 9e 5e 18 9d 53 b3 c2 3f 06 53 6e 15 81 1d cf 3f
       0.14609761400855786 0.24308789774354284
000190 57 aa c5 c6 ed fd d1 bf 78 8a 0c cf 5c 2b 79 3f
       -0.28112358485546934 0.006144869360272247
0001a0 64 c5 2b 2e 8f 02 91 bf 11 f4 23 bf 37 d4 b1 3f
       -0.01661132544808676 0.069644436040065
0001b0 d5 73 09 32 40 56 95 bf 7e aa af 18 7f 5e d0 bf
       -0.020836833051692445 -0.2557676068378568
0001c0 4c 0d 8f 30 99 e5 b7 bf 36 9a 7c a1 fe 07 62 3f
       -0.09334714351193901 0.0022010777719459152
0001d0 d6 c8 e8 e2 5d 26 d4 3f b3 b1 6d 5f ef 4d cf 3f
       0.31484172019112344 0.2445658889731824
0001e0 bc 8e cc 73 7d d0 82 bf bc 69 d3 45 43 c8 a4 bf
       -0.00918672570839562 -0.040590383790646695
0001f0 f6 b9 e0 9c 68 d0 b5 bf 68 3e 44 e1 7c eb aa bf
       -0.08521131353402453 -0.05257787942730091
000200 e2 c7 e5 d4 30 8b d0 3f 33 1e de 33 6d f3 9d bf
       0.25849552908687035 -0.02924891118121149
000210 b6 e4 37 52 c9 27 b4 3f 33 7f e0 23 94 5e d3 bf
       0.07873209244998489 -0.302647624050212
000220 af 37 00 eb ba 15 d1 bf ae 17 ce 49 e6 4b d0 3f
       -0.26695130299855924 0.25463254172825145
000230 ec ae 17 0b 3a 3b b1 bf cd ac c5 c6 10 91 d9 bf
       -0.06730997820676138 -0.39947909747452287
000240 3d b4 70 64 4c f2 ae 3f 08 f3 54 46 a4 68 a5 3f
       0.06044234014584802 0.0418139777998246
000250 28 63 4b 05 c7 1a 9d 3f 3c 27 5b 38 11 e8 b6 bf
       0.028422460268163224 -0.08947856546288063
000260 13 62 63 34 68 7f cb bf 9c 4f 1b c1 b1 89 be 3f
       -0.21482565458315203 0.11928854908484116
000270 ac 68 4b 6d e1 6f 61 3f 9e d3 fe 7b 7b 45 93 3f
       0.002128544127441753 0.018819741671638128
000280 7d 21 11 c9 aa d3 da 3f 64 71 ff 51 d8 a3 d0 bf
       0.4191691363853563 -0.26000030524826045
000290 4e cd 80 84 d8 af c1 3f 2a 15 f9 18 17 f5 c0 bf
       0.13817888707999731 -0.1324795600832343
0002a0 8e f5 56 b3 87 a6 c1 3f ab 7a 2a 6d d5 ff a5 3f
       0.13789459473438764 0.0429674812087247
0002b0 bb 9d 33 f3 15 76 cb bf 37 5b 07 88 06 3a 99 bf
       -0.21454119086341258 -0.024635412266287928
0002c0 30 2f 00 88 9b 1f 62 3f 32 12 0c ab b1 d6 b6 bf
       0.002212337276437902 -0.08921347070651889
0002d0 e9 46 4c 16 93 11 77 bf 10 ed 9c 22 ce f1 b5 bf
       -0.00563199478053076 -0.0857209047798515
0002e0 8f 0c 6a a5 e3 0d c3 3f cd 5d f7 51 c3 5d bb bf
       0.14886136605136754 -0.10689945937280428
0002f0 14 26 8d cf 57 c7 c8 bf b4 f8 62 91 ad a1 ca bf
       -0.19358346590370046 -0.20805902098613205
000300 72 76 88 36 59 28 b2 3f 16 72 6e 29 04 05 af bf
       0.07092816907285185 -0.06058514600519886
000310 60 0a a6 b9 c3 51 cf bf cb 59 26 fb e6 66 9c 3f
       -0.24468275608895151 0.027736291007011176
000320 58 f4 93 65 8a 04 a9 3f a0 a1 70 3c fa 9d dd bf
       0.04886276712384391 -0.4627671804651303
000330 c0 23 2a 1f 57 e3 ad 3f a8 4a 0e cc b4 0f c0 3f
       0.05837509398867935 0.12547931636489307
000340 dc b8 a8 2d 5c 85 7a bf 64 12 fc 7c 1c fd 92 3f
       -0.006474838325216416 0.018543667915781006
000350 14 c5 4c df 36 53 cb bf f0 ca b5 3d 23 34 a0 3f
       -0.21347700026812133 0.03164777878091296
000360 89 71 a6 aa 3f 9b ba 3f 92 30 d4 b8 93 4c d7 3f
       0.10393140712989725 0.3640488915414234
000370 54 ed 89 b7 d5 52 e1 3f 26 47 5b f7 24 bb be bf
       0.541361673807311 -0.12004309691408518
000380 6c 20 1a 62 3e 4e b4 bf 3c ae da 29 ed 96 b1 bf
       -0.0793189038760162 -0.06870920440513201
000390 9f e1 c9 a3 a9 e9 cd bf 0d eb d6 de d0 f9 c5 bf
       -0.23369331834306892 -0.1716862762530912
0003a0 3c e0 a9 22 41 f2 c0 3f 24 0b 44 b3 00 46 cf 3f
       0.13239301865155706 0.24432381394589087
0003b0 ca 65 e8 be a4 15 b5 3f 77 60 2e ca 9d 89 b6 3f
       0.08236150418124236 0.08803735910476172
0003c0 dc 97 b1 8f ec 35 c0 3f 47 a2 6b c7 b9 fc d0 3f
       0.12664563194556322 0.26542515253689597
0003d0 e5 f8 ee 90 3f 99 91 bf fd d2 1d 53 77 db bd 3f
       -0.017186158391035006 0.11663003710948412
0003e0 f2 8f c3 12 f1 c0 bf bf f7 07 f1 2a df 41 b7 bf
       -0.12403780658820532 -0.09084887312295097
0003f0 bb 4c 39 3c 0f 78 b2 bf 38 95 bc 05 3b 6d d3 bf
       -0.07214446277912405 -0.3035419040700904
000400 cd 41 ad 9c a5 7f c3 bf 70 aa e5 49 f0 2c b9 bf
       -0.1523329749129644 -0.09834195903901288
000410 db 58 4f 3e 50 07 a5 bf b3 b3 4a 2b 8e b5 c6 3f
       -0.0410714222013426 0.17741562951905862
000420 ee 21 f4 a8 b9 00 ba bf 98 51 b3 8e b0 9e e2 bf
       -0.10157356619686883 -0.5818712985151704
000430 4b 12 d7 76 ca 5b ca bf bc 8d ec 4a 28 6b b7 3f
       -0.20592623522510886 0.09147884206009044
000440 ae 79 b7 c6 71 55 d2 3f 2a 6e 9f 44 bd 66 8c 3f
       0.28646511465003754 0.013867834717465295
000450 20 cf fa ff ab 6b ca bf 8f 62 47 5c fe cc a1 3f
       -0.2064108848477355 0.03476710201693322
000460 e6 8a b2 da 63 c6 ce 3f 32 f3 f9 7d bb fb 99 bf
       0.2404293840273432 -0.025374345363604785
000470 49 6a 73 19 c9 b7 a5 bf 30 1f 9c 13 e6 03 c0 bf
       -0.04241779742888647 -0.12511898000252009
000480 10 f8 28 c2 37 46 c4 bf b3 d4 60 24 85 f6 ae 3f
       -0.1583928773924872 0.060474548998550225
000490 d9 9d 8a 13 0e e0 af 3f a8 71 9d 70 13 a6 97 3f
       0.06225627888244007 0.02309446692321307
0004a0 2c 1b 00 d3 41 5e b8 3f c3 d9 2f 78 50 e5 a8 3f
       0.09518824960114775 0.04862452952504583
0004b0 5b eb 76 3a c6 1f bc 3f a1 ff 49 07 c6 f5 c1 3f
       0.10985983779293688 0.14031291347418764
0004c0 b0 47 c8 e8 fa 8f dd bf 4b f4 84 a4 f7 fa c4 bf
       -0.4619128487839772 -0.16390891583606257
0004d0 c6 8e a6 8d e8 5e c1 3f 6c a1 11 c0 5c 03 cb bf
       0.135708874860134 -0.21104010942805063
0004e0 ce 33 d6 3a 1f b5 c0 bf 76 7b a7 60 3e 57 de bf
       -0.13052740452658756 -0.4740749305619184
0004f0 aa 5d b9 da 8a 80 b3 3f 90 47 17 aa e3 d3 ca bf
       0.0761801513666486 -0.2095913486978671
000500 8e 3b c1 e4 2d 71 9e bf 0e 52 92 81 db 42 c0 3f
       -0.02972861965855205 0.12704032732712317
000510 8e ec bb 44 51 c2 da 3f d9 82 d6 48 f9 08 c2 bf
       0.418110196231006 -0.1408988576559043
000520 c1 0f d0 c7 e9 7e c3 bf 5c c4 1c f6 35 0d 83 3f
       -0.15231058365327324 0.009302541325810924
000530 98 3c f7 51 a8 ef 7f bf 35 2b 2f 13 d3 2e c1 3f
       -0.007796914578150148 0.13424147068720918
000540 e2 b5 12 37 29 35 b2 bf 0f 39 84 94 df 3d 94 bf
       -0.07112367243345077 -0.01976727813694717
000550 d9 7a bf 9f 0d 15 a1 3f 3d 70 a2 3c f1 b4 a2 bf
       0.033363748312458426 -0.03653673043410819
000560 f7 83 e5 d5 4c 26 b9 bf cf 62 cf a9 59 d0 b2 bf
       -0.09824066373904815 -0.07349167247538023
000570 2d fc bc 7e 92 f2 b3 3f 12 9e 1b b7 8b e3 d4 3f
       0.07792010873980422 0.326388291183748
000580 a3 fa a5 01 e6 34 c3 bf c1 d2 a4 8d e2 be b4 3f
       -0.1500518329666721 0.08103767355062087
000590 36 48 2d c1 aa 36 b5 3f db 31 28 4c b3 4c d1 3f
       0.08286540237648485 0.2703064197274025
0005a0 36 a2 ca 48 87 d4 dd 3f 23 19 40 fb 10 02 cf 3f
       0.46609670742558096 0.24225055950245986
0005b0 53 85 25 7e 9f 98 d1 3f f6 7f dd 44 42 c7 c6 bf
       0.2749403697872214 -0.17795589792785876
0005c0 00 4b 7a 5f 88 17 9c 3f 51 e8 c5 25 bd f7 c5 bf
       0.027433520152565727 -0.17162288994205935
0005d0 61 24 cc b9 f7 08 bd bf 59 cc 9a 48 bc 06 b4 bf
       -0.11341808591909476 -0.07822777531218729
0005e0 7e 78 36 9a f6 c2 b9 bf d9 cf 18 7c f2 2f c7 bf
       -0.10063115372619966 -0.1811507326070785
0005f0 a8 f9 7a 8c 71 66 d1 3f 02 d5 20 eb f7 0d ae bf
       0.27187765806948017 -0.05870032067506693
000600 e5 95 d2 06 5f 9c b6 3f e9 29 de d7 60 55 b4 bf
       0.08832353512351394 -0.07942776937685604
000610 11 bb bb 54 23 5f d5 3f 53 5f ee 59 1d c6 d1 bf
       0.33393176340807523 -0.2777169588311967
000620 4a 4c 2b 53 c2 2e ce 3f a6 ec 77 10 e3 e8 be bf
       0.2358019739245683 -0.12074107315122493
000630 03 c4 ec 2f 43 7e b9 bf 54 63 d1 29 09 bf 8f 3f
       -0.09958286209145233 0.015501090611154268
000640 b8 1a 1b 1f 1b 44 ba bf fc 3d 29 72 52 84 ac 3f
       -0.10260171422406017 0.05569703715866223
000650 4c 80 a2 87 96 7a 58 3f d1 4a 65 24 fb ea a4 bf
       0.0014940710084730023 -0.04085526294024578
000660 48 1a 67 6d 48 22 c2 bf fe 55 05 0a 9e d6 85 bf
       -0.14167123166972062 -0.010663256340801116
000670 e6 17 e2 33 d0 c4 41 bf e6 74 7a dc 2c 14 da bf
       -0.0005422608007996626 -0.4074813988789415
000680 6f 52 fd 8c 1e 6f c0 3f 64 cf 84 af 36 1b b7 3f
       0.1283910931039318 0.09025899682165811
000690 1d aa 83 b9 4d e9 9a 3f a9 d9 d8 2e a3 f0 b5 3f
       0.026280607650656863 0.08570308583953214
0006a0 e4 59 90 1a f6 ec c6 bf 50 44 7e 0b 99 21 c5 bf
       -0.17910648629249615 -0.16508782445137848
0006b0 aa ac 1c a3 98 9f c1 bf 2f 22 12 a4 97 9e cf bf
       -0.1376829906888351 -0.24702735434790798
0006c0 f1 45 ef a1 b9 c3 e3 3f c5 46 35 4c 2f 2e c2 bf
       0.6176422274385783 -0.142034446917526
0006d0 12 7c c4 3d 5f e3 a9 3f 72 d0 5f 2f 75 3a a0 3f
       0.050562835969906086 0.03169599726962326
0006e0 c8 c3 3f 21 f6 b4 d0 3f 4e 2c 23 a1 89 a9 ce bf
       0.26104501006107883 -0.23954887741124015
0006f0 84 a0 a9 91 a7 38 bf bf ff 4c 56 e4 b4 be 97 bf
       -0.12195823007789569 -0.023188425480452853
000700 5a eb f8 a4 b3 da c7 3f 3d 63 f2 f5 a3 40 d1 3f
       0.18636174731531235 0.26957034128422547
000710 57 24 d3 b2 08 c6 84 3f 5c ca 20 0e ee 7b b5 3f
       0.010143344838427533 0.08392227024959581
000720 2d 20 34 49 1d 48 99 3f 83 83 8c e6 cb d3 c6 bf
       0.024689157097810877 -0.17833851582784285
000730 07 38 6f 7a fa e8 88 3f ba a7 c2 1c 65 47 c5 3f
       0.012163121091273167 0.1662413015777114
000740 06 6d ad 96 4b 21 c7 bf c0 97 63 b0 a2 5a bf bf
       -0.18070359093949423 -0.122476738036851
000750 31 d4 e0 ff a1 5f a2 bf 9b 2d 35 b4 c7 c3 c7 bf
       -0.03588587044252057 -0.1856622342987578
000760 f9 b5 3f c3 94 02 cc bf ac eb 8a e1 c3 f4 ad bf
       -0.21882876905094387 -0.05850803497511178
000770 11 02 73 d3 ff 82 dc 3f 70 f2 99 43 57 1a b0 3f
       0.44549556397763107 0.06290192985938758
000780 02 df bc dc 64 9a c8 3f 82 d7 4e 5e 52 a6 93 bf
       0.19221173074924286 -0.019189154630758327
000790 f3 fa f6 1c 29 df b8 bf 62 f7 e7 e8 53 e9 d5 bf
       -0.09715516049525856 -0.34236619705904137
0007a0 a4 d9 46 26 be fb ca bf f8 b0 47 f5 d7 19 cf bf
       -0.21080757969839425 -0.2429761836677995
0007b0 a2 33 77 64 73 54 d6 bf 0a 6c 74 db 6a 1a be bf
       -0.34890446482750737 -0.11759059770376737
0007c0 d4 6f 65 e3 f8 aa 7a 3f 4a c2 2c bb f1 42 cb 3f
       0.006510708064833854 0.2129804767551085
0007d0 89 b5 7a 52 95 ac c2 bf 54 be d5 7d 13 5f c1 bf
       -0.14589182402907522 -0.13571399349483448
0007e0 0e d1 2f 1e 48 d1 c0 bf 87 3e 1a 8c 21 44 c5 bf
       -0.1313867709537892 -0.1661416944593734
0007f0 cd 6f 6d 1d 4f ca b6 3f 0b 68 f9 ab 93 7b 76 bf
       0.08902449100918304 -0.00548894581114646
