Fuentes/model_rdim.npz (npz, 23362 bytes, 3 tensors)

V1 f8 [35, 41]
0	0x3fce634a8ec66e13	0.23740512820664658
1	0x3f9ca5339fcc0c08	0.027973944309462012
2	0xbfe6ec8e3f431502	-0.7163764224611955
3	0x3fcbf26f4a2065ff	0.21833602065525778
4	0xbfc546517d58c656	-0.16620844479034486
5	0xbfb74bd94003b402	-0.09100110829213295
6	0x3fb3ccb2fc6e1c0a	0.07734221136898625
7	0x3fda5e7e8c1f43b4	0.4120174759273667
8	0xbfd0efe3953b6c8a	-0.26464166234445285
9	0xbfac8c6999b1e85a	-0.05575876237067297
10	0xc0028037597e27a8	-2.312605570948069
11	0x3fa4ad7fe200e5fa	0.04038619645912074
12	0xbf716d4552d27e47	-0.004254599375741081
13	0xbfd996a0bf53ca17	-0.3998185985975921
14	0xbfd9ff12363ed646	-0.40619330689819255
15	0x3fd3a7bbe98f664d	0.30711267288788663
16	0xbfc80d18f2c3fc5f	-0.18789970258510189
17	0x3fbe5b220162682b	0.11857807668494107
18	0xbfe01e66d582b237	-0.5037111444594932
19	0xbfca741664299296	-0.20666770830861897
20	0x3fc8935adc5046ee	0.19199691541194092
21	0xc0007dfd593adb4d	-2.0615183802687285
22	0xbfd26f590e6fd3a5	-0.2880461350426294
23	0xbfc622a24d843001	-0.17293194565752404
24	0xbf1972c0886ffa90	-9.7077370909896e-05
25	0x3fbbcdc712255916	0.10860866730704219
26	0xbfb1cc66bff82ccf	-0.0695251673388839
27	0xbfd8d041278a0e8f	-0.38771084653147
28	0xbfe63d3e3bfe410f	-0.6949759647123147
29	0x3fc2ecfd927474d0	0.14785737658613707
30	0x3fbb137697436639	0.1057657355589975
31	0xbf76bd2a88d7d7ce	-0.005551496649323041
32	0x3fead8c92388cbde	0.8389630979567035
33	0xbfdfa411d89816df	-0.49438902045981864
34	0xbfce0a6c503d9318	-0.234693087749428
35	0x3fc6eed72636cbc8	0.17916383138580572
36	0x3fd6264b63ee7730	0.3460873103994002
37	0xbfc3e27c62cf3736	-0.15534930061988356
38	0x3f8eb563eb9205a2	0.014994412066019095
39	0x3fe46b7c90088f62	0.6381209195283015
40	0xbfbe6077c27b813e	-0.11865948198420015
41	0x3fd6a7561c109eac	0.35396340122904735
42	0xbfb4ab2443d5a0fb	-0.08073641449084683
43	0xbf97eac8222c5d17	-0.023356558881542613
44	0xbfb8ea94fd97370e	-0.0973294371717339
45	0x3fc4b3bca2d7d23c	0.16173513366051562
46	0x3fac517227f4c057	0.055308883073281016
47	0x40014e70b1ae4001	2.1633008843709836
48	0x3fc909dafb5bb3e8	0.19561326287603653
49	0x3fbb28dffe822914	0.10609245265564865
50	0xbfaaa37f8162880f	-0.05202864126592043
51	0xbfc6e428c52ec45f	-0.17883786800442444
52	0x3fde8640017c204b	0.47694397110945336
53	0xbf96c097d7bc1195	-0.022219059507749234
54	0xbfcb0de0082f2ab9	-0.21136093520757074
55	0xbfd9b2506bc4d6c4	-0.40150843166643946
56	0xbfcb4c21fd2af2e9	-0.2132608877344844
57	0xbfa474b907f41773	-0.039953024121173984
58	0x40128a3860cf5705	4.634980690627121
59	0x3feb92ae2fd0ff04	0.8616553243554965
60	0xbfc9828c787ad852	-0.19929653055959534
61	0x3fc0f91daec27572	0.1326024154013044
62	0x3fd825ccc7675d67	0.3773071238806182
63	0xbfe7e0875dfe0448	-0.7461582980905712
64	0x3fe4c4bc177855d7	0.6490154703521352
65	0xbfccfc3b61cf6ada	-0.2264475085820184
66	0xbfcc91a20d636285	-0.22319436696740894
67	0x3fca83d05f7ca256	0.207147642731132
68	0xbfa8c1e94f2ceb46	-0.04835442630288482
69	0x3fcb121eb55c429c	0.21149047713744984
70	0x3fd729dae2259860	0.3619296272721666
71	0x3fc8491d78b0bfae	0.18973129647338055
72	0x3fd6c1481fe6001d	0.35554698100168186
73	0xbfd8629c3f13cc6a	-0.38101869735618854
74	0xbfc5cfe3e3fb18e9	-0.17040680534245858
75	0xbfd9df01b6b9f5ff	-0.4042362484395596
76	0x3fe3de76f88b7d51	0.6209063391105848
77	0xbfc648bbd10dfb8e	-0.1740946551107893
78	0x3fe89a6a3d8905ba	0.7688494874820926
79	0x3fe0d1e0ba6968b3	0.5256198540548865
80	0xbfda9f542ab508ed	-0.41597465677854367
81	0x3fdd38d06c48e458	0.4565926606624706
82	0x3fc9ee4ee32f6179	0.20258508770963227
83	0xbfc4ac8be1feae91	-0.16151569876580088
84	0xbfc3d4624fe248bc	-0.1549189462717261
85	0xbfd6a00df6ec0c70	-0.3535189544056214
86	0x3fc33cddab6901e3	0.15029497975957815
87	0xbfcefb3c947c0397	-0.24204213381019876
88	0x40068e4d545db289	2.81948343192045
89	0xbfc86393e8dfd1f5	-0.1905388724404841
90	0xbfb684c1de2e5ab0	-0.08796321558325348
91	0xbfca390a23ac8ccc	-0.20486571065803216
92	0x3fec5fd581c4aeb7	0.8866984877144749
93	0x3fc5a6992d7b5652	0.16914667816915824
94	0xbfd694338ecea3be	-0.3527954954720903
95	0xbfd2126b916ec498	-0.2823742790452086
96	0x40080b005203bd6a	3.0053717048064543
97	0x3fb5e94d785eccd2	0.08559116543510761
98	0x3fd2acc94061d341	0.29179602896993023
99	0xbfc2d1cf0d2acffe	-0.14702785628253418
100	0x3ff945050cfce0c5	1.579350519879925
101	0xbfa20dabc280aa80	-0.03526055096911751
102	0x3fc9853507d89fdc	0.19937765963663778
103	0x3ff86674ed916447	1.5250138549802317
104	0x3fa5ef4e6d4a9ad8	0.04284138759731143
105	0xbfda251545415eb1	-0.40851337207048305
106	0x3fcd697a42553955	0.22978142012511663
107	0x3f829e871dd0451f	0.009091430280053601
108	0xbfc3b4ed41218e17	-0.15395894699314347
109	0xbfcf53693a5e6540	-0.24473300313983692
110	0xbfcf2ca7b0b8bf4d	-0.24355026368129487
111	0x3fc80d9e027f732b	0.18791556474652657
112	0xbfdd99cc5ab9fa06	-0.46251210079199756
113	0xbfd361d156828c57	-0.30284532020795524
114	0x3fd15892ae3c37ea	0.2710310651317501
115	0xbfd05d45f3fc5063	-0.25569294764250666
116	0xbfd17f30868cabce	-0.2733880342445304
117	0xbf9eb2cc540c3e6e	-0.029978935842392244
118	0xbfce6b422343ffbf	-0.23764826509431988
119	0xbfe6d334cc5682b3	-0.7132820120787841
120	0xbfeecd0076adaf19	-0.9625246351183449
121	0xbfcd6c92c605513b	-0.22987589520438143
122	0x3fe131fb4ca618b8	0.5373512742087518
123	0xbfcb967de60f4875	-0.2155301450098396
124	0xbfc956dbb779d67f	-0.197963203990799
125	0xbf51f0f11098a4e7	-0.001095042624351722
126	0x3fce46e5d333d9d5	0.236538627744905
127	0x3fbb601f12a121ed	0.1069354458314888
128	0x3fbca7a70c5ac9a0	0.11193317462565355
129	0xbfc233f996c9f013	-0.14221114981398894
130	0xbfd9cf846bde0fb9	-0.4032908490555616
131	0x3fc8914775dfdbd2	0.19193356757725027
132	0xbfe18477c84249e7	-0.5474203978831697
133	0xbfdbd6c8250b0879	-0.43498424165239374
134	0x3fc1b39e3b8d5987	0.1382940092832536
135	0xbfc4e8caa80bb6b5	-0.16335423665389262
136	0x3fe542c7b4c3ea8e	0.6644018679210875
137	0xbfcfac4cd4338725	-0.2474456821574275
138	0x3fe456fa5e778553	0.6356174321228231
139	0xbf7b4c26404fbdf3	-0.0066644186199335985
140	0x3ffc8497166f9bac	1.7823706509022754
141	0x3fe4fbc9271f5103	0.6557355655773168
142	0x3fcc509a378480c8	0.22120979033298327
143	0x3fd1a64a89753b90	0.2757746069300362
144	0x3fcf23dbdbdb5c60	0.24328182444762358
145	0x3fc8be63faf7b513	0.19331025842931435
146	0xbfde26e7b0a69c53	-0.4711245751481716
147	0xbfa7adb47381992a	-0.04624713811863253
148	0x3fd1e92fa7bce85d	0.27985755329757983
149	0xbfd7187b1afbab79	-0.3608691943651859
150	0xbfe67b2fa957bad9	-0.7025373752092846
151	0xbf9fc91a27e8b189	-0.031040581403588816
152	0x3fc544d9fad61df8	0.16616368053313102
153	0x3fbd0bb5f93fdab0	0.11345994315329722
154	0xbfd22e11c264ec24	-0.28406185134707784
155	0xbfdaaa2311afb446	-0.41663433768446045
156	0x3fd2c8915f26ed27	0.29349169056122765
157	0xbf7d42b2a25f5ca4	-0.007143686094386901
158	0x3fa34aa9518adc42	0.03767899628058348
159	0x3fc456e8a94f660d	0.1589022471151086
160	0xbfd5bc6b76c5df0c	-0.3396252307788792
161	0xbfb63aa5b6a72d82	-0.08683238705923738
162	0x3fccaef87730a636	0.22408967799974427
163	0x3fd2ae4a75e447a1	0.2918878699575718
164	0x3fe21a4ce66cfa52	0.5657104969503257
165	0x3fb01aac9091c5d6	0.06290701417471864
166	0x3fc033d96d486030	0.12658231578893853
167	0x3fd59aae8491b70d	0.33756602235995176
168	0xbfcdc302d46a6644	-0.23251376506668653
169	0x3f9f5e18f6a24027	0.0306323910268135
170	0xbfb60b21ebf25a5f	-0.08610736856858513
171	0x3fd21c0e640e5f7b	0.28296241541965345
172	0x3fc676127e7785ca	0.17547827887669448
173	0x3f96c3320bffc2c2	0.022228986723294104
174	0x3fdb5f229fa0fd6e	0.4276815947414069
175	0xbfd37e5933ff10b1	-0.30458669736641314
176	0xbfb5d9f452ce7c93	-0.08535697003979896
177	0xbfd178e27e12907a	-0.2730032187630581
178	0x3fc018f680eaa265	0.12576180739167167
179	0xbfd3973c1d52bbf8	-0.3061056410178362
180	0xbfb24a9bb319ca99	-0.07145093081070754
181	0x3fe3be85f5b7df3c	0.6170072364029475
182	0x3fed17e0ba9f6642	0.9091647763227189
183	0x3fa58460a6bf3fa8	0.04202558551298746
184	0xbfa8418064bb8978	-0.047374737068611006
185	0xbfe0eb235d1f69ef	-0.5287033861926015
186	0x3f8728b234d5d3e7	0.011308090436367336
187	0x3fd6edf284d98f79	0.3582731530534527
188	0xbf8a53fd73af0fb7	-0.012855510800257137
189	0xbfbfdef7ab538634	-0.12449596340913943
190	0xbfd893d59224f92f	-0.3840230872337029
191	0xbfddcc236e9ff510	-0.46558461955267294
192	0x3fde81d9df881e4f	0.476675480168045
193	0x3fb81423c74b9f4d	0.09405730834589328
194	0xbf849617419f1c8a	-0.010051900568113465
195	0xbfdc126a473191df	-0.4386239714861215
196	0x3fdc11e10557d374	0.4385912468126698
197	0xbfc554aceb77dd93	-0.16664659020873937
198	0x3fa8aa94431150bd	0.048176415621726566
199	0xbfe31fae59f47243	-0.5976173169070268
200	0xbfc819542f0cdebd	-0.1882729749429383
201	0x3fd8080368fc20fe	0.37548909428052457
202	0xbf57584c6a0782c9	-0.0014248605949590978
203	0x3fd9ff13d694ec0b	0.40619369464155913
204	0x3fd9a39c2a3adbac	0.4006109630967625
205	0xbfd9208f64502dc5	-0.3926123122807577
206	0x3faba6fba8238956	0.05400835444904099
207	0xbfd8edff1af89313	-0.38952615388761663
208	0xbfc78225836ce5b5	-0.18365925709967504
209	0x3fc856ce9c9f579b	0.19014914176540007
210	0x3fb8101d07d72ae4	0.09399587098520673
211	0xbfb36bf522ef4afe	-0.07586605170153501
212	0xbfbcc5270fd14fa4	-0.11238330970928573
213	0x3f81f3552a1e4280	0.008764901492925192
214	0x3f9c0756e595c3f6	0.02737174774432912
215	0x4006fac191a50c1a	2.872439515923827
216	0x3fcab7111a588624	0.20871175562301503
217	0xbfd2f2aef3bfb0a9	-0.29606221965401375
218	0x3fc09c8327f1b952	0.12977637720491458
219	0x40067779ffbf3416	2.8083381633973756
220	0xbfc9c1bde04c58f8	-0.2012250275808538
221	0x3f8797be79b9487d	0.011519897546495845
222	0x4006a7e983ef30f6	2.831988363968885
223	0xbfbc59a0bcc139c4	-0.11074261291762527
224	0x3fa698d2c1fcfe40	0.0441346990396565
225	0xbfc57df7f6f926be	-0.16790675696602436
226	0x3fe712780ba79802	0.7210045077924863
227	0xbfcb0368c6a76413	-0.21104154300590547
228	0x3fd2ef6b14dff27c	0.29586293257288054
229	0x3fd6c7cb2193c617	0.3559444263365505
230	0xbfddddab4004ad7d	-0.4666545987299385
231	0x3f96f86c6dfa08db	0.02243203564877026
232	0x3fe0b1be672c2ffe	0.5216972365465151
233	0xbfbe8a30fc410d66	-0.11929613264606118
234	0x3fc9da9549fdd68c	0.2019831286703958
235	0x3fd0c8d3e293a358	0.26225754858619643
236	0x3fa364f30a6d4e29	0.03787955763132473
237	0x3fe5ae9c5048b202	0.6775647705122199
238	0xbfcc53eb3f4f6a75	-0.22131100264853712
239	0x3fdbf9c19730ba5d	0.43711890949899673
240	0xbf95e19538d5d681	-0.02136834296603363
241	0xbfcc64fd8b292f7f	-0.22183198256459133
242	0x3fd51d92b45179c9	0.3299299965782692
243	0xbfd2799cbe7b320f	-0.2886726246040618
244	0xbf7f4290926bca15	-0.007631840452392531
245	0xbfe56f60efd81682	-0.6698460277991247
246	0xbfd36522088d6f1b	-0.30304766497805397
247	0xbf9b9bc0328a66ab	-0.026961329540972894
248	0xbfa6364cc9b706d0	-0.04338302576389952
249	0x3fc73ce910512570	0.18154633805015008
250	0xbfba6e4f218e5e83	-0.10324568337670752
251	0xbfcd455b31e9668f	-0.22867908417793045
252	0xc00fde067e58a9b0	-3.9834108229453804
253	0x3fcb2eedcaa9475a	0.21236965556686976
254	0xbfd003801cf7ae87	-0.25021365002496804
255	0xbfc398ff2c4aecd7	-0.15310659086922015

V2 f8 [19, 35]
0	0x3fc9663138ccdcce	0.19843116067361283
1	0xbfae5ccae37cade0	-0.059301700848972905
2	0x3fcc452d830dd5f8	0.22086113833545062
3	0x3fd5c6bdc27a4e52	0.3402552031704761
4	0x3fbe9c08b4b747ed	0.11956839000711712
5	0x3fb7ee386c40c3a0	0.0934787048615946
6	0x3fc5f8dc0803ccb1	0.17165708915090286
7	0x3fc4016526215728	0.15629257547214448
8	0x3f9cbfe9e3172bd1	0.02807584236670008
9	0x3fcd29f9057a1d3a	0.22784340636665396
10	0x3fe082a5a787c2b0	0.5159481308056311
11	0x3fd2c2ce73f33735	0.2931400425267044
12	0x3fd093e9c57b49f9	0.25902790341675047
13	0x3f53d7d5bf220927	0.0012111270303028583
14	0xbfe17910b2d311cd	-0.5460284702936008
15	0xbfb6a0a5e939c868	-0.0883887953184811
16	0xbfc4b3c83d527b53	-0.16173651689765708
17	0xbfb79cde9c5b58f5	-0.0922373897295506
18	0xbfa3da2846ea6424	-0.0387737833563693
19	0x3fccad282e4e28ff	0.22403433094979872
20	0x3fb627eaeae36576	0.08654659494950132
21	0xbfb5ceaf66f1dd98	-0.08518501532841183
22	0x3fbcbceeab2713ba	0.11225787809878698
23	0x3fca7b924b7db572	0.20689610181890888
24	0xbfc743ca5fd11b9b	-0.18175630262905149
25	0xbfa794818aba3321	-0.046054886040201255
26	0xbfaf8c123a87145c	-0.0616155334896937
27	0xbfc1f738b48fa2d9	-0.14035710159739415
28	0x3fcebb8c966facc0	0.2400985464622405
29	0x3fd7ba85944792d5	0.37075938682964465
30	0x3fc823d404be39a0	0.18859338981242235
31	0xbfb04f1973f3362c	-0.06370696144878057
32	0xbfd0a2ff8e94bb7d	-0.2599486248390617
33	0xbfe631cd46df0402	-0.6935793289377445
34	0xbfd15f049b84c1ce	-0.2714244383560328
35	0x3fb541c2b07449e4	0.0830346756741061
36	0xbfa775b0ac2b389e	-0.04581977941198655
37	0xbf34da8aeae0c381	-0.00031820193806014063
38	0x3fb54db95f5c7fb4	0.0832172258201343
39	0xbfb0f5d2db2ce3c8	-0.0662509713264533
40	0x3febe8ab4eb9599a	0.8721519982889732
41	0x3fc4014cdbc06129	0.1562896798138891
42	0x3fc9b304f521643f	0.20077573746928754
43	0xbfcaf9c9582d0c24	-0.21074787908045878
44	0x3fc0362ab46460be	0.12665304001052918
45	0xbfb94343c4d14f58	-0.09868262820355989
46	0xbf8eb353866e8fa8	-0.014990475215945612
47	0xbfaae46de255980e	-0.05252402675505162
48	0xbfcfb7bae8bb0147	-0.2477944980983102
49	0xbfc6d39434401dbb	-0.17833187629024203
50	0xbf900c238322d367	-0.015671305540951332
51	0x3fb9e2a75a6b85d7	0.10111471135635185
52	0xbfd3e1954ee9fa93	-0.3106435080189069
53	0xbfb28c8048d58dae	-0.07245637682131331
54	0xbfb547ca96840eae	-0.08312669920638413
55	0xbfcb2b252f86a000	-0.21225418873405033
56	0x3f90209d7d2e75d9	0.015749417081328907
57	0xbfcffb432b05106b	-0.24985541916442186
58	0x3fc4878d140abf92	0.1603866908894785
59	0x3fd77f069ff15bb2	0.36712804431356993
60	0xbfba7b34bd19fadb	-0.10344247452483606
61	0xbfc3279e50efc703	-0.14964655830367954
62	0x3fd3bff17777fec6	0.3085902849852399
63	0xbfc59e5be151ccb9	-0.16889523031168155
64	0x3fb40ba88eb16fa5	0.07830289348333837
65	0x3fc54f6970a0fd1c	0.16648595809417877
66	0x3fd900364af6ffbe	0.3906379444197191
67	0x3fc9c95e9c849e92	0.2014578117607369
68	0xbfd11c23cab30856	-0.2673425178037453
69	0x3fcf9d2badbc129d	0.24698396666658065
70	0xbf864e3442f333f0	-0.010891350072052192
71	0x3fd400e18632e733	0.31255376916270733
72	0x3fd1b00fb3320084	0.27637093066733365
73	0xbfc623c0f4012cd0	-0.17296611704146025
74	0x3fd0b5e0fa5122da	0.26110100216878396
75	0xbf9ba55bf072adfe	-0.02699798255041052
76	0xbfbb67b86f9d696b	-0.1070513985154428
77	0x3fc0f83c5cb73c19	0.13257555510651356
78	0x3fc1e64b768e0f15	0.13984053887190187
79	0x3fb6dc30836cb43c	0.08929732521637929
80	0xbfd716ee8498b751	-0.3607746405494839
81	0x3fd373d6e13929ba	0.3039452743002148
82	0x3fcbae455e4e8da3	0.21625582794977757
83	0x3fd41c114849759b	0.3142131048133138
84	0x3fb1e19907d743f3	0.0698485988753104
85	0xbfcd7618e5572fcd	-0.23016654203672574
86	0x3fbd5fb7f179dddd	0.11474179883395359
87	0xbfc006b4597bea0c	-0.1252046048101224
88	0xbfbec503c2e0346c	-0.12019370563230475
89	0x3fcfdddbebdc4c4f	0.248958101431159
90	0xbfaad10dd4258f3b	-0.0523762055843506
91	0xbfd0eec9136cce03	-0.26457430741285765
92	0xbfd1d793b0af7e65	-0.2787827706760935
93	0xbfa65d1f5ed7afff	-0.04367921860452383
94	0xbfbb652128f2beef	-0.10701186418259188
95	0x3fddf9c359023ba6	0.46836932842500756
96	0x3fae5eb07d7b0eac	0.05931617290255295
97	0xbfcd145b91bfc271	-0.22718376747754435
98	0x3fc690f12affe861	0.17629828071204925
99	0xbfd23da913879994	-0.2850134554595567
100	0x3fc4d7817c34e004	0.16282671513340585
101	0x3fd1e45d21ed464f	0.27956322014970153
102	0xbfa7a2abf4d4d128	-0.046162961613307296
103	0xbfa86c7c4bc9397b	-0.047702678920006535
104	0x3fc1fabc26b95f8c	0.1404643239100064
105	0x3faa30db3469c78d	0.051153993747802586
106	0xbfd565ae87fd3f05	-0.33433116226386544
107	0x3fd92c5251e5bd6e	0.393330173471404
108	0x3f931205b8a7f9a9	0.018623437304989974
109	0xbfdad8b6094d3062	-0.4194769945941116
110	0x3fd2935b30564788	0.2902439090768145
111	0x3fc0ab618f9162ec	0.13023013601448186
112	0xbfcf5554c345f19f	-0.24479159865212538
113	0xbfd045e1756c9ebd	-0.2542651793214466
114	0xbfd5ce0ae1238c3c	-0.3407008360501924
115	0xbfc3bfe5fd9ff857	-0.1542937744524717
116	0xbfd402937554912c	-0.3126572271160224
117	0x3fc94f796ec6b894	0.19773786458012366
118	0x3fa35c5d1118901c	0.03781405290308745
119	0xbf8288f48022b565	-0.009050283584964356
120	0xbfb17a16814eac7d	-0.06826916367451648
121	0x3fc2ddbb158a8450	0.1473916869336187
122	0x3fd1cc37fc11d3ab	0.278089519654993
123	0x3faf1471bf371527	0.06070285281342996
124	0x3fa3abdd4cdd4507	0.03842059672627767
125	0x3fd5ab3cdacc6983	0.33857652060546445
126	0xbfbd8d0e0e7f81c2	-0.11543357709843519
127	0xbfc8e16de5cef3bb	-0.19437955590356445
128	0x3fc975eaf393011a	0.19891106503747197
129	0xbfe3bdc82d61146f	-0.616916741019521
130	0xbfd35611c579b3c2	-0.3021282604666419
131	0xbfcf5656d1b995f3	-0.2448223613784389
132	0xbfd393e47159b76a	-0.30590163297062267
133	0x3fba24479f5194ba	0.10211608543029885
134	0xbfc8ff69808eacbd	-0.19529455926144648
135	0x3fd0ea0086bb23d4	0.2642823520405362
136	0x3f333202b26101be	0.00029289785232225116
137	0x3fb11a20e47cde85	0.06680493906321246
138	0x3fdcc863b7918e9f	0.4497308056508959
139	0x3fcc94016f92f469	0.22326677272750153
140	0x3fd91260a2ee728e	0.3917466727378177
141	0x3fa58d2a8dd8fc77	0.042092637839680806
142	0xbfc6eb5948b99318	-0.1790572743513159
143	0x3fd303205755a9e7	0.2970658161999879
144	0xbf4d8c53401e63f6	-0.000901737832680215
145	0x3fc0002420eee4a2	0.12500430687012903
146	0xbfbf21c581e4bad7	-0.12160906239726486
147	0xbfae140bda87c15c	-0.05874669115644579
148	0x3fe0ace5e9ac7cf2	0.5211057247105642
149	0xbfbcab4983361633	-0.111988634618762
150	0xbfb7ead115557224	-0.09342676897853913
151	0xbfd0b34575a2c863	-0.26094185340764947
152	0x3fbb306f8d04251d	0.10620782082346066
153	0x3fc6874c4dc88aa4	0.17600396917358296
154	0x3fdc8d275da62d71	0.44611534257338464
155	0x3fd9ce4d258e65b9	0.40321663539506464
156	0xbfd8df5ec2374582	-0.3886334320678416
157	0xbfb4dc706ac78b0f	-0.08148863417549655
158	0x3fbe5b55f9fea7dc	0.11858117440593169
159	0x3fc503a56db82ab7	0.16417377335922875
160	0xbfc13490bde0cbb7	-0.13441666861907972
161	0x3fbe6632ea5ca1b4	0.11874693128323238
162	0xbfd0e4d0325e3458	-0.2639656535982957
163	0xbfce8c15ced52b1b	-0.23865006064655678
164	0xbfc1449883dff926	-0.1349058765335453
165	0xbfb8af0197a20fca	-0.0964203829954037
166	0x3f7dc49290b65ab6	0.007267544289240637
167	0xbfa1a2e38e22c353	-0.03444586858802858
168	0xbfb81b927dc20a9a	-0.0941707188631348
169	0xbfbe2dcb4ced9b9a	-0.11788626316193387
170	0x3f9c40d3bfea334b	0.027591045940926134
171	0xbfb87d0dfa5f3322	-0.09565818178743915
172	0x3fcfe02c377321b5	0.24902870852953432
173	0x3fd9ac160fdf04c6	0.40112830686491596
174	0x3fbac2f32f891cb4	0.10453720007454842
175	0xbfc6f8c907ba563c	-0.17946732404077348
176	0x3fc6e3af1a088232	0.17882336398271687
177	0xbfc3062a64db0012	-0.14862565922339904
178	0x3fc5fee2e082bc7b	0.1718410106891247
179	0x3fda76aae2fb9e20	0.4134928909902289
180	0x3f9c5b6f35be2d8f	0.027692544608311883
181	0x3fcea884ad1e46a8	0.23951776936569513
182	0xbfb147884f574e28	-0.06749774872815151
183	0x3fa781d85b594cb9	0.04591251483057008
184	0xbfc24d099493ccd6	-0.14297599558594837
185	0x3fd45edbb3b47d51	0.31828968571968114
186	0xbfd276205af828c3	-0.28845986255386097
187	0x3fcafaa373e4e2ed	0.2107738796128368
188	0xbfd8ae5c60fabcb1	-0.3856421420159207
189	0x3fb7f7ed8bc306fc	0.09362682974008502
190	0xbfe17ae96944ce54	-0.5462538772612313
191	0x3fc52f9b159a6260	0.16551531367146577
192	0xbfabbc76454f2e5e	-0.05417222591458136
193	0xbf82f410688d894d	-0.009254577818584986
194	0x3fa8d0c3dfef2a86	0.04846775158474252
195	0x3fbe91a579a49d72	0.11940988750267481
196	0x3fc54498ebb83fbd	0.16615592489006117
197	0x3fc97f332acb0100	0.1991943320226781
198	0xbfdf55be88a010e9	-0.48960841505346636
199	0xbfe14753abfceb21	-0.5399568900241755
200	0x3fa4fffcbd95a523	0.04101552786125697
201	0xbfe0a83ac3184d12	-0.5205358324477933
202	0xbfc7b8dc18fbbe18	-0.1853289720524891
203	0x3fd95822a504c017	0.39600435366719594
204	0x3fba23d7fa848642	0.1021094309440054
205	0xbfd505acb8cbadd0	-0.3284713558811889
206	0x3f804d2d24d526c4	0.007959702192823832
207	0x3fd6cb5bfd399307	0.3561620686435138
208	0xbfc84c4ffd850695	-0.18982887152565256
209	0x3fd3515865ff9e2d	0.3018399234847234
210	0x3fdadc2672355c82	0.41968690064590686
211	0x3fa9c272cee4b5b4	0.05031164908937616
212	0xbfa06f36b74ae20b	-0.03209849345643442
213	0xbfcd2148b829ac76	-0.2275782489044535
214	0x3fc9ab67a7d134cd	0.20054336256217767
215	0xbfc1e387cd067c17	-0.1397561789608239
216	0xbf9fb0c630eebb00	-0.03094777749691513
217	0xbfa75dd42bb15e66	-0.045637731870269246
218	0xbf923acb018e880b	-0.017802402467744154
219	0x3fbcebf346747cfb	0.11297531576245838
220	0xbfc010f0d9172eaa	-0.12551699257015986
221	0xbf923f672abd979c	-0.01781998823516738
222	0x3fc3c8bf2a734cb9	0.1545638043668072
223	0xbfdfd1da16ef52da	-0.4971833442662451
224	0xbfa6e7ed308dd16a	-0.04473820893955145
225	0x3fc31a2a2bc1f5c0	0.1492359841976576
226	0x3fd62919965ed4c0	0.3462585419141071
227	0x3f8818d02bc2f9d5	0.011766077361582564
228	0x3fbe0774f0c17b4a	0.11730128171755641
229	0xbfc4c1e1e896f212	-0.162166822976261
230	0x3fcf66fd15fabe04	0.24533046315399087
231	0x3fe230def0f80f2e	0.5684656816888258
232	0xbfb4e12c3f9aeb9a	-0.08156086495266238
233	0xbfd4830364143f1c	-0.3204964139304012
234	0x3fa8ed4823605c0d	0.04868531638947369
235	0xbfc8ea28be61c42e	-0.19464597030631253
236	0x3fe1952ab6ce1d40	0.5494588442242403
237	0xbfbcc37ff417eddc	-0.11235809048951445
238	0x3f93d921f8bd1590	0.019382983023452705
239	0xbfb376001f9abcd0	-0.07601929446785793
240	0x3fd836eeb3d21b60	0.3783528095304316
241	0xbfbe303eae2395e9	-0.11792365790787297
242	0x3fd3543f5dd07d39	0.30201706086696195
243	0x3fcf84ce69976010	0.2462404265959326
244	0x3fb86b07f1d6e3d1	0.09538316396982728
245	0x3fc34c1a8a87e0d8	0.15075999988744715
246	0xbfc3b34df364a391	-0.15390943893842438
247	0xbfc41b2640bb9ef1	-0.15707853470598068
248	0x3fc1a2f34f973466	0.13778535257589225
249	0xbfc04356b05bd0f2	-0.12705501185667561
250	0xbfc84f3c55e0b717	-0.18991808121921203
251	0x3f7036f833c0d9b9	0.003958673038189913
252	0x3f9983ba56733b75	0.02491656448983855
253	0x3fb7e680f6ec64ff	0.09336095837024415
254	0x3fe0b87a4b4dde62	0.5225192518982562
255	0xbfc3c11567b23b4c	-0.1543299442605196

V3 (column-major) f8 [19, 19]
0	0xbfd506916eef85d6	-0.3285258849483318
1	0xbfb3814769ccfc9c	-0.0761913903524935
2	0x3f8d54cf63ee2150	0.01432191871369129
3	0x3f9f4ecbc23b3d1c	0.03057402012819664
4	0x3fc194cb01ee12be	0.13735330194699275
5	0xbfc12c2a8ec3e2a0	-0.13416034670787713
6	0xbf87aeef755d46e0	-0.011564131516624554
7	0xbfc00ff652348640	-0.1254871274368714
8	0xbfa5b3bf1251861d	-0.04238698099721836
9	0x3fdf4cb4f1edd33c	0.48905681253318156
10	0xbfb680f32b359b17	-0.0879051189891523
11	0xbf66293768a661e5	-0.002705200405398
12	0xbfdecd5d8a5fbbf2	-0.4812845088299006
13	0x3fd352253e70db57	0.301888762452497
14	0xbfc555a5e7f301de	-0.16667627168318594
15	0xbfdaeb6aa8ae6d52	-0.42061869118488915
16	0xbfb2e8710e320ba2	-0.0738592776925047
17	0xbf8d1c4365a09ff0	-0.01421406415836654
18	0x3fccc6c68f1dc2d3	0.22481615055178014
19	0x3fd588dec41e985f	0.33647889282508986
20	0x3fb3ecb4139ad583	0.07783055761941253
21	0xbfae391977fc5245	-0.05902938451450671
22	0x3fa5e52cc36cd995	0.04276409040032828
23	0xbf99428681c9cdbe	-0.024667836829804328
24	0x3fbdc7383a568059	0.11632110046639478
25	0xbfb275581533cee8	-0.07210302846561556
26	0xbfb36dd99a280ac0	-0.07589492810806586
27	0x3fd71b2606b89d9c	0.36103201538431917
28	0x3fcd0349d9429e40	0.2266628561821893
29	0xbfd65bc52500d182	-0.34935120214074555
30	0xbfd9fd37bd9e3b92	-0.4060801841487144
31	0xbfba38691431200b	-0.10242325537649337
32	0xbf999838c8aeee13	-0.02499474263070851
33	0xbfd1bfa84e6db5d0	-0.2773228422073233
34	0x3fd51deee02fbf34	0.32995197194303505
35	0x3fc54f02ad31ce15	0.1664737077404516
36	0x3fd18e53e2d0e06f	0.2743119921683563
37	0x3fd24dc0a370144a	0.2859956356117591
38	0xbfd192aa717089c2	-0.2745767696198095
39	0xbfb52f4d22915de0	-0.08275301069203733
40	0x3fc879a02b64b85e	0.19121172064609743
41	0x3fc3343a409cb127	0.15003135828863742
42	0xbfcd2bf597321e0b	-0.22790403254133226
43	0xbfd2efff92b5b73a	-0.29589833571559476
44	0xbfb1258b7184eb07	-0.0669791366716873
45	0x3fd133747d1d0e36	0.26876556604495094
46	0xbfbb0e6517bc1734	-0.10568839864216956
47	0xbfcd6a5595d90cce	-0.2298075658492053
48	0xbfdeffa4d9e64123	-0.4843532684253821
49	0xbfb5a7c2b0ea82a8	-0.08459107226600315
50	0x3fd35616cedcb47d	0.30212946130161084
51	0xbfcb6ad6aeff7c05	-0.21419795555900137
52	0xbfd12317e85df793	-0.2677669305047569
53	0xbfca95635bb5234c	-0.20768396356495555
54	0xbfc50e21f3270e06	-0.16449379322703822
55	0x3fac45cc9cb5fb0b	0.05522002613996876
56	0x3fcdeb218ad48a88	0.2337381294137979
57	0xbfd3f1e8f36715cd	-0.3116400124530088
58	0x3fb7fbda32fc82d4	0.09368671173843818
59	0xbfca1100a0fb23d5	-0.2036438737907519
60	0x3fbd4f4744d9a040	0.11449094229613
61	0xbf97e8690b96134d	-0.023347512561957818
62	0xbfbde29352c60b11	-0.11673851748313903
63	0xbfd255a61e787d36	-0.2864775941433949
64	0x3fc1568842171f6c	0.1354532549578339
65	0x3fce09984242e01d	0.2346678088704274
66	0xbfc8da187d1ae27c	-0.19415575131076312
67	0xbfba8c11575af031	-0.10369976408668503
68	0x3fbc42a58cbeecf3	0.11039194761444886
69	0xbfcf3ac9eecc4906	-0.2439815917974288
70	0xbfbca8bbfff1082b	-0.11194968222210437
71	0x3fe0d8a018e4503d	0.5264435278099949
72	0x3fa1127af358cfe6	0.03334411831420407
73	0x3fdc8cc18be75e33	0.44609106695631623
74	0x3fae291a3e0ce100	0.05890733725976993
75	0x3fce69390319c67d	0.23758614207649834
76	0xbf70f088306f3484	-0.004135639180231302
77	0xbf9d5e8419b041b5	-0.028680862491513987
78	0x3fe47be555ef0e0a	0.6401240042109191
79	0xbfcba3d56ba90bc6	-0.21593730694629992
80	0x3f8878ccea9d51b1	0.011949158582560711
81	0x3fd00cff92c42891	0.2507933552993871
82	0xbfc3b8c159169e25	-0.15407578325287932
83	0xbfbba962ae257e7b	-0.10805336715338314
84	0x3f9b8936229c0a2c	0.02689060770263489
85	0x3fc39d8a709db839	0.1532452630885375
86	0x3fcf51f0af799199	0.24468811576947472
87	0x3fc5c41c9f1971bf	0.17004735725903505
88	0x3f9081f08212e79d	0.016120679797246507
89	0xbfdc5c620c2210d3	-0.4431386106955532
90	0xbf53cc1f26e5de6f	-0.0012083343713963598
91	0xbfbb3bccede14871	-0.1063812332879779
92	0x3fc36d84cec22a1b	0.151779747921254
93	0x3fb88416d3cdf19b	0.09576552077300564
94	0x3fd352e0cb99642c	0.3019334781907357
95	0x3fd4124ee5c7ff8a	0.3136174434621287
96	0xbfd06e4bb66015fa	-0.25673191843119947
97	0x3fbb41e4e6c35789	0.10647421487678178
98	0xbf5c3a08b61aca5c	-0.0017228207656613459
99	0xbfab1f85af71fc1f	-0.05297487036386194
100	0xbfbb65b7f078aaf8	-0.10702085133440764
101	0x3fd0e7afa238af5c	0.2641409954255687
102	0x3fc19f50f164eb32	0.1376744440729794
103	0xbfcf8dc45177bf00	-0.2465138814727581
104	0xbfbf110f1964f5d5	-0.12135404939632306
105	0x3faa0353762605b9	0.05080662553065047
106	0x3fb05c0a4791e00d	0.06390442130384617
107	0x3fb82f0bb986c41c	0.09446786193326812
108	0x3fd8cdfca025188f	0.38757243765974975
109	0xbfaebbaa99ff334e	-0.06002553109974561
110	0xbfaa7371388bb817	-0.05166200461631847
111	0x3fe174caa434a34c	0.5455067832127525
112	0xbfc9a16ba01f4c7c	-0.20023866003484503
113	0x3fd79dcd918c0f1d	0.36900653089127095
114	0x3fc29d78070a9990	0.14543056815928113
115	0xbfa7134cff10429f	-0.04506912816589658
116	0xbfc2dde48354905e	-0.14739662563909212
117	0x3fcce8afdece05cb	0.22585104350223015
118	0xbfdb9a2fc79f36e3	-0.43128580564812874
119	0xbfdf70965e0ce15f	-0.4912467878780457
120	0x3fbe6c8a5f80ef25	0.11884369689590508
121	0xbfc3faba3f7acbb3	-0.15608909701913162
122	0x3fcaee13281ec0eb	0.2103904672526434
123	0x3fd700fc3c81c94b	0.3594351378334479
124	0x3fd75266842687da	0.36440432458232197
125	0x3fa89573e073a69b	0.04801523318185482
126	0x3fce389a3245675b	0.23610236601489984
127	0xbfc36eb7028960a3	-0.15181625007494856
128	0x3fbeb67542fb9d23	0.11997158894847763
129	0xbfba1245a4e312dd	-0.10184130931436237
130	0xbf98fcfd2befcd9b	-0.024402576262173886
131	0x3fc217720cd29ede	0.14134050012693583
132	0x3fb32069aa9096fb	0.07471332945041446
133	0x3fb03794e9fe2e1e	0.06334810936657972
134	0x3fe01ec48eb42cc6	0.5037558352645639
135	0x3fc6dd7a3bad6e4c	0.17863395608843502
136	0x3f9289c98d22a311	0.018103741873946314
137	0xbfab9e6483350825	-0.053942814842699506
138	0xbfa477559b28d9ec	-0.03997294920957359
139	0x3fccc0acc6ab7404	0.22462997151060915
140	0x3fdc5338d54e53ce	0.44257946806584136
141	0xbfd24d876932d207	-0.28598199151318265
142	0x3fb1afb3d7e229c0	0.06908725758163481
143	0x3fc8a2204ff09e88	0.1924476995784412
144	0xbfdc65dc09867a03	-0.44371701173977857
145	0xbfc5ec8a61df7019	-0.17128114489503402
146	0x3f774fa9c80a9b27	0.005691207131042464
147	0x3fd0a10b871bd429	0.2598294085904081
148	0xbfa25d8e2e6c2ee7	-0.035870021025486136
149	0xbfbec709a918bb4e	-0.12022457483611257
150	0x3fbfea123f7c112a	0.12466539430539983
151	0x3fba396d9dab0025	0.10243878459277818
152	0x3fd557ae310aef17	0.3334765891010973
153	0x3fc61b821e315692	0.17271448587660082
154	0x3f6daeebe2b307a9	0.0036234480990921703
155	0x3fb7a60421d94b45	0.0923769552839931
156	0xbfc06661468107b3	-0.12812438910083088
157	0x3fb338b988a96b78	0.0750843008658374
158	0xbfc27c43b947494b	-0.14441725298690708
159	0x3fbe15d7dbc63780	0.1175208007391273
160	0xbfab18e541980e5f	-0.052924312836719827
161	0xbfb4a227433b2848	-0.08059926406272766
162	0xbfba087d88c4c92d	-0.10169205273704014
163	0x3fe3991cb322f37f	0.6124404429207145
164	0xbfc10557e8a5a38b	-0.13297556743352987
165	0x3fd01c1aa280d7bf	0.25171533460104095
166	0x3fababd0edbd25a4	0.054045228024345776
167	0x3fad10b43b2fb74a	0.056768066620732485
168	0xbfd87caa71149b9f	-0.3826089958478693
169	0x3fd3c2ded04e9dba	0.30876894323815984
170	0x3fd0f0a12f41091c	0.26468686689999443
171	0xbfaccb509dbee1a0	-0.05623866963964308
172	0xbfd9874f7bbb5b68	-0.3988836963957767
173	0xbfb4506a6b025420	-0.07935204613234292
174	0x3fae56dd287b7f9e	0.05925646895570867
175	0x3fb4fdf78af1faef	0.08200022833078056
176	0x3fd3e4d736d604ad	0.3108423266895198
177	0x3fe2848a54b1ddb9	0.5786792425341708
178	0x3fc83fc1bb820fdf	0.18944570213000042
179	0x3fd922fec3f6c9b0	0.3927609361373028
180	0xbfc088ef8891f036	-0.12917894524059798
181	0x3f929b2305a9ca6d	0.018169924946457906
182	0xbf9adfbfe9c8ec61	-0.026244162220092074
183	0xbfb15514d1e457a7	-0.06770448803248873
184	0xbfbb7565b3781bf5	-0.10726009017535872
185	0x3fc7fc40f231ab22	0.18738567186240923
186	0xbfc36cd2cff198b5	-0.15175852921965363
187	0xbfcfba1b2ee39847	-0.24786701001647968
188	0x3fb916a74f0da4f1	0.09800191574108276
189	0x3fc87a82beca5c52	0.19123873058262802
190	0xbfd718f79c87216d	-0.3608988789169619
191	0xbfae2d8d29314f16	-0.058941279676814215
192	0x3fc2b599409ae61e	0.1461669507460081
193	0x3f9824f32e725b47	0.023578452787286677
194	0xbf94207a48248bba	-0.01965514245342679
195	0xbfa609225792a04c	-0.04303843802455329
196	0x3fa3fb6c6dcfed6d	0.039027584461986155
197	0x3fb7fc92d2935732	0.09369771615032788
198	0x3fa60324ec9ec9d9	0.04299273861342429
199	0x3fcf3b306f105857	0.24399381087340785
200	0x3fb24afc3eac04e3	0.07145668535305875
201	0x3fb0002071c1d36a	0.06250193383477912
202	0x3fc108f5d1a10b36	0.13308594451708594
203	0x3fc56a0222800d3e	0.1672976177652376
204	0x3fb2153920691d1e	0.07063633958124568
205	0x3fe5ad505ef93e2f	0.6774064879372811
206	0xbfcce73545e5ba71	-0.22580591118772333
207	0xbfd6e500395ed269	-0.35772710421159687
208	0x3fd1478de8d3f6e1	0.2699923299513625
209	0xbfa74e5f8e6a8887	-0.04551981557348577
210	0xbfa1b7aa972f4da6	-0.03460438819424931
211	0xbfbfea4d26bfcba7	-0.12466890522027417
212	0xbfe3ca7162a8f61d	-0.6184622694924574
213	0x3fb1048ec64f7837	0.06647579518855272
214	0xbfcd3722aa5b6c46	-0.22824509924143593
215	0xbfd07610ba3cb40e	-0.25720613658160196
216	0x3fc9ba08d0926f23	0.2009898203294763
217	0x3fd3993e9de30d96	0.30622830790181277
218	0xbfccb611ae86a8ae	-0.22430630704667948
219	0x3fd5add697975eba	0.33873524478756745
220	0xbfc23e70377dbc54	-0.14253046712426232
221	0x3fb60dea44f8a402	0.08614982780331107
222	0x3fccf89ca7c837f8	0.22633703415380046
223	0xbfc662731a09e8d4	-0.17487944384976706
224	0xbfb492fcb44cb1f3	-0.08036784555287806
225	0xbfc1e8743932fa03	-0.13990643303800718
226	0x3fbaf87c7e5c6f9c	0.10535410008418328
227	0x3fc636703fabe357	0.17353633030850332
228	0xbfb37c490ffc5cf1	-0.07611519470480112
229	0xbfcd786751c49c5d	-0.23023692600802095
230	0xbfc965508f41e094	-0.19840437884318318
231	0xbfd86078bbbeb5f2	-0.3808881600806152
232	0xbfdc3dd0d40ae64f	-0.4412729330757416
233	0x3fa6ba3fb59f065a	0.04438971607261229
234	0x3fb5424942aa85d8	0.08304269673910569
235	0xbfd7b4c52b4c3f41	-0.370408336909339
236	0xbfdbb8ba069d9685	-0.43314982076695
237	0xbfc12620292fdfbf	-0.13397600184521072
238	0xbfb403ffb6a18968	-0.07818601807369918
239	0xbfc32873dc74c520	-0.14967201485118498
240	0xbfcf797aa5590a20	-0.2458947474825246
241	0xbfc0121c78771df3	-0.12555271036238444
242	0x3fc2692d69608c72	0.14383475919121086
243	0x3fc4a32cb0bf339f	0.16122969274729557
244	0xbfbc48d073c765c7	-0.11048605753548833
245	0x3fc148c47cae7b9c	0.13503318870513403
246	0x3fc59ee8ed0be8a4	0.16891204428231277
247	0x3fb2c71e17811a07	0.07335079263530285
248	0xbfd0dc7c38567832	-0.263457350747447
249	0xbfc6f1b22e0b63da	-0.17925097702280263
250	0x3fd90a3c3db0eccb	0.39124971413157245
251	0x3fddc283a9cfc04b	0.4649972112956717
252	0x3f49c7c48b80a802	0.0007867536251116027
253	0xbfd3d1d59e1e76c9	-0.3096822780733928
254	0xbfbdc4c28c3ab125	-0.11628356860700657
255	0xbfd4036151068103	-0.31270630753171264
