Fuentes/model_rdim.npz (npz, 18780 bytes, 3 tensors)

V1 f8 [19, 41]
000000 1a 9b c5 e4 2e 3f d1 bf 89 30 99 5d d4 18 d7 3f
       -0.26948139515882163 0.36089047565906945
000010 13 79 36 b0 38 14 8c 3f 75 b4 c5 ce 05 fe c0 3f
       0.013710444333636695 0.13275215717604608
000020 e2 ab 5a 2a 42 5a c9 3f d8 b9 ed 7d 4a 33 ac bf
       0.19806696956706477 -0.055078819152970915
000030 72 32 1d 34 44 65 bf 3f bd 6f 62 9a 0b 99 b3 3f
       0.12263895294490526 0.0765540363231016
000040 ca 9a 1c aa 13 2d cb bf 81 23 1e 75 7d a0 d0 bf
       -0.21231313520657685 -0.25979553639677283
000050 f0 f2 02 91 4d 08 d1 3f 98 26 57 46 4f a5 a2 bf
       0.26613177453309245 -0.03641746266982898
000060 64 ec 7f d8 b4 bb c3 3f 73 55 e7 ab 2c cd db bf
       0.1541658455970235 -0.43439785754647814
000070 20 eb f3 50 84 d4 db bf b5 3f c8 9b 7a 5b b0 bf
       -0.43484599977061755 -0.06389585784222514
000080 cd b8 24 a3 93 5b 93 bf a3 07 f9 8a bc 73 cc 3f
       -0.018904024918065688 0.22228199754505082
000090 0f 71 a0 41 86 15 e3 3f 40 49 d6 03 25 fc c1 bf
       0.5963774949810005 -0.14050734221798145
0000a0 56 64 0a c6 4a e6 b3 bf 60 16 a3 40 28 0c 9e 3f
       -0.07773272833800723 0.029343251176007334
0000b0 36 61 3e 82 39 38 cd bf a7 60 f3 41 a8 37 c5 bf
       -0.2282783399539398 -0.1657610246682044
0000c0 2b 51 17 f3 10 c9 d2 bf 28 50 2c c0 37 58 cb bf
       -0.29352210749972824 -0.21362969287349753
0000d0 80 98 e1 19 87 11 97 3f 33 05 93 a5 f0 fc ce 3f
       0.02252780051676284 0.24209411701853298
0000e0 ef 3c 1f cd 5d 33 a5 3f 1a 67 66 2c 11 b0 c9 3f
       0.04140751961642219 0.2006856409832885
0000f0 7c dc 4d 12 6d 6e a5 bf 1d bf 3c 5a 62 e5 78 3f
       -0.04185810898246076 0.006078132810031692
000100 25 f0 b9 ca d5 cd c1 bf 1c 88 0e 00 f1 30 a6 bf
       -0.13909408949609872 -0.043342143303803676
000110 52 3a 74 00 08 51 cd bf 1b 99 25 8f 10 09 bb bf
       -0.22903537771385857 -0.10560706610485619
000120 0e ed 0d 18 f6 9b ba 3f 8f 6d 9f af 86 f5 c2 bf
       0.10394228064790331 -0.14811786246614786
000130 1a cb ad c3 80 b7 d1 bf 48 49 c8 fa 58 37 ce 3f
       -0.27682513341203363 0.23606407399399587
000140 bf 4d 89 fb 9f 59 c0 3f 58 7a ff 08 cd 1e ce 3f
       0.12773513586090066 0.2353149694381098
000150 a2 cd 0d ba 8c d8 c4 bf d5 f0 f0 ae 02 9b c5 bf
       -0.16285857281364452 -0.16879304449128676
000160 78 bc 31 60 40 71 9b bf 70 80 52 20 e6 5b ca 3f
       -0.026799207564576183 0.2059295327972026
000170 20 e0 57 c1 51 38 b0 bf 1b e4 a8 8f a3 89 d0 bf
       -0.06335936517996332 -0.25840081242819374
000180 b5 15 fc c2 4e 06 dc 3f 84 a3 a0 e9 69 97 b2 3f
       0.43788498918032853 0.07262289003177896
000190 74 be 8e 47 a4 01 99 bf d4 5b be 33 98 93 ca 3f
       -0.02442032515290156 0.20762922789137284
0001a0 45 d2 ef a3 fc b9 a1 3f 42 92 65 d2 fe a9 bc bf
       0.03462209225827854 -0.1119689239181492
0001b0 66 e4 4c 1d cc 35 d3 bf 14 2b 34 90 02 f9 db bf
       -0.3001585279594735 -0.437073365043646
0001c0 ce 17 ac 69 45 07 a7 bf 54 bf d4 d9 ab e7 bc 3f
       -0.04497734942383112 0.11291002338543638
0001d0 f6 48 7a 32 f8 65 d0 bf 0c 0f 59 0c d1 3a d4 bf
       -0.25622372559986617 -0.31608988004539706
0001e0 8a 8a ab c7 d9 cc c7 3f ac da dc ba aa 32 b9 bf
       0.18593904733196026 -0.09842936575010225
0001f0 e7 82 3e 50 4f 73 e2 bf 1e e2 16 f8 4b 2c d3 3f
       -0.5765759055394398 0.29957865931968
000200 1d ca a4 82 07 c3 b0 3f 85 1f 36 5d 0c 0a a3 3f
       0.06547591151755978 0.03718603742441843
000210 47 7a 9b c3 3b 88 b3 bf 2e 31 32 eb 2a c5 a1 3f
       -0.07629750752992336 0.03470739480062189
000220 69 4f 8c 3b 1d 64 b2 3f 66 d9 15 00 8e e1 af bf
       0.07184012130556784 -0.062267720709246174
000230 01 02 74 bf 49 d4 bd bf 9a cc 88 25 f7 74 d3 3f
       -0.11652050899648005 0.304014002470646
000240 22 9d fd 9f 46 a4 d8 bf 46 54 48 02 13 7c d6 bf
       -0.3850266039284681 -0.35132289145378015
000250 a2 44 51 65 d6 d2 d2 bf f3 3c 71 83 e9 66 a8 3f
       -0.2941184987476594 0.04766015748520571
000260 7d a7 79 17 55 04 c8 bf 0c 42 56 13 88 00 c7 bf
       -0.18763221403360922 -0.17970372146784575
000270 6d 12 c1 5d c6 09 b2 3f 03 5d a3 7e bb da a3 3f
       0.07046165265007583 0.03877817078471859
000280 30 b7 76 d2 03 c2 b3 3f 84 d6 5c dc a2 72 8c 3f
       0.07717918289446568 0.01389052615159448
000290 d1 8d a7 ef 43 86 b5 bf 66 ed b7 05 55 d5 da bf
       -0.08407997704448823 -0.41927075918621026
0002a0 25 89 ae f3 8d de d2 3f 41 7b 78 21 c7 69 5e bf
       0.2948336486534962 -0.0018562740932634577
0002b0 c7 78 76 a5 49 6e cc 3f 69 45 eb 93 7a 8b b1 bf
       0.22211571292149854 -0.06853452788643256
0002c0 41 2a 95 6b 10 3f fe bf c4 04 04 28 9c 9e bf 3f
       -1.8903965189407617 0.12351394631334062
0002d0 6c dc 87 57 54 79 bd 3f 21 0b 0e 4e 75 db a3 bf
       0.11513259064655451 -0.038783708360844445
0002e0 e2 6e 79 3a dc 31 c3 bf 17 ce 0d a4 59 3d c2 3f
       -0.14995911460106642 0.14249725828595736
0002f0 cd cb 20 d3 7d cc a3 3f 58 65 ab c4 5d 80 d4 3f
       0.038669521353220306 0.3203348560906156
000300 08 07 cb a7 87 a3 ab bf ab 28 0b 09 d9 7e b7 bf
       -0.053982009155801036 -0.09177929373541598
000310 c3 49 99 ad c2 eb b8 bf 0e ea 6b b7 d2 55 05 c0
       -0.09734741914989002 -2.6669058160598587
000320 b3 2c d7 68 c6 bf 02 c0 b6 b5 72 32 35 3e cf 3f
       -2.343640154902084 0.24408593142781648
000330 f6 15 bb a8 6e 50 c5 3f b8 dd 82 ac da 44 d5 3f
       0.16651709784325391 0.33232752653881503
000340 ea 2a f2 76 5c 44 8d bf 31 60 10 41 85 0c 94 3f
       -0.014290544872229433 0.019579012008847655
000350 01 96 71 dc 40 12 c9 bf 53 ef 58 41 5b dd 60 3f
       -0.1958695484528761 0.0020586759881363963
000360 2e 92 d3 06 9d 03 a6 3f b1 15 38 d0 10 c9 c5 3f
       0.04299631794291191 0.1701985375113231
000370 92 02 16 99 95 11 b0 3f dc b7 3c 9e a1 b7 93 3f
       0.06276831614924053 0.01925518539717773
000380 1d f3 ea c4 0f 6a c3 3f b4 71 fd 5f 83 bb d0 3f
       0.15167424311757652 0.26144489645028135
000390 64 3c 90 82 a5 5c ba 3f 6a 28 f3 77 f3 43 c0 3f
       0.1029761737593034 0.1270737014477306
0003a0 42 bd 4f 9b 84 c5 d1 bf 11 6f 7e 9a 4d a8 b7 3f
       -0.2776805416787803 0.09241185209105775
0003b0 22 7b 5d 34 7b 9f cc bf d5 a4 4b 6d 9b de a4 bf
       -0.2236169820489176 -0.040760857669576524
0003c0 30 c3 3d 2b 92 d8 bf bf 0c 43 d1 be 0a 45 a4 3f
       -0.1243983607835275 0.03958924845995257
0003d0 48 58 f9 83 64 59 64 bf 81 bf db 23 46 d5 bc bf
       -0.0024840319818322555 -0.112629302744379
0003e0 8d c0 2f d6 aa f9 cd 3f bf 4f 4f 3e df 22 a5 3f
       0.23418174227072477 0.04128167758577161
0003f0 91 b9 34 d0 7d 51 bb 3f 65 2d 63 e2 92 d6 c7 3f
       0.10671221097138629 0.18623577169487784
000400 ec 31 57 9e b9 94 b6 bf 9d a9 2a 78 1e 6a 0a 40
       -0.08820686450707854 3.3018159282702997
000410 07 57 80 3e c1 c9 ad bf e2 8d 66 cd 72 47 d3 bf
       -0.05817989242511428 -0.3012358671059855
000420 c8 16 e7 2e 47 c1 a7 3f ea b1 f7 5a 66 8b ae bf
       0.046396469569612686 -0.059657286266744894
000430 07 38 cd 04 6e 26 c1 3f 42 fb 11 51 5b d2 a4 3f
       0.13398528322653666 0.04066739430071788
000440 53 49 98 d6 e4 01 f3 3f 5d fb 77 c4 b2 b3 d1 3f
       1.1879623777973236 0.27659291445154627
000450 30 43 72 88 a3 ae 83 bf 96 c6 ce ff 56 ab ba 3f
       -0.009610440827857752 0.10417693848901374
000460 4d 36 d3 7e 24 42 0a 40 8c b4 99 21 b1 f4 d5 3f
       3.282296171971018 0.3430598095063224
000470 ba 66 1f a6 82 ce c9 3f 26 55 2e 8c c9 cc b3 bf
       0.20161469565828388 -0.07734355614077923
000480 b7 cb f4 08 de 7b 06 40 7f fb e5 b5 77 eb db 3f
       2.8104820918756235 0.4362468029357202
000490 a1 38 95 dd e5 26 c4 3f e9 31 da 1c aa d8 c6 bf
       0.15743707007863342 -0.178487075889634
0004a0 8b 5b 15 0a 63 c2 bb bf ce ac ac 46 8c ac 80 bf
       -0.10843485828568881 -0.008141609103026328
0004b0 1e 3a 54 b7 c8 e4 a6 3f 7f e0 4f 22 01 d9 c8 bf
       0.04471423375990845 -0.19412244964019362
0004c0 4c 1b 28 7d 82 86 cb bf 2d aa 46 d1 e7 80 b5 bf
       -0.21504241095700605 -0.08399819239881685
0004d0 42 2a 18 1b d4 27 d6 3f 5f 82 57 10 7d 0a a4 bf
       0.34618094106614106 -0.039142521138050716
0004e0 5a 2e 87 2c 8f 5f a9 bf 3c 60 35 a7 c1 42 d9 3f
       -0.04955718439631758 0.394699490823317
0004f0 00 3b 52 55 43 9b a1 bf 2f b8 1b 71 14 52 b4 bf
       -0.03438768784064017 -0.07937743913109395
000500 c4 f9 cd 97 ad d7 bb bf 48 49 92 9e 68 a5 a7 bf
       -0.1087597365967446 -0.046183842999328706
000510 4d 14 cf f9 e8 4b bd 3f 88 c6 e5 68 9b 6f 9c 3f
       0.11443954562044319 0.02776949718231106
000520 3f 6e fc 93 e2 ad c0 bf 8e a9 fe 87 38 1d b4 3f
       -0.13030655122644139 0.07857087440667085
000530 9f 98 05 19 29 3a 91 3f 0b d1 16 7c dc de 95 bf
       0.016823427345479144 -0.021357960771369238
000540 0b 50 10 68 39 31 c2 bf 2f d8 38 b2 be f8 b0 bf
       -0.14212720471607584 -0.06629554606556164
000550 56 cc 59 0c b3 d0 b5 3f de 7b 82 6d 66 97 e0 bf
       0.0852157502320535 -0.518481458555353
000560 f0 b4 0e 0e 18 09 b7 bf a8 e3 04 89 30 02 a6 bf
       -0.08998251288604187 -0.04298545525165959
000570 59 2a 4d f4 5e f7 dd bf 63 b7 f5 16 0a ea 82 3f
       -0.4682233224636199 0.00923545725410308
000580 90 eb 7a 68 6b cd b0 3f 52 c4 0a b6 4a 40 16 c0
       0.06563445378098565 -5.562785000235708
000590 16 57 f5 7b e7 eb 16 c0 a7 a2 43 32 e4 16 be bf
       -5.730375229691864 -0.11753679492142997
0005a0 d0 8c e2 be c0 98 a6 bf 75 54 6a 41 ec 03 18 c0
       -0.04413416223658262 -6.0038309308193805
0005b0 24 3e 90 da f0 b8 0f c0 20 56 8a 6f a4 ce 83 bf
       -3.9653031420964613 -0.009671482709829482
0005c0 f0 ad 3e 57 dc 06 9f bf ba 51 17 77 f2 4b 11 c0
       -0.03029960901737455 -4.324167118833822
0005d0 67 ea 35 0f 4c 86 d3 3f 22 da 0c 49 85 44 b9 3f
       0.3050718449154943 0.09870179208233101
0005e0 6c 5b 3b 4c eb cb 80 3f 57 a3 33 c5 51 37 ad 3f
       0.008201444877540452 0.05706267864463282
0005f0 98 56 50 fc e2 54 79 bf c7 d1 e3 d4 95 47 c0 3f
       -0.006184469854834916 0.12718460936561213
000600 47 0d 78 6e 29 81 62 3f d4 7a 03 eb b3 9d b9 bf
       0.0022588547906267384 -0.10006260383259341
000610 30 c5 d7 11 96 60 e2 bf d3 3d 09 5b 54 de d3 bf
       -0.5742903088086333 -0.3104449166321192
000620 e6 f6 15 6a 7f 36 31 bf f3 05 72 da e9 e2 b9 3f
       -0.0002626477308565869 0.10111867507114151
000630 a7 2b f6 08 fd 89 b9 bf e7 d8 27 26 c4 db c8 bf
       -0.0997617861632266 -0.19420673239773764
000640 ba 62 3b c4 22 ed c8 bf 29 a3 2e db 31 5a ad 3f
       -0.1947368105091039 0.057328756337773186
000650 62 64 b7 5a 81 be 72 bf 30 0b 0c 24 95 38 aa 3f
       -0.004576211252662695 0.051212940836214194
000660 c4 3e be 95 84 4b 8b 3f 75 10 12 80 6f 93 cd bf
       0.013327632732198842 -0.23106187585301866
000670 25 e5 c8 80 6b bd d4 bf 85 81 76 fe ab ec e7 bf
       -0.3240612752593555 -0.7476406068781648
000680 70 e6 37 b0 42 12 9e bf eb 1e 5d 4c 18 2e d0 bf
       -0.029366533284678586 -0.2528134103526855
000690 64 83 3f 8c f7 7c b1 bf d1 92 96 4a f6 36 fc 3f
       -0.06831309484506459 1.7634184754944509
0006a0 b2 36 39 f0 1f e0 ae bf f4 6d e5 99 8e 56 cb bf
       -0.060303686212689014 -0.213579011101373
0006b0 2a f6 13 ef b5 62 c0 3f f9 03 0f 72 33 66 f8 3f
       0.12801241086701626 1.5249514060417353
0006c0 49 c5 9a 20 d1 84 99 bf f5 79 7b db 40 98 a1 3f
       -0.024920718779587934 0.034364725868488856
0006d0 b7 18 13 1a c9 8c d2 bf e2 db 5c bb 76 1b a4 3f
       -0.28984286829325917 0.039272032138278026
0006e0 dc 5e 74 b5 68 cc a7 bf 1f 80 28 20 a7 58 cc 3f
       -0.04648139204999577 0.2214554698011861
0006f0 71 68 ed 3c b2 03 fc 3f 76 76 79 c7 4f 05 db 3f
       1.750902402875479 0.42219919662407024
000700 3a 3e 0c 07 a3 63 cf bf 22 0b e7 5f 34 d3 bb bf
       -0.2452281746304708 -0.1086914762627598
000710 1e da e4 a5 b3 2f ca 3f 2e e6 f4 4d 44 50 af bf
       0.2045807418850964 -0.06115926219576938
000720 40 44 15 98 23 2d a9 bf 39 d5 85 a3 02 e4 ad 3f
       -0.04917250853998967 0.05838020559432739
000730 18 09 ad 24 bc 7d 94 3f 7b 83 b1 fa 81 16 b7 3f
       0.020010890711327084 0.09018719072765961
000740 f0 cb f7 8a 3d 91 98 3f d2 27 ef 24 d1 74 a1 3f
       0.023991548163348086 0.034094367750710966
000750 43 bd b3 f3 13 49 b3 bf b6 49 d6 b1 db ba ab 3f
       -0.07533383083113158 0.05415998979437424
000760 13 11 be 43 77 b7 b3 3f 8b 83 fb 41 62 55 80 bf
       0.07701821712368355 -0.007975356711030354
000770 0f c4 b6 ee 65 ea 8b 3f 53 c2 fa ce 24 63 c2 bf
       0.013630672786208135 -0.14365062815115212
000780 0e 26 b4 2d 7e 23 c4 3f 5d dc a3 23 38 de c3 bf
       0.15733315688730481 -0.15521909466017095
000790 14 81 67 d5 c7 d2 a3 3f 58 df 6e 15 b6 30 a6 3f
       0.038717503357249466 0.043340387455315266
0007a0 c5 3b 37 4f 5b 3d ab 3f c5 26 f6 47 6f 62 a8 3f
       0.05320248929967123 0.0476259970992721
0007b0 c5 10 30 9a a8 35 c8 3f 47 2e b8 e9 c5 aa b8 3f
       0.18913753060053842 0.09635579067269716
0007c0 f6 c5 0e f2 fc d8 b2 bf 12 f4 8a 04 0a 97 d6 3f
       -0.07362347516643539 0.35296869701034084
0007d0 84 ee f5 a9 79 7f a4 3f f4 f9 98 21 49 2a af 3f
       0.04003505897250384 0.060869489051118025
0007e0 93 74 a0 f2 fa bc b5 bf 82 c5 7a a5 c6 69 e0 bf
       -0.08491485999589292 -0.5129121047995542
0007f0 08 89 68 79 e2 10 c0 3f 17 34 ae 0c 30 0f d3 bf
       0.1255152790846028 -0.2978019832451663

V2 f8 [28, 19]
000000 76 ff 48 1b a6 e8 f2 3f a5 46 59 ed 11 0a e3 3f
       1.1817990365816207 0.5949792514531579
000010 4c 69 31 d7 8c 77 d1 3f f9 a7 8a 2c a8 b2 e7 3f
       0.2729217626089351 0.7405587072328209
000020 dd dd 04 6f 98 31 e6 3f 40 23 33 76 86 fb de 3f
       0.693554131349568 0.48410188239045127
000030 a4 66 61 6f aa a5 9a bf ca 4a 6a 9c db 7d d3 3f
       -0.02602258972942785 0.30455675387308345
000040 63 3a aa 01 61 a8 d6 bf fb e2 b7 9a 42 83 f0 3f
       -0.35402703440278155 1.0320459407504916
000050 c8 3a 47 ee 32 16 c5 3f 11 5b ec c8 c1 54 b1 3f
       0.16473995814017983 0.06769953875878466
000060 bf 12 fe 9e 1f 7c f3 3f 1b 22 4d 2f da 27 a4 bf
       1.2178035936969278 -0.03936654879959552
000070 2e 86 e1 b7 90 3f de 3f cd 28 19 25 fa 58 7a 3f
       0.4726297183716238 0.006432511452269374
000080 37 fb 01 72 e2 da d0 3f b5 35 d4 13 d4 9f bc bf
       0.2633596528393584 -0.1118137882624158
000090 0d 20 71 26 c0 a6 f2 3f 25 1d 5a 63 e3 50 e9 bf
       1.1657105924259696 -0.7911240520924464
0000a0 2f e2 c8 12 1e 9a e2 3f 3e 23 40 1c 85 fd e2 3f
       0.5813131682289788 0.5934472610252681
0000b0 e0 b4 6f 10 dd fe e2 3f 51 a0 1b 11 66 3a d4 bf
       0.5936112710020574 -0.3160643736905558
0000c0 11 d7 11 85 0c d5 de 3f b3 0d 9f 0b dc f4 ef 3f
       0.48175347323500356 0.998640082071168
0000d0 95 b0 1c 4c 17 cd b9 3f 8c fb be 66 00 8b d6 bf
       0.10078569038586445 -0.3522339824084433
0000e0 58 20 78 27 1c e4 d5 3f a5 8d 47 5d be 95 e0 bf
       0.34204772810381234 -0.5182792493691762
0000f0 39 ae 10 62 90 4b db 3f 3b 58 ac ef ea ef c3 bf
       0.42648706032443645 -0.15575920775217064
000100 13 a5 2b 09 db cf ab bf 17 e8 74 59 93 99 c9 bf
       -0.05432018744415692 -0.1999992548751954
000110 cf b6 3d 94 5a ba d3 3f ea 10 c9 9a 77 87 b7 bf
       0.30824913479487476 -0.09191081551495342
000120 95 c2 26 ff 34 ef ee 3f d2 be 94 28 07 b8 e5 bf
       0.9667000754762564 -0.6787143509481786
000130 3e e7 cf 28 90 9d ea bf 81 30 54 d0 f0 21 b4 3f
       -0.8317337796317827 0.07864289365915235
000140 de 27 c3 9b 9a 46 99 bf 44 13 11 70 ec f1 8e bf
       -0.02468339515397832 -0.01510987011909893
000150 98 05 45 2f fe 66 f0 3f d5 d3 c9 02 97 04 a4 bf
       1.0251447531194113 -0.03909751805341669
000160 0e 85 36 d3 b8 ff c4 bf 65 60 aa 64 41 ed cd bf
       -0.1640540152848548 -0.23380296149548765
000170 5e 9c 6b 5c 17 34 cb 3f cb fb 6d 10 51 ac ed 3f
       0.21252719891274102 0.9272847481623726
000180 61 00 fe 61 74 cb c2 bf 38 54 96 02 dc a7 cc 3f
       -0.14683394226813376 0.22387266279534557
000190 48 60 1e 73 e4 dd dd bf 08 64 bf 42 41 56 e8 bf
       -0.46666823617988884 -0.760529165617414
0001a0 44 bf 99 bc 86 45 d2 3f 20 50 45 42 b5 01 ac bf
       0.28549354951882244 -0.05470053132981456
0001b0 db f5 87 84 c1 92 b6 bf 15 cf ca d9 e3 1f 7b 3f
       -0.08817681775686685 0.006622209589000301
0001c0 dd 5f 26 1a c7 1f a3 3f 37 9f 69 b5 e8 44 d8 3f
       0.037351819936872956 0.3792058726889879
0001d0 db d2 34 89 05 8b e3 3f dd 6f 9e 50 6a c2 da 3f
       0.6107204131900191 0.41811616776408106
0001e0 e8 05 f2 a4 2a f0 e0 bf 4a 67 d7 d3 9f 18 d9 3f
       -0.5293172093953986 0.39212794959677366
0001f0 44 c5 8d 85 cc 0e e2 3f fe 02 24 0e 34 b6 db 3f
       0.5643065079185949 0.4329958093731391
000200 24 5a 81 f1 da ff e2 3f 81 bb e3 49 e7 80 d4 3f
       0.5937323300266297 0.3203676435068062
000210 4a ed 56 30 45 cd a4 3f a9 84 9f 3b 96 fd ef 3f
       0.04062858786661623 0.999705425692942
000220 01 0c 44 c6 4e 27 e0 3f 5c 5c a0 31 46 4a 9c 3f
       0.5047983047846857 0.027627083567577024
000230 f3 9a 69 49 93 71 e2 3f 1c 35 f8 90 0a 6f f0 3f
       0.5763641771162312 1.027109686171861
000240 b2 db e6 eb ff 52 c0 3f 49 91 99 4c af 2a c9 3f
       0.12753294962541656 0.19661513557651691
000250 45 24 d5 0e a2 93 db bf e3 65 0f 47 43 fe de bf
       -0.4308858055924854 -0.4842689699122202
000260 36 f0 aa 23 06 13 f3 3f e3 f2 3a 9f 06 e4 e8 3f
       1.1921445267935389 0.7778351888624367
000270 73 23 66 bb 38 d4 e3 bf 7e 01 a7 8e 71 1e dc 3f
       -0.6196559581886575 0.43935812884230774
000280 d5 54 9d b5 76 9c e9 bf 73 51 dc 8b 3a 6f e7 3f
       -0.8003495738181764 0.7323277217533771
000290 4c 6f ba 15 cd 12 da bf da 6b e7 89 dc fe ad bf
       -0.40739752885723557 -0.058585063776000104
0002a0 a2 44 cd 91 c3 8c e1 bf 66 02 2d 4e e1 2f e7 bf
       -0.5484330985729182 -0.7245947386619036
0002b0 ae 39 38 15 d6 d3 ee 3f 26 96 91 cb 82 09 93 3f
       0.9633589186139966 0.018590968775603532
0002c0 8c 44 2e 86 29 32 d2 3f 33 2f 9c ec 18 cf aa bf
       0.2843116579397893 -0.052361277468746435
0002d0 93 a5 94 47 99 ca b8 bf 2d 2d 11 af 6e c7 ca 3f
       -0.09684141156744479 0.20921119259069468
0002e0 86 a1 62 24 b8 3f d5 3f eb dc 2f 83 02 4b d5 3f
       0.3320141177487347 0.3327032357332899
0002f0 3a c1 11 35 10 61 d8 3f 7b 16 fd bf 81 c3 f4 3f
       0.38092427427820363 1.2977311610751758
000300 87 a6 ef 94 fb 33 d0 3f df e7 00 e8 57 2f ef bf
       0.25317277473968897 -0.9745292216605285
000310 db a5 fd f7 b9 8d a7 3f af 1b b1 49 bd 3f dc bf
       0.04600316192847816 -0.4413903445860638
000320 22 33 5d 7c f1 b6 e8 bf 79 4a b1 b0 1b e9 e0 bf
       -0.7723319462762428 -0.5284555865312789
000330 b7 85 dc 1c c2 fc d6 bf f5 3b f8 5a d3 bc ed 3f
       -0.35917713945863333 0.9293000008345859
000340 3d 72 ae c6 f0 24 e7 3f a9 17 47 df b5 b0 ed 3f
       0.7232593422409718 0.9278210984127685
000350 45 30 00 ed 17 91 cd 3f 78 b1 13 56 61 7f f0 bf
       0.23099040100385274 -1.0310986864452314
000360 22 40 03 a4 64 06 70 bf f2 fb 1a 53 17 41 dc bf
       -0.003912346961627152 -0.44147284618151084
000370 0b bf df e5 a6 43 e8 3f 94 31 2a 6e 68 94 e0 3f
       0.7582582940794692 0.5181162025124189
000380 37 35 07 88 94 04 d9 bf 3f 9d c6 c6 be 44 ed bf
       -0.39090455326079926 -0.914641750558907
000390 db 7f 67 cc 8c 15 d2 bf 59 4f 80 37 4d e9 c2 bf
       -0.2825653072486582 -0.14774480066318565
0003a0 61 f4 02 f9 01 28 d8 bf 2a f3 83 5b e0 ae d0 3f
       -0.37744187657864897 0.26067360817960383
0003b0 80 51 ef d0 63 da c9 bf 62 bf c2 65 36 a8 e9 bf
       -0.20197723104378085 -0.8017837512506782
0003c0 eb 94 72 6e 30 01 f0 3f 40 95 ff 16 54 81 de bf
       1.0002903284415037 -0.47664358373579674
0003d0 fd 22 f5 2f da f3 da bf 27 21 1f 2f d6 25 cd 3f
       -0.42113356288295717 0.2277171831212936
0003e0 32 13 20 07 64 b2 e5 bf 62 27 0b 67 f8 84 b8 bf
       -0.6780262126127126 -0.09577896609985495
0003f0 e2 d0 a5 13 f4 ee d0 bf ba 6f 18 a3 b6 81 eb 3f
       -0.2645845596191646 0.8595841584642507
000400 82 49 35 e7 5f fa da bf d7 a0 a1 46 45 41 e3 3f
       -0.42153165415688687 0.601717603637577
000410 ba a5 38 fe 21 e8 e9 3f 72 3a 2c f6 bb 2f bb 3f
       0.8095865216502525 0.10619711647107424
000420 49 dd 1e dd a1 f7 e0 bf 74 11 49 5f cf 79 c9 3f
       -0.5302285498391167 0.19902984764679454
000430 59 4d 15 dc 13 5d e2 bf 5e 20 31 9e 82 64 b9 bf
       -0.5738620089054322 -0.09918991434199273
000440 c8 30 5e 22 6f f2 e2 3f bb 12 1d f6 c1 b9 8a 3f
       0.5920940085648221 0.013049617121973047
000450 40 b9 cd 97 10 3a db 3f 37 b4 ff 01 3b e5 d2 3f
       0.4254189951378926 0.29524111933898517
000460 3c 21 fa 57 91 c9 dc 3f 45 63 14 ff 46 79 c4 bf
       0.4498027190352507 -0.15995109038410696
000470 5f b4 37 89 36 5e e4 bf 0c 53 00 09 da 0a c0 3f
       -0.6365006141692325 0.12533116759791374
000480 01 26 eb da fb a7 de 3f 88 b7 23 b8 74 7a db bf
       0.47900291804089085 -0.4293491171109669
000490 6d e7 0c 36 38 40 dc 3f 24 db e2 c3 9d a1 e5 bf
       0.4414196517787932 -0.6759785486127368
0004a0 f5 3b fd 90 f8 0f e5 bf 88 33 99 c6 28 31 9e bf
       -0.6581995803661572 -0.02948440277241418
0004b0 c7 ae 5f 19 f0 d9 c4 3f a4 32 77 47 28 bf f0 bf
       0.16290093649819523 -1.046669272577824
0004c0 54 61 7f e2 0d ae ee bf 2f a0 fc 89 91 e1 b1 bf
       -0.9587468551426732 -0.06984815234011486
0004d0 9c f3 bb 9f cb 63 bf 3f 70 e4 e6 53 f1 8e 8f bf
       0.12261650705109023 -0.01540936028765058
0004e0 01 84 63 5c 2c 00 d5 bf 40 0e fd 56 1c 9e e3 bf
       -0.3281355764611931 -0.6130506228441348
0004f0 bf 57 d4 59 7a 4d e9 bf 21 da ff be 62 a7 e3 bf
       -0.790707755516216 -0.614182827993151
000500 97 92 a6 e4 8c a7 df 3f 4f 86 d1 e1 22 7e f2 bf
       0.4946014626423589 -1.1557949849160598
000510 55 23 6c ea ab ff b9 bf 82 9a 54 03 74 21 b4 3f
       -0.10155748818591566 0.07863545495329485
000520 94 7d ca 88 b9 cc e6 3f ca e4 26 3a a9 67 da bf
       0.7124908134173205 -0.412576967991822
000530 79 7d 7e b1 8f 26 db bf af 9d 00 85 dd 3d d4 bf
       -0.42422859509857563 -0.3162759589053747
000540 b7 a9 da 9d 0a 55 db 3f 29 e7 5c 68 80 30 f2 bf
       0.4270655194801764 -1.1368412090946072
000550 93 a5 c9 9f 6c 7d ea bf 35 56 82 a4 47 f8 e1 3f
       -0.827810585103338 0.5615575993603615
000560 9b db 10 79 2e b0 83 bf dd 15 c6 a2 e7 f4 d1 bf
       -0.009613383359562458 -0.28057280441166005
000570 b8 05 6b de 5a f0 c6 3f 7a bf 7f 1a ea d3 c0 3f
       0.17921005115753785 0.13146711629769553
000580 cc 35 bb 21 c2 a2 c4 bf 25 eb 5c d3 c2 2a f0 bf
       -0.1612169899657786 -1.0104397064557784
000590 4d b5 40 bc 2a 75 ed 3f 0f 54 60 46 be 66 de bf
       0.9205526043712468 -0.47502095101055003
0005a0 4d 51 11 33 50 2f d6 bf 95 3a 62 da 01 bf d3 bf
       -0.3466377733905304 -0.3085331566480048
0005b0 6b bf 81 5d 68 8c e6 bf 07 da 3e 29 a3 35 b5 bf
       -0.704639608984491 -0.08284969098063054
0005c0 68 f2 2f a8 0d 8d cc 3f 7d 38 73 b4 94 73 d3 3f
       0.22305460655470033 0.30392949697569077
0005d0 56 7d 14 da 45 70 e6 bf 4e f6 9d 6e b1 df e1 3f
       -0.70120518296964 0.5585562859047941
0005e0 73 85 12 48 39 90 dd bf d3 2a 1b fe 47 45 93 3f
       -0.4619277194816142 0.018818974384695885
0005f0 c5 1a 59 31 bf 7f e1 bf 5a 91 b3 0f c3 14 e1 bf
       -0.5468440975026502 -0.5337844187420544
000600 86 66 94 21 71 29 ef bf e1 80 33 df 74 c3 d2 3f
       -0.9738088279584225 0.2931797198962283
000610 24 3b 2d 06 27 f1 c8 3f 01 e3 f9 bc 07 ec a5 3f
       0.19485938836665995 0.04281639272534755
000620 3b f9 7e 85 cc 5a f5 3f 31 d8 e4 f4 81 a7 b7 3f
       1.334667703121865 0.09239971379142344
000630 68 f8 2b b5 36 2f ea 3f d6 2d 2a a3 3e 86 e8 3f
       0.8182633913527413 0.7663872896968609
000640 ab 76 2e d7 1b 1b ed 3f d0 fb 0a b1 ab 33 d5 bf
       0.9095591738475454 -0.33127872742983033
000650 cc f4 5d f2 14 ad e4 3f e4 8a b5 dc e8 49 ce 3f
       0.6461281522494118 0.23663054253400795
000660 65 62 f8 c1 81 83 df 3f 1b 2a 4f 45 eb 7c 99 3f
       0.492401542114328 0.024890590768146575
000670 0a 9f 28 cc 90 dc ee bf 92 78 14 a1 0a 3a c8 bf
       -0.9644245135759502 -0.18927128663284926
000680 da 79 b9 74 51 8c b5 bf 29 ac 32 77 5b ca c9 3f
       -0.0841723356220209 0.20148795433246505
000690 30 88 70 f6 d8 56 d3 bf 4c 8a 6a 50 45 f4 e3 3f
       -0.30217575136532826 0.6235682078007101
0006a0 6c 08 c3 03 83 6c d0 3f ce 2c 52 9f 0a e9 c7 3f
       0.2566230332123556 0.18679936198564068
0006b0 0d 2d 37 14 71 7a e7 3f 24 93 12 32 9a b1 c1 3f
       0.733696498378238 0.1382324928755675
0006c0 0c ea b7 a5 b7 ae d0 bf 3e 9d e3 ca 31 3c e4 3f
       -0.2606639021247765 0.6323479616811836
0006d0 b8 8b 21 5d a7 eb e1 3f 28 ff 26 4c 81 fa c9 bf
       0.5600163287129964 -0.20295730799079448
0006e0 c7 4c 4b 92 e8 ff d8 3f 35 31 8b d9 de 94 d6 bf
       0.39061941420113694 -0.35283633465293757
0006f0 80 cf 8a 2f 26 ee e5 3f e3 30 9f af 83 3f 98 3f
       0.6853209427413134 0.023679788202387263
000700 2e 5e 38 28 dc 20 c5 3f 24 82 13 9a 15 8c d7 3f
       0.16506530727268526 0.36792507215980863
000710 a7 1c 86 ba 38 d5 d1 bf 83 ff 41 d8 85 b1 e4 3f
       -0.2786390134355749 0.6466702674660926
000720 88 5d b4 83 87 87 d2 3f 33 e4 94 23 9f 3d d2 3f
       0.28952205526135133 0.28501108622328103
000730 64 8a cf 18 53 d4 e9 bf 5b f8 17 34 20 a9 b8 3f
       -0.807168529947671 0.0963306548291895
000740 3b 53 2a d1 54 87 a6 bf 8f a8 14 60 55 fa da 3f
       -0.044001246006848814 0.42152914412384573
000750 ca d0 07 b3 1a 32 e5 3f 91 ad b5 03 07 8f e2 3f
       0.6623662468614608 0.5799593994574243
000760 28 bb 3c 3b 48 e8 e1 3f d5 36 a9 68 92 01 e3 bf
       0.5596047551133312 -0.5939418834838884
000770 8d 55 f0 12 f3 af d5 3f d7 02 43 f1 06 d5 de bf
       0.3388641056966087 -0.48175214348525003
000780 b4 a6 d4 5c e6 c1 44 bf 0f 9d b1 c3 d8 14 c8 bf
       -0.0006334662263373842 -0.1881361918960711
000790 4f 5a e5 b8 61 ee 85 bf ae 6d 1f 74 28 8b e0 bf
       -0.010708583312106472 -0.5169870632193374
0007a0 a3 06 bc ff fa 27 ec bf f5 7f 68 bc 78 b9 f6 3f
       -0.8798804278196325 1.4202811584182176
0007b0 98 c8 d1 0c a8 d6 be bf 28 1b 7a ab 24 05 74 3f
       -0.12046289742446203 0.004887717477351207
0007c0 18 b6 07 ae 92 96 ad bf b6 97 7b 61 09 ad e6 bf
       -0.057789405578528796 -0.708622637172758
0007d0 5d b5 b3 0c 45 02 b8 bf 2a 16 6e e2 5c fb 96 3f
       -0.09378463325602611 0.022443248100463865
0007e0 f5 d2 40 2a da dc e7 3f de d4 44 59 3f da e0 bf
       0.7457094979532416 -0.5266415351422002
0007f0 48 1e 65 fa 06 42 e1 3f fb 77 85 3b 53 c8 de bf
       0.5393099680449689 -0.48097687542565354

V3 f8 [21, 28]
000000 bc ed 24 2a 9e 2b ce bf 24 56 44 8a 75 51 ce 3f
       -0.2357061105520709 0.23686093570056344
000010 49 42 a7 64 d7 5c cf bf ca bc 88 2a 35 f3 c8 3f
       -0.24502079405512436 0.19492210938321924
000020 83 a4 c4 10 b3 82 96 bf cb 75 c3 c8 9d 2d c6 bf
       -0.02198295392841888 -0.17326710036188184
000030 a4 da a0 7c e1 89 d0 3f 74 0b 78 b2 dd cd cf 3f
       0.2584155766557308 0.24847003187468497
000040 8c de 1d 52 e6 c4 be bf 6a 2d 80 fe 22 63 63 3f
       -0.12019195084382711 0.002366607997833438
000050 bf 1a c9 4c 30 ba cd bf 22 a3 12 bb df 07 c1 3f
       -0.23224452733321319 0.1330527938310065
000060 ee 44 72 ca f9 7d a4 3f 4b 1e 65 b3 94 3f d1 bf
       0.04002361866253944 -0.26950566786806424
000070 fc 3f 5c ba 42 f7 b0 bf 45 29 08 a6 7d 51 ae bf
       -0.06627289819539323 -0.05921547557598442
000080 de d3 ee fd 69 54 cf 3f ce 80 a6 10 33 db 97 bf
       0.2447636117846334 -0.023297117129573768
000090 89 4a 35 3a 83 96 cb bf e6 7f 40 c0 07 67 85 3f
       -0.21553078024097186 0.01045042090851207
0000a0 dd b0 ef 4b a9 83 a6 3f bb 92 0f ea 84 f2 ca 3f
       0.0439732461162252 0.21052609852553936
0000b0 16 03 17 e9 bf 96 d0 bf 62 78 65 34 67 f4 ca 3f
       -0.25920102846798565 0.21058359201828397
0000c0 9a 01 8f 46 4e 07 d0 3f 4c a6 e1 e6 78 4b d0 bf
       0.2504459084557539 -0.2546064619733428
0000d0 03 9d 69 d3 0e ed d0 bf 8c d5 d3 59 a4 70 9c bf
       -0.2644688667846397 -0.027773445112833126
0000e0 f6 30 14 ce 1a 26 bc bf ec 1a bf b3 57 55 bd bf
       -0.10995643168661559 -0.1145834745249023
0000f0 82 6e c4 ef c8 d2 c6 bf e1 81 e3 ac 9c 49 c0 3f
       -0.17830764491451495 0.12724646035986978
000100 b1 41 b7 ae ee f3 93 bf ec 15 d8 d4 cf d5 d2 bf
       -0.019485215581711738 -0.2943000391536248
000110 e4 9e 1e 1c b4 53 c1 3f eb 28 30 a8 45 6c cb bf
       0.13536692975070885 -0.2142417021971775
000120 52 5c ab 22 1b 68 9b 3f e3 3d f3 14 2d e2 c3 bf
       0.0267643203650006 -0.1553398468299597
000130 fe b3 f2 fb 17 ae c1 3f 17 7d fb bb 58 34 b8 bf
       0.13812541772986714 -0.09454874600804818
000140 1f 15 c3 b8 28 bb c1 3f 1d 89 39 32 a0 3f c2 3f
       0.1385241415174869 0.14256670429592413
000150 a7 f7 19 d6 4e 4c dd 3f e3 c8 6c 61 49 9d c6 3f
       0.4577824679216697 0.17667500741078532
000160 4c 25 e2 8b b3 a0 c2 3f 8a ab 58 71 12 96 d8 3f
       0.14552921610110514 0.3841596705339546
000170 ec 54 8d bf a3 40 c2 bf 96 8b 3d 57 58 af 8b bf
       -0.14259764531258357 -0.013518037950864852
000180 d4 ec 63 ee e1 c4 d5 bf 7b 8f e4 ce 79 11 cb bf
       -0.34014175682359604 -0.2114708194941349
000190 1a ab f8 8b d7 43 b2 3f 7e c6 4e f5 71 51 c2 3f
       0.07134768645543624 0.14311050870815117
0001a0 85 88 f4 92 34 7a c8 bf 70 56 60 dc 59 0a bf bf
       -0.19122941184565803 -0.12125169401437019
0001b0 12 05 42 ab 0c 29 ba bf 3a 8a 18 80 73 e4 b2 bf
       -0.10218886548138453 -0.07379838826504051
0001c0 1e ee e8 1c a4 d6 b1 3f 85 13 4d 57 84 83 b2 3f
       0.06968141275222492 0.07231928950666429
0001d0 f0 34 a3 aa b9 9d b5 bf 1c 00 42 a6 b0 89 b2 3f
       -0.08443794647174108 0.07241348322895685
0001e0 18 c3 79 87 10 06 d5 bf fe 04 ae 63 03 9b c1 bf
       -0.3284951518062811 -0.13754312865425072
0001f0 d1 3b 09 87 5f bd a9 3f bd 94 22 ab 07 33 97 bf
       0.05027292750730051 -0.02265560133004806
000200 b2 5b cb 60 55 e1 d3 bf b2 ad 00 ae c2 08 db 3f
       -0.31062826588225356 0.42240969650694205
000210 e5 a2 ed 2e 15 aa bb bf 48 32 5b 9d 9d 34 dc bf
       -0.10806400676450385 -0.44071140639133377
000220 a4 63 00 3e 34 3b 8e bf 9e ec 40 b7 a1 08 b2 bf
       -0.014761360304008715 -0.07044420932736492
000230 b8 d9 7c 19 b0 4a b5 3f ed 19 1b 0a 52 0e c3 3f
       0.0831708967424224 0.14887452596140296
000240 4a 54 98 d5 e7 b0 94 bf 6e 73 58 11 a6 62 b2 bf
       -0.020206091319853216 -0.07181775973772428
000250 3d a5 5a c9 0f 5f be 3f de db 8b 19 f2 28 c8 3f
       0.11863802591201007 0.18874956366900525
000260 ac 12 8f 85 bd e6 aa bf 2c 84 a1 2c 60 09 84 bf
       -0.052541658929418616 -0.009783507692363434
000270 b4 c7 1b a7 27 56 ba 3f 01 31 29 48 4c 16 c1 bf
       0.10287711934850458 -0.1334929802272953
000280 28 0a 5a 43 39 b0 7d 3f b2 20 e9 e1 8d 60 b2 bf
       0.0072481381263309955 -0.07178580060383657
000290 3c 11 a2 8e c6 0a 89 3f 92 97 90 4a 42 66 df 3f
       0.012227584102455162 0.4906163910076141
0002a0 ef a1 28 f8 d2 23 b4 bf ed d2 90 3f 47 d6 ca bf
       -0.07867163237154505 -0.2096642551784024
0002b0 da 49 b0 c3 dc d3 9b 3f de a0 ca 64 53 24 c4 3f
       0.02717537826908676 0.15735857411824034
0002c0 36 35 a8 2c 47 f7 d7 bf a6 bc 43 c1 62 bc b4 3f
       -0.3744676529029961 0.08099953859685857
0002d0 ee 00 95 29 83 76 b6 3f 1a 24 25 17 e4 44 b2 bf
       0.08774585499941498 -0.07136369290414316
0002e0 7c e1 15 e6 a0 b4 cc 3f e4 7a 6a 1c ce 78 cd 3f
       0.22426234469072515 0.23024917972084957
0002f0 67 25 ff 4f de 30 cb 3f 35 b4 a7 5e 3c a6 87 bf
       0.21242884546363003 -0.011547538412708483
000300 fc e4 a1 04 f8 4a d2 bf 34 9a ce 83 35 c2 64 3f
       -0.28582573368437614 0.002534012337906755
000310 c1 84 92 c1 e8 c5 a9 bf c2 7a e9 63 f9 12 d6 bf
       -0.05033805239623624 -0.34490809208902473
000320 3c 5d 53 5b 5b fd c5 3f 79 d4 73 4b c0 55 c1 3f
       0.17179433783778986 0.1354294174595088
000330 aa 3e 45 e4 01 10 cd bf 30 23 4c f0 37 f4 da 3f
       -0.22705100675601858 0.4211559149412549
000340 a2 7d 52 a9 51 ba d1 3f a7 22 03 91 26 d9 b6 bf
       0.27699700866102195 -0.08925095596635889
000350 2d 0f b8 46 91 28 a3 3f d4 6e f5 d6 1a 98 a7 3f
       0.037418880350769214 0.04608234285362092
000360 1a c1 af 5c 3a 1c b4 bf ba 1d 0f 82 b6 06 b5 3f
       -0.0785557247434138 0.08213368106145583
000370 4e 16 c1 06 ed 3e b7 bf 23 33 f8 26 33 f9 c4 bf
       -0.09080392279528235 -0.16385497477349373
000380 a3 43 b0 26 60 ad b8 3f e0 f9 e3 98 cf 98 b5 3f
       0.09639550156158676 0.08436295969656937
000390 22 31 7c d0 3f 2b c5 bf 92 3b e0 f8 4f 18 b1 3f
       -0.16538236312806825 0.06677722765037533
0003a0 9f ba 32 2c 36 10 d5 3f b2 ce 5f 2f bc 89 8b bf
       0.32911447826601575 -0.013446302600619606
0003b0 12 6d 0d b3 df 9b 9b 3f 70 21 38 0e 5c e7 a0 bf
       0.026961798957342138 -0.03301513360571817
0003c0 a5 ef 5b 5b 68 1f 63 3f c6 6c f3 5e d6 12 d4 bf
       0.0023343122692249412 -0.31364974281832436
0003d0 11 a4 67 13 cf 44 9c bf aa 08 db 04 82 7e 9a bf
       -0.027606235083940393 -0.025873214289057124
0003e0 2c 58 ad 7a 4d 4e e3 bf f8 e0 3e 7a 77 7e a1 bf
       -0.6033084293401365 -0.03416798941856486
0003f0 7e f9 ad a7 b5 a0 b9 3f b5 50 55 8a e9 4d d4 3f
       0.1001084837316508 0.3172553873930711
000400 a0 a4 b3 cd 2f 19 b9 bf d5 db d6 3e 0b 77 b2 bf
       -0.09804056903853331 -0.0721289661804428
000410 c6 7e 5e c9 23 5f 93 3f d8 68 d6 b9 c8 8d dc 3f
       0.018917617002101726 0.446153813821764
000420 a7 1f 88 40 ef f9 bd 3f b0 ba a8 37 71 33 61 3f
       0.11709494901162874 0.002099724891443465
000430 ba d9 64 19 42 99 94 bf 88 66 40 ae 15 80 6f 3f
       -0.02011588363640169 0.0038452552271451314
000440 0a ab 7b 9b 6a 50 8a bf 82 07 6e cd 24 fc c2 bf
       -0.012848694677321432 -0.1483198168826299
000450 5a cc 85 29 27 2c bc 3f 55 31 6e 9f 91 f2 ac 3f
       0.11004872096764143 0.056538153373454726
000460 bc 2d be 3f 2c b2 c0 bf 4f a2 b2 6f cd f8 cb bf
       -0.13043740379758428 -0.2185303492926942
000470 2d c6 33 28 cd 09 d1 bf 42 8a eb bf 82 4b cd 3f
       -0.26622322965622197 0.22886690493676737
000480 37 df 99 2b e5 76 c1 3f 9c 18 98 20 de e2 c3 3f
       0.1364408934493839 0.15536095229635272
000490 40 62 f3 c0 c9 ae c7 3f d1 6d f7 d5 54 05 a3 3f
       0.1850216095106294 0.037150050276718034
0004a0 76 aa 10 2d 1e d6 d7 3f 7e e0 1b 2a 19 10 c2 3f
       0.37244371796501896 0.14111628109072066
0004b0 06 ea f7 79 1d 65 cc 3f 27 c8 8a c1 61 bb 7f 3f
       0.22183578925599096 0.007747060641735393
0004c0 6f c7 13 3f 92 5e c2 3f 37 bc 66 f7 48 5d c1 3f
       0.14351108627266337 0.1356593330396849
0004d0 8e bb c9 07 9b 2e d3 bf 0a 6f ed 80 35 4d d3 3f
       -0.2997195793204178 0.30158746328901087
0004e0 ee b9 46 a5 3c f1 a2 3f ef 54 57 82 6c 82 d8 bf
       0.036996741462065205 -0.3829604409086888
0004f0 23 a0 27 00 d2 b3 bf 3f 44 6b 7e 12 cb 99 8e bf
       0.12383759025362955 -0.014941774846922613
000500 ee b6 43 d8 45 c7 b7 bf 1a ff f4 5c ea fe a7 bf
       -0.09288441209693207 -0.046866725775997334
000510 8f ad 2a 17 68 65 cc 3f 29 16 cc 5b a3 d4 b6 3f
       0.22184468394457865 0.08918210021155261
000520 1a fb 2c 7c 2e 0c a2 bf 58 b8 45 a2 d6 77 b6 bf
       -0.03524918809715967 -0.08776608907439376
000530 87 2b cf 11 5e ab cc bf 6c 95 f7 63 a2 98 bf 3f
       -0.22397971982567474 0.12342276516536338
000540 b3 ff c6 2c d4 c4 ba 3f 48 fb c9 c2 77 f8 d4 3f
       0.10456586926647908 0.3276652719722972
000550 7f e1 36 5d 5b 72 4f bf 2c 38 a9 76 0b 92 ca bf
       -0.0009596773256169004 -0.2075819329642753
000560 45 b5 8c 18 65 7c c0 bf 42 4d 40 17 e8 c2 dd bf
       -0.12879623125756204 -0.4650211550771993
000570 3a ef 4c af 3f bb b5 bf 82 2f 11 76 58 14 b0 3f
       -0.08488843946264249 0.06281044847963638
000580 8b b5 e0 24 54 00 d1 3f 73 02 71 1c 6a ac be 3f
       0.26564506150574435 0.11981833643313582
000590 37 38 e3 27 52 21 ce bf c0 98 90 b2 8e fb b9 3f
       -0.2353918738139684 0.10149471148961009
0005a0 71 6f 61 9b e4 5c be bf 77 36 5f 3c 47 f1 c1 3f
       -0.11860493463012546 0.14017572830055133
0005b0 8e 11 27 67 00 83 8e 3f 91 b5 c9 69 b7 0d c0 bf
       0.014898303173034557 -0.12541859307695494
0005c0 68 64 07 cd 89 b8 a1 bf 23 0c 10 aa 80 28 d2 bf
       -0.03461104038041968 -0.2837220822113428
0005d0 12 cb 5e 15 4c 71 c5 3f 7d 4d 56 fa 46 cd bf 3f
       0.1675200561854458 0.12422603236909953
0005e0 83 eb 45 d0 aa 98 c9 bf 22 02 da 3e a1 8a b4 3f
       -0.19997153443895507 0.08024032387221117
0005f0 b8 bb a8 4b a7 1c ca 3f 9b ff cf b5 fd e2 c7 3f
       0.20399943537037557 0.18661471726954634
000600 35 85 a9 e6 5f fe d1 bf f3 94 df 1c 5e f2 b3 3f
       -0.2811507942734182 0.0779169865123384
000610 ee 17 44 b4 74 a3 c1 bf 00 e5 9f 9d 19 48 ca bf
       -0.13780077745485592 -0.20532531925690733
000620 ff b7 50 df 0a 1d b8 bf c6 41 02 a8 da a5 bc bf
       -0.09419315292390705 -0.11190573312547433
000630 0b c1 0b 2d f2 ec b1 bf 94 06 54 37 1d 4d c6 bf
       -0.07002175903085488 -0.17422833634923462
000640 7a 33 1b d8 5b ab c3 3f 9d 6d 35 4b 85 ff a0 3f
       0.15366695453704066 0.03319946806979177
000650 12 9f c9 b9 99 96 c3 3f ba d0 79 c6 57 c8 d6 3f
       0.15303346225413655 0.35597795851141323
000660 15 76 40 9c d3 09 d0 3f d6 08 f4 51 b3 c4 a3 bf
       0.25059976824727076 -0.038610080484447515
000670 70 31 6b 18 36 1e a9 3f d1 93 e2 db aa f3 ce bf
       0.049058619004059945 -0.24181113945556246
000680 0e 76 a3 f9 c2 e0 96 bf 07 8c 86 66 e4 d7 c2 3f
       -0.022341772543645937 0.14721350675708342
000690 8c c3 82 bf 0d da 50 bf c5 d7 7a b3 db 97 ce bf
       -0.001028550554149829 -0.2390093447081069
0006a0 3a 2d 04 ba 12 0b c1 bf 23 77 d4 90 1d a3 c7 3f
       -0.13315042574718366 0.18466538974546962
0006b0 49 7a ff 12 65 a3 b3 bf 67 73 71 d9 c9 b9 c4 3f
       -0.076711957109617 0.16191981427518984
0006c0 ca e5 ea cf b3 eb d7 bf a0 1f f1 46 1b 19 d9 3f
       -0.37376113228273466 0.3921573822776683
0006d0 67 96 ed 87 19 bd c9 bf 67 ce 2d fc 71 04 d6 bf
       -0.20108336579430672 -0.3440213167843695
0006e0 24 38 30 56 06 c0 ac bf d7 61 eb cc 90 dc af 3f
       -0.0561525325975796 0.06222965718706391
0006f0 80 35 ac 94 88 7d a1 bf a0 30 91 22 b9 ee c1 3f
       -0.034160869740030186 0.14009775340889963
000700 6e df 6b 7d c9 9f d6 3f f2 0a b6 e7 59 45 a6 3f
       0.3535026287859101 0.04349785760407156
000710 ee 80 8a 77 63 2d cb bf f9 5e 4b b7 4d 0c d1 3f
       -0.21232264840092036 0.26637595081182003
000720 15 e1 0c ab ca 65 d1 3f 23 75 09 9b ae db b4 bf
       0.27183787063724313 -0.08147708211022979
000730 72 7c 65 9b 53 a2 c9 3f a2 87 e9 6b b9 17 a5 bf
       0.20026631438938441 -0.041196627066496974
000740 6a b7 d9 f5 b8 a8 c5 3f 73 79 06 8f d6 bd d0 3f
       0.16921150211731667 0.2615867993098597
000750 a4 ef a9 49 46 da b6 bf ea 49 b0 d0 49 3e d3 bf
       -0.08926810549195224 -0.3006767786002046
000760 03 6a 42 b8 fb 39 c3 bf 07 a0 3b 53 3d 1c c0 bf
       -0.15020700928728567 -0.12586180271250688
000770 1c 9d 2d 51 7c 3e a5 bf 58 15 97 1a 0e cf cf bf
       -0.041492352399297355 -0.24850631998394124
000780 de 8f be c0 76 67 cd bf 99 37 d5 8c 4a a3 c6 3f
       -0.22971996699663938 0.17685825230222177
000790 a8 31 1d 24 e8 ed c2 3f 1b 96 a0 3a dc 8d d6 bf
       0.14788533938771065 -0.3524084637195714
0007a0 31 90 0b 8f 4d 44 bd 3f e5 1c e5 2b c1 48 c7 bf
       0.11432347051919646 -0.18190779345807254
0007b0 91 cc 14 1e 1c e9 ba bf 00 e9 d0 81 3c 2d 58 bf
       -0.10511947378545218 -0.0014756289376821052
0007c0 94 ff 51 cf 97 85 9d bf 54 35 30 04 f0 8c b3 bf
       -0.028829929379298472 -0.07636928655866387
0007d0 50 90 6e c6 97 2d 85 3f 52 18 77 4d 24 a7 ca bf
       0.010340867751274768 -0.2082257631538505
0007e0 64 38 a5 b1 a5 06 c1 bf 63 26 58 00 1d 8e ba 3f
       -0.13301535772410766 0.1037309766617454
0007f0 45 da fb e8 12 14 b5 bf 81 32 0d 0a 96 94 d6 bf
       -0.0823375529106239 -0.3528189752731024
