Fuentes/model_rdim.npz (npz, 17770 bytes, 3 tensors)

V1 f8 [30, 41]
-0.2294457681349407 -0.04587601965052536 0.18359865689396052 0.15017222524175766 0.1497941557575794 -0.029932609229461615 0.10959389918627273 0.06180064525117406
-0.03628158233038076 -0.027341745724872753 -0.05218760018027045 -0.10358002143545798 0.09240806481038712 0.07049338775696008 -0.14411394177207432 -0.09448541631272372
0.1558494501263692 -0.2554698055257955 -0.16996221934621825 -0.14979469475195092 0.18339569421630503 -0.17902551275860332 -0.2110785135167587 -0.25715260782280774
0.03440500116145543 0.008614010590498159 -0.050755802846387435 -0.07447842610388825 -0.17986457267962414 -0.24068269550507715 -0.014455876000508513 0.3358508673653992
-0.2162471377513727 -0.34987423959109665 0.05946646453121571 0.0811980638510532 -0.19044437866043443 -0.11774157627470756 -0.12323804122657245 0.1376137793645102
0.02753841396784377 0.20030120621902575 0.2628972048002712 -0.019022918256870896 -0.21565072851913694 0.21357880476201635 -0.07115564771123331 0.05767969400987721
0.2136354076701313 0.19477624504238533 -0.1970051756497356 -0.44456544074801596 -0.3310312504777426 0.008096521494552644 -0.320523935197539 -0.7242526459419852
-0.05085732568248675 -0.17403657978228534 0.0799179308740553 -0.23115960600547478 -0.10687345783313798 0.05397692618251865 0.058471566395315824 -0.11725876572188587
0.04483212558704389 0.03881852776540384 0.09574591257886775 0.1446796898971311 -0.07522486755729686 0.12956782311580298 0.1736686523109068 0.003653239925055079
-0.2575352500663231 0.2907103554621458 0.1601535572918659 0.09080576770975751 -0.009508459398146814 -0.09620687467318101 0.24722403307973978 0.10585462288365095
-0.280756982104905 -0.11777460404000861 -0.1389726717323806 -0.045432805158625654 -0.061410284471012995 -0.03221085107559139 0.11274333998643318 0.09913030645032224
0.3962868524475855 -0.0905115383960117 0.2742315447664522 0.18197697275837382 0.04177126965831173 0.3849018396903195 0.09100755012553206 -0.14934188481119326
0.23946818164016648 0.022085944189510875 -0.22400491515175727 0.3577880724870309 -0.27173736148232913 0.22243659621589362 -0.2195366452349046 -0.07276226999819312
-0.05221361442362899 0.2640661227681163 0.3110387709523864 -0.07224954695492034 0.12804773235248304 0.2718487486866523 -0.09864399209726081 0.2324001726668958
-0.14478664990031212 0.4060342552074364 -0.11827773454195127 -0.0762978742521832 0.05689266408898678 0.12819776809999475 0.20154592730092022 0.15749992900120016
0.05873942189347152 -0.26016420752349756 -0.15928099453438474 -0.0730576217825792 0.001681622132127183 -0.04004371495987696 -0.18316409901094372 -0.1595488030660281
0.06777060732808982 0.3971497707546606 0.3539401266096131 0.2430962364591701 0.10152559395178526 0.34584144241455655 -0.18832594676047354 0.12851113496783914
-0.11925373999469936 0.25767401140758855 -0.03547205598858359 -0.2679207170221585 -0.09257092423198925 0.09183307686584143 0.05235292937894526 0.27552933431794
0.26064252895911405 0.4324337394103656 -0.35403387730834796 0.08373968187164936 0.025310113900888144 0.05588281374122085 0.03391563843386889 0.19931561049615654
-0.16658985766888598 0.03326553471928119 0.1663865161065404 0.2957716942740537 0.07832029168923839 -0.03962914026689028 0.18513135731627753 0.16856658917944778
0.04127534364273075 0.061638067359162586 0.11219644682661374 0.003987413759869669 0.18916880129035588 -0.32050217179308 0.023117974727341114 -0.2608785614965976
-0.2145140254559677 -0.1316635441789099 -0.1437542700939721 -0.2022801309856982 0.22575556424027265 0.13565601122069681 0.18716746951156016 -0.4984640826462457
0.10293115079548334 0.1938591197257536 0.024100914057126176 -0.21410693253838656 -0.10640987908090425 0.14003767217194216 -0.15779574646450867 -0.17863127814429425
-0.25492080804079476 -0.43876906853745445 -0.08771946469080709 -0.05699978301749758 0.254302365469122 0.17666570085453476 0.10233313440031379 0.10661122859577583
-0.07355288573394637 -0.07767244736227163 -0.08404846394678686 0.11729546546625796 0.18302486898886408 -0.14102982940571415 -0.10654854036888603 0.16212678478493106
0.1537064670519603 0.07721565599965473 0.08900841297969395 0.08118923757021496 0.00456069991645904 -0.1773233535260034 -0.29270938728999246 0.1906794580356195
-0.13492000827776945 -0.13039759541245938 0.06998788867078205 -0.5548597403839275 0.23570280487491108 0.11752334049568164 0.3372875935624799 0.22216441394820582
-0.09520947894792596 -0.19444567981266217 0.0857015240866117 -0.05330194252714894 -0.06384139667367143 -0.01183622913325092 -0.402460106967643 -0.1847165003651337
0.19982514046502714 -0.14991530216221205 -0.2161327849674825 0.3558761841592771 -0.12679119766834712 0.09154030858738266 0.003600139342937768 0.00640639683160612
0.0015770655036536829 -0.029451706886739315 0.15406915401955654 0.27686870991660073 -0.270365025472191 -0.058402857986216895 0.21029513481076706 0.12847674740282608
-0.010588035952389583 -0.1884420037301307 0.0008431509556080248 0.09838030326268876 -0.19241306751888673 -0.3174545188709787 -0.1617904286987997 0.057930953052102024
0.427044216115708 -0.034957413189722925 -0.1585034559907766 -0.09524069244248838 0.14193376484410838 -0.3869281166841485 -0.2176824558986189 0.06437354162863915
00000000: 812e 2c9b 7a5e cdbf 72aa 23c8 0f7d a7bf
00000010: a17b 7929 2980 c73f 9027 17ee d738 c33f
00000020: 852c 0e74 742c c33f 80df e566 a7a6 9ebf
00000030: 199e d884 580e bc3f 7773 738c 55a4 af3f
00000040: 58bb 1ce3 7f93 a2bf f2c4 d07e 79ff 9bbf
00000050: 4edd 0f48 55b8 aabf c992 9564 3884 babf
00000060: 814c 3f10 0ea8 b73f 9519 00cb da0b b23f
00000070: ba83 675d 5372 c2bf 8c18 033d 3230 b8bf
00000080: 2838 b2f1 dff2 c33f 4752 f606 9e59 d0bf
00000090: 18e4 d26e 52c1 c5bf 9b76 89f9 782c c3bf
000000a0: 8670 7196 8279 c73f 8f52 39d9 4eea c6bf
000000b0: c5ac 38e8 9e04 cbbf 5186 2b36 3075 d0bf
000000c0: 8555 9d45 889d a13f 824e 30ee 38a4 813f
000000d0: 1a6b 9d22 aafc a9bf 42ae 5fa4 0411 b3bf
000000e0: a61a af64 cd05 c7bf c026 f4c8 b0ce cebf
000000f0: 1efa 41d5 0a9b 8dbf 57ba eaa2 947e d53f
00000100: d374 3f78 fcad cbbf 9a6c 30ec 5664 d6bf
00000110: fc99 bd70 6372 ae3f 8f21 bd74 65c9 b43f
00000120: 91dc 063d 7b60 c8bf 3db7 7adb 4f24 bebf
00000130: 58f4 b03c 878c bfbf 6ebd ec0c 549d c13f
00000140: eb9c 80ad 0733 9c3f 4ab0 074d 78a3 c93f
00000150: 39ed 34cc 4ed3 d03f cba5 266f be7a 93bf
00000160: 0994 2c6d 719a cbbf 262b c9de 8c56 cb3f
00000170: 0a6f d8ab 4137 b2bf e7d7 d45e 3188 ad3f
00000180: dbfc 9ab0 6758 cb3f 3853 3f91 6dee c83f
00000190: 0378 4731 7737 c9bf 9473 3c9b c273 dcbf
000001a0: 7c60 b0b2 9d2f d5bf 4064 3eb8 e894 803f
000001b0: c78d d0d2 7683 d4bf e997 8be2 132d e7bf
000001c0: 69f8 22ad f809 aabf 7f7e 3ca5 d446 c6bf
000001d0: 88d2 7763 8075 b43f b791 f951 a396 cdbf
000001e0: ca29 3416 0f5c bbbf 7892 6219 dda2 ab3f
000001f0: 32da d332 fcef ad3f 18e0 f1a3 ab04 bebf
00000200: c5bc 6982 3cf4 a63f 006a 76a6 05e0 a33f
00000210: 4e7d 40db cd82 b83f f475 4034 dd84 c23f
00000220: 5128 01da ef41 b3bf 85b9 72ad ad95 c03f
00000230: c103 023f c63a c63f 25ea 1440 66ed 6d3f
00000240: d187 2621 757b d0bf 8161 549b ff9a d23f
00000250: 550c 7469 e97f c43f 3c01 9afa 0b3f b73f
00000260: befc 33d1 2b79 83bf a026 5f84 03a1 b8bf
00000270: 1a6d 6e80 09a5 cf3f ed6a 6adf 4919 bb3f
00000280: 0de9 1022 ecf7 d1bf 28b4 a6f8 7926 bebf
00000290: bc6c 1044 dbc9 c1bf dbc7 a4f8 f742 a7bf
000002a0: 49d2 e136 2b71 afbf fe58 e4cf f07d a0bf
000002b0: da62 155e bfdc bc3f a520 3f90 9a60 b93f
000002c0: d337 c687 c35c d93f 0a4f 52a1 c32b b7bf
000002d0: 166c 1377 028d d13f 7aa7 4f7d 054b c73f
000002e0: a78f 303a 0b63 a53f 55f8 6853 3ba2 d83f
000002f0: ff6d 7a53 454c b73f 0cf2 9787 a21d c3bf
00000300: 80de 49b4 e4a6 ce3f b01d fb9f b29d 963f
00000310: ad2a 5c6c 31ac ccbf 61c3 8ef1 ffe5 d63f
00000320: 6dbf 2a1a 2564 d1bf 2025 1769 cd78 cc3f
00000330: 295b c7db c619 ccbf df63 0652 8ca0 b2bf
00000340: 49fc b52c bebb aabf 3151 5198 75e6 d03f
00000350: 82d3 4129 0fe8 d33f a67b 5241 f27e b2bf
00000360: bdf3 633b de63 c03f 1c55 444b f865 d13f
00000370: 9f2e 0190 bb40 b9bf 7733 98f2 49bf cd3f
00000380: 2110 1c73 5e88 c2bf 6efc ca19 77fc d93f
00000390: e3e0 b319 7347 bebf d4dd aaea 4188 b3bf
000003a0: 75fd 4907 0921 ad3f 0d70 b4d2 c868 c03f
000003b0: 0b21 33c7 41cc c93f 655b 172a f528 c43f
000003c0: 966c 09f0 1713 ae3f b0cd b9c6 87a6 d0bf
000003d0: 0924 33d3 5163 c4bf 659b 4780 e7b3 b2bf
000003e0: d727 f303 3c8d 5b3f 0777 531c 9c80 a4bf
000003f0: d6d2 86d3 eb71 c7bf a66b a45d 186c c4bf
00000400: 18ad 1a1e 6a59 b13f 9e54 40df e66a d93f
00000410: dff1 217d f4a6 d63f 84b8 af08 c71d cf3f
00000420: 46da bad1 94fd b93f 3f68 3125 4422 d63f
00000430: 4488 298b 101b c8bf 3fea ed88 0d73 c03f
00000440: a1f2 33c1 6987 bebf 1395 0123 bb7d d03f
00000450: 4e23 c9b0 6429 a2bf 95fc 61ef 9c25 d1bf
00000460: 130b 2364 bab2 b7bf 9970 d45d 5f82 b73f
00000470: 7892 10cf 00ce aa3f 2efd fec9 45a2 d13f
00000480: 47df 7400 5eae d03f a316 1d90 feac db3f
00000490: 9fc9 2db5 7da8 d6bf 3f24 04bb f66f b53f
000004a0: 2a72 d9fd e4ea 993f 22a0 da12 ac9c ac3f
000004b0: 8df8 cafb 635d a13f ece5 5486 2c83 c93f
000004c0: 973e 4403 d152 c5bf 6212 681f 2e08 a13f
000004d0: d323 9642 274c c53f 2255 7f66 eced d23f
000004e0: 2920 6b73 cc0c b43f 866c d44a 454a a4bf
000004f0: ad99 9162 62b2 c73f e4ab dc09 9793 c53f
00000500: ec43 27b6 0a22 a53f 4514 fe56 068f af3f
00000510: 7503 d905 e8b8 bc3f 08b1 1b3b 1b55 703f
00000520: d198 7beb ae36 c83f f77c 898a 1b83 d4bf
00000530: 7f5f 9d05 3dac 973f 10bf 76fe 3bb2 d0bf
00000540: caef ee11 3275 cbbf 8c74 29dc 59da c0bf
00000550: 1363 5b38 8a66 c2bf ec69 9bb9 50e4 c9bf
00000560: e0a7 a6ee 8ee5 cc3f 106f d919 2d5d c13f
00000570: 68af 3688 1af5 c73f a18f 4ce5 d5e6 dfbf
00000580: b2ff 6726 b259 ba3f 6271 a029 60d0 c83f
00000590: 735c b7f6 e8ad 983f 2db4 8c20 db67 cbbf
000005a0: 3fb1 9f86 ad3d bbbf f3dd 1723 c1ec c13f
000005b0: 14a9 41a9 a632 c4bf f811 d6c4 63dd c6bf
000005c0: 14ba 665d 9f50 d0bf 0e58 f7db ca14 dcbf
000005d0: 23d4 1168 c874 b6bf 27e5 e057 132f adbf
000005e0: 760f bf6d 7d46 d03f f260 bf4f fb9c c63f
000005f0: c1e8 8b19 8132 ba3f 6d8a 349c df4a bb3f
00000600: 19f4 c0a6 5cd4 b2bf 10a3 386d 57e2 b3bf
00000610: 3e34 ee3b 3384 b5bf 848c 255c 1307 be3f
00000620: b1b7 54e1 5b6d c73f 976c 87f4 430d c2bf
00000630: 9626 52e0 c346 bbbf 017c 3a0b 92c0 c43f
00000640: dfff 954c a7ac c33f d7f8 41bd 67c4 b33f
00000650: ce0f d15e 41c9 b63f 2cb8 2660 d1c8 b43f
00000660: 9619 cf8f 3dae 723f 9d09 1b1a 88b2 c6bf
00000670: 4122 6927 c0bb d2bf 4118 243a 2f68 c83f
00000680: 5685 900f 0f45 c1bf c603 e34f deb0 c0bf
00000690: 5d04 f5ec b9ea b13f d41c da36 69c1 e1bf
000006a0: f2b0 416f 822b ce3f 7c14 f277 0216 be3f
000006b0: 0fa2 ecb3 1e96 d53f e30b 1f2e e26f cc3f
000006c0: 27bd 59fe a55f b8bf 616a d295 98e3 c8bf
000006d0: c15a 2bfb 88f0 b53f f24b ef67 644a abbf
000006e0: 6b29 d8e6 e857 b0bf 533e 48c8 973d 88bf
000006f0: 5cb9 5709 e8c1 d9bf f2c6 0c50 caa4 c7bf
00000700: 8aa2 9bc5 de93 c93f cc73 fab3 6c30 c3bf
00000710: aead 8335 3daa cbbf 69eb 18e7 acc6 d63f
00000720: 18ff b3a7 b13a c0bf cc07 a687 2f6f b73f
00000730: ca90 a517 0a7e 6d3f d9f8 070e 983d 7a3f
00000740: 5c06 c230 b1d6 593f 1048 8f97 9628 9ebf
00000750: 930e ebbc 89b8 c33f 2429 9889 37b8 d13f
00000760: 38a8 981b a94d d1bf 4d64 16ba fae6 adbf
00000770: 7694 4273 f3ea ca3f a71f 3212 ed71 c03f
00000780: 92b3 2721 2eaf 85bf f257 9b19 de1e c8bf
00000790: 06ab d4e3 dca0 4b3f 9874 1599 732f b93f
000007a0: 4388 28cc fda0 c8bf 4f2b 21c2 2c51 d4bf
000007b0: d998 087c 8cb5 c4bf 0cdd 9139 20a9 ad3f
000007c0: 506d 8a43 b154 db3f 1424 ce24 f0e5 a1bf
000007d0: 2a45 e45b d749 c4bf 2bf4 49ab b161 b8bf
000007e0: 910f 1ab7 e22a c23f 2cec c325 6ec3 d8bf
000007f0: 14af 7fca 04dd cbbf a6cf 05d0 c87a b03f

V2 f8 [20, 30]
-1.121108858024683 -0.39911457768450176 -0.8442500903249046 -0.8789460546909731 -0.8002700768598805 -0.3186025794634442 -0.5554165613103733 0.3852618216020182
0.7532051482596784 -0.399109978062832 0.8135038748030489 0.5162888652811943 -0.5203210652377885 0.013928246789851008 0.3895672895872697 0.17883040691509652
0.5960702783810066 0.6367272679281547 -0.2700372411021578 0.48501460876946617 -0.5523959923166517 0.060809596773706585 0.9079852315990109 0.9163538287630819
0.0264133794104146 -0.3423080037218705 -0.6691991687937858 0.7810039571263194 -0.38850803386570426 0.609498029650265 -0.4202366439624278 0.586866721504794
-0.10995177506062266 -0.11983970563417903 0.3835013064802922 0.2022020372261769 0.08265779184693182 0.9140081103603469 -0.087998342234825 -0.24144655722445607
-0.44955908922941895 0.3914503287618111 1.056678634236936 0.1098623674719881 -0.4848364189345071 0.718157851392825 -0.7707562202167092 0.8580262091003824
-0.5524517989685473 0.1992607661999516 -0.49352177705578837 0.01598205370888 -0.03331848864976074 -0.7436472311364136 -0.5129309857553147 0.7168943137906971
0.35559826411096773 0.881439586695715 -0.7173075416397235 -1.0318462407442555 0.10543521083619142 0.8457279487103286 -0.5906559308119269 0.4403015316486729
-0.11206497214839096 0.958195414222034 0.5619667886894736 -0.6518921912218434 -0.08939380809940706 -0.26015219764731845 0.9284185755659125 -0.19334389493891185
-0.11261388863379641 -0.8085103696131651 0.1358025577359339 -0.24372723254548917 0.591595751467394 0.2955148222886792 -0.3149448780601105 -0.11642899923619385
0.21839022488693688 0.4246957002839399 -0.9488632972967496 0.823887578776615 0.8092879969160977 -0.551035747758201 0.018053449083492816 -0.47457769558926105
-0.7149388100269357 -0.7924408337590574 -0.0704690364772784 0.2849092687501497 -0.7556407256725683 -0.12762956816345375 0.06352946921975774 0.7750575502598633
-0.27119074806726823 -0.43229325975724014 0.20123317903313193 0.2380532923447979 -0.055535305494050696 0.27322968146461984 -0.8062373627957133 -0.2153584960009431
0.7755922620293474 -0.7743501116891598 -0.9325807175328173 -0.007410651614634741 -0.958297777982691 -1.0730446026075595 0.8630431133114463 0.4540124809391654
0.9957325723999028 -0.29325221398313145 -0.4576620245021389 0.7214242107665192 1.1095867567142634 -0.3533307536990387 0.21236940241456986 0.5870873319524772
-0.9166033116330958 0.12258603743020909 -0.13166099944676848 0.4085243535015778 0.5404522694493679 0.7678326468338939 0.00660448852101032 -0.10686322206382531
0.9521086391844441 0.8332593058512034 0.7389706523912736 -0.36820460775975344 -0.23893035524870182 0.3543700893819319 -1.0167698611806615 -0.5333528844875044
0.152270171567738 -1.0176817470786939 -0.26813439631036895 0.48200057269463503 -0.8551088913861298 -0.35873558831045366 0.6553555388509137 -0.9021334436506881
0.4097762278349655 -0.7633405714615457 0.2933304117574984 0.4436418961933271 0.49117829228748394 -0.3075989434998725 -0.3918354077830545 0.17665196717490553
0.766368295104345 0.8462113980116515 -0.5025672928969483 0.8970793448797678 -0.680951278146501 -0.34274845598820075 -0.44454590876108513 0.5066339507687396
-0.7633440258562838 -0.3537896564416183 -0.9708359682461222 0.28875144110511175 0.11879791871565773 -0.27955253954858067 0.23424317736410472 0.7173852750247094
0.8705873370285836 0.6179951939307315 -0.6434792790286936 -0.3593733649377425 -0.2542229218692815 0.37781758350922423 -0.6383472958184843 0.5025685187233061
0.09464376347971284 -0.6088795963128636 -0.30694854160802026 0.249870954301928 -0.08486866845574029 -0.6117677776461846 0.9771183360761349 0.5283901662939618
0.6799571852622742 -0.8087694222146296 0.052649811476724054 0.054051617439864294 0.792082810094845 -0.4680087448533687 0.3246726849240538 -0.023356160632262365
-0.7606604295398236 0.29515900442701554 0.22801786830370405 -0.9008288252529882 -0.1956799551287617 -0.7674942865758079 0.41865355155772876 -0.6133990365574901
-0.42835332823953326 0.7709151133163333 -0.4646321322959875 0.9421483124956366 0.49375730491566955 0.835173928763954 0.15636327519330673 0.5434004718230845
-0.687497860424774 -0.466361165830651 -0.6474779402608584 -0.6614324731956213 -0.4185149833060817 1.0919678643225148 0.27987601074031443 -0.4143847397148789
1.131679450833402 -0.799372881767249 -0.6708468373449263 0.5897328210637484 -1.0958658965506551 0.39263618955396784 0.7378257974686886 -0.766539613098553
0.786804986171476 0.13099535379250773 0.3692029360416375 -0.4172081809407533 -0.24744942832625552 -0.0679573227305526 -0.7236833909400532 -0.29155350246961503
0.9604206424191299 0.08648526709658531 0.5968313236985094 -0.3204919610418848 -0.503550337078352 0.1835815535539926 -0.46468436004073527 0.44542333783403076
1.1243485626612932 0.11717707277403804 1.0653669553274565 0.07041838514290175 -0.24244130783231937 -0.30931130780947697 -0.7753526998164292 0.20682201607442502
-0.6616927802145152 0.7318280852866735 0.8826962616118385 1.2478415725326928 0.27136437587717793 -0.7125568576486045 0.09267476984445198 0.009046506486286224
00000000: fd8c 87d7 0ff0 f1bf 1cc1 a0de 178b d9bf
00000010: 78e5 f2c3 1804 ebbf 1412 fb79 5320 ecbf
00000020: 3894 02fe cf9b e9bf f9de cd12 fc63 d4bf
00000030: bf83 cff3 f8c5 e1bf 3f65 0b33 21a8 d83f
00000040: 6688 deae 411a e83f 8460 d293 048b d9bf
00000050: 1359 2e47 3908 ea3f 667e f539 7085 e03f
00000060: c8b7 d35c 78a6 e0bf a7cc 9fa3 6986 8c3f
00000070: 8898 17a4 abee d83f f787 9d2e eae3 c63f
00000080: 0273 f8f9 0113 e33f 9f21 07dd 1160 e43f
00000090: eb17 cf47 4a48 d1bf 5bd0 afb6 7a0a df3f
000000a0: a820 2e5c 3aad e1bf e31e da7a 6f22 af3f
000000b0: e6ff 5e0b 370e ed3f 1e42 c343 c552 ed3f
000000c0: ae70 fae2 1b0c 9b3f 293f 49d4 5fe8 d5bf
000000d0: a759 0f60 146a e5bf 9eee bc02 fcfd e83f
000000e0: f7ee ebcc 50dd d8bf e260 0a03 0281 e33f
000000f0: 2790 993c 28e5 dabf 9e29 ffb7 9cc7 e23f
00000100: 0dc4 05ae cc25 bcbf 6a08 76a0 d0ad bebf
00000110: 9997 5310 498b d83f ac16 89a0 c1e1 c93f
00000120: 63fd bda0 0f29 b53f abd8 c8ef 8d3f ed3f
00000130: b433 0032 0f87 b6bf ec62 8185 b8e7 cebf
00000140: 9b08 777c 93c5 dcbf 5a96 02ae 850d d93f
00000150: 96df 06db 27e8 f03f 6273 5aab f01f bc3f
00000160: 0ff1 ce54 8f07 dfbf 4521 a32c 26fb e63f
00000170: 6f9e e0f2 08aa e8bf d34d 6661 f374 eb3f
00000180: fcf5 2565 afad e1bf 6c33 1a75 6081 c93f
00000190: e660 145d dc95 dfbf ce9d 0278 995d 903f
000001a0: 52ab 34f6 1e0f a1bf 3bbd 2f47 f5cb e7bf
000001b0: 6192 1d3e ee69 e0bf c66b 0d58 ccf0 e63f
000001c0: 16be b738 1fc2 d63f 5440 c8ca c034 ec3f
000001d0: 6389 10f2 2ef4 e6bf 34f4 2734 7182 f0bf
000001e0: 1668 634e cdfd ba3f d4c4 200f 3410 eb3f
000001f0: 3fd2 4044 a7e6 e2bf 18d3 b379 e62d dc3f
00000200: a98c 673e 4ab0 bcbf 8d58 e86d 89a9 ee3f
00000210: 7780 5bc6 a1fb e13f 5c19 3a03 4ddc e4bf
00000220: 7479 403a 83e2 b6bf 3c2d 3867 55a6 d0bf
00000230: 74be 61df 9ab5 ed3f de6a d224 7ebf c8bf
00000240: 41ee c188 43d4 bcbf b1e4 7e23 51df e9bf
00000250: c130 186c fa61 c13f 1ab7 7636 7432 cfbf
00000260: f828 a036 5aee e23f e8a3 4d00 b7e9 d23f
00000270: 80e5 d38f 0e28 d4bf a684 0678 4ace bdbf
00000280: bee6 d3fc 35f4 cb3f 6e2a dedf 362e db3f
00000290: db74 c88f 165d eebf 4fa3 cd7b 495d ea3f
000002a0: 8199 f9f0 afe5 e93f 518c 71b8 15a2 e1bf
000002b0: 9e0c 9375 9a7c 923f 03e2 7d20 7b5f debf
000002c0: 7b9e f65a c7e0 e6bf f052 20e1 ac5b e9bf
000002d0: 4ef0 0c3f 420a b2bf 9bfc e615 f43b d23f
000002e0: ac42 8975 352e e8bf 9ddf a16a 2a56 c0bf
000002f0: a68f a1a0 7743 b03f a449 dc7d 45cd e83f
00000300: ed4e 7b70 305b d1bf af11 3c59 b1aa dbbf
00000310: 0aa1 6841 02c2 c93f 7dbb a9c0 8778 ce3f
00000320: 2c9a bda1 1f6f acbf 75f8 8b58 987c d13f
00000330: 04ab 404c b2cc e9bf aeb1 9e00 de90 cbbf
00000340: 724b 0edd a6d1 e83f 047c abe2 79c7 e8bf
00000350: 94e0 5584 b3d7 edbf 9601 3ba5 a15a 7ebf
00000360: eb7b 081a 60aa eebf 9f94 35d1 302b f1bf
00000370: edbd 5697 0c9e eb3f af02 675d 8a0e dd3f
00000380: 07a0 408e 0add ef3f 8f60 22ef a4c4 d2bf
00000390: cee6 f6a8 554a ddbf 2c1d f939 e815 e73f
000003a0: 7a99 020b dec0 f13f ddbc f397 f89c d6bf
000003b0: 7e54 05ab eb2e cb3f 9637 545f 6bc9 e23f
000003c0: 7ad2 db77 d054 edbf b57f b56d cc61 bf3f
000003d0: 6d2a 6483 44da c0bf 1a2a 7a54 4325 da3f
000003e0: 40b0 ca8e 624b e13f 747c 5ec5 1592 e83f
000003f0: ccd2 45e3 4e0d 7b3f e4c8 e85b 635b bbbf
00000400: f928 7189 ac77 ee3f 9cfe 766b 0faa ea3f
00000410: 802d 17c8 a5a5 e73f 3523 240f aa90 d7bf
00000420: 8e4c e816 4595 cebf 17dd 24e2 ffad d63f
00000430: 3a45 5579 b044 f0bf 303c 8311 3a11 e1bf
00000440: 5316 85c7 967d c33f b106 d7a7 6c48 f0bf
00000450: ba7c c52b 1d29 d1bf 501c 18ee 18d9 de3f
00000460: 38b6 6052 0d5d ebbf 1b1a ed1c 86f5 d6bf
00000470: 8bbf d32d acf8 e43f 2b71 a3f4 46de ecbf
00000480: d8ae 4e12 c639 da3f ad64 c434 496d e8bf
00000490: 40ec 5aeb ecc5 d23f 014a d2fa a064 dc3f
000004a0: d54f 7813 776f df3f 406e a77a b3af d3bf
000004b0: 6af4 75d1 d413 d9bf 0d28 e51a 889c c63f
000004c0: 1543 85cd 1686 e83f a8cc feec 2914 eb3f
000004d0: 3f03 e100 0815 e0bf 669f 05be dfb4 ec3f
000004e0: 3ae0 b955 5aca e5bf 0753 4e38 97ef d5bf
000004f0: f6c3 ecae 7073 dcbf 540a 3367 5836 e03f
00000500: 7cca 5473 506d e8bf e01b 055f 7da4 d6bf
00000510: 0db9 ac97 1611 efbf 6c09 0e53 e77a d23f
00000520: 2a74 b757 8a69 be3f 5ffe b755 30e4 d1bf
00000530: b883 0b31 aefb cd3f 749e dbf6 d1f4 e63f
00000540: 132f 9bf9 d9db eb3f c090 60db 9dc6 e33f
00000550: e89e 62db 6197 e4bf 4a82 5d24 f9ff d6bf
00000560: bc9d d437 3045 d0bf cea7 41cd 292e d83f
00000570: 43f9 e04e 576d e4bf ef4d fd92 0a15 e03f
00000580: 026d eadc 923a b83f 9db1 2b10 f17b e3bf
00000590: d5b9 f07e 0ba5 d3bf 493a 797c c5fb cf3f
000005a0: e2f3 78fb f3b9 b5bf 3395 b704 9a93 e3bf
000005b0: 209b 38ac 8d44 ef3f 9256 787e 92e8 e03f
000005c0: bb36 2c92 35c2 e53f 3255 4d69 70e1 e9bf
000005d0: aabe dd84 eaf4 aa3f 2e76 6652 a7ac ab3f
000005e0: af98 a20c be58 e93f 53c8 58f3 daf3 ddbf
000005f0: 0dd0 e9f0 6fc7 d43f 8f81 4d68 adea 97bf
00000600: ee83 878a 5457 e8bf a792 c897 e2e3 d23f
00000610: 434f a283 b02f cd3f 8f2e f8f8 96d3 ecbf
00000620: 3561 e16f 0a0c c9bf e2b7 962d 508f e8bf
00000630: 48dc 1244 38cb da3f cb31 2d04 f7a0 e3bf
00000640: a7fa fa13 246a dbbf f5f1 f52b 56ab e83f
00000650: e172 3869 88bc ddbf a5cf c437 1426 ee3f
00000660: 9787 313d b899 df3f a16a d0ac beb9 ea3f
00000670: f416 a038 b603 c43f 468e e362 8963 e13f
00000680: 2305 5383 fbff e5bf 387e d780 dcd8 ddbf
00000690: 94a8 49a8 23b8 e4bf 2367 1c6f 742a e5bf
000006a0: fce0 8b11 f3c8 dabf 4ac5 984b b378 f13f
000006b0: 5422 4412 7de9 d13f 325c 4292 4785 dabf
000006c0: bd27 6ee9 5b1b f23f ccfc 0f70 7694 e9bf
000006d0: 0cb0 60c9 9377 e5bf 8117 7b5d 17df e23f
000006e0: ddc9 a7ad aa88 f1bf f40f 578a f320 d93f
000006f0: 8abd c8d8 449c e73f cf18 2b15 7e87 e8bf
00000700: 87f5 7da6 812d e93f 21bf 3bac 74c4 c03f
00000710: 6fb4 f859 05a1 d73f 6ce8 30f1 89b3 dabf
00000720: f59e 0941 6cac cfbf d4c4 a6ae a665 b1bf
00000730: 81de 1712 6a28 e7bf 450a 8905 d0a8 d2bf
00000740: bcfd 3212 c4bb ee3f 3702 c401 e623 b63f
00000750: 7e6e 1001 3e19 e33f 4092 d3b6 f082 d4bf
00000760: 8385 b498 151d e0bf 0fe6 54b0 997f c73f
00000770: 039c 5578 63bd ddbf 1ed4 37e3 d081 dc3f
00000780: 31f5 1eeb 54fd f13f 33cf 670f 51ff bd3f
00000790: a5ed 7538 be0b f13f 46d4 3975 f006 b23f
000007a0: 8a6d 2b18 5108 cfbf c5c7 d4a7 c1cb d3bf
000007b0: b575 1277 b0cf e8bf daf3 90d1 2479 ca3f
000007c0: 3ca9 6056 962c e5bf cd37 93bb 226b e73f
000007d0: eb93 fd3a 0c3f ec3f c1df 89b9 28f7 f33f
000007e0: 9748 ecaf 085e d13f 6685 040a 44cd e6bf
000007f0: 8770 a5a1 88b9 b73f b561 038c f986 823f

V3 f8 [15, 20]
-0.2125006539275499 -0.2489554060450183 -0.22531680100007506 -0.21620011247079116 -0.20816729397367914 -0.19920566706171264 -0.256035896815372 -0.17246720538452723
-0.2236497932267536 -0.21821224838928807 -0.22348182552053636 -0.24195954636500738 -0.20700599359457605 -0.2208351304316772 -0.2731213250164791 -0.21245532672421735
-0.2023697074967044 -0.23751801219771018 -0.2128209327861613 -0.23853954156627338 -0.39808134325836525 -0.23032060546102207 0.01943944976647727 0.07826116789523772
0.3302918779927966 -0.17197139068953304 0.14422882635038609 0.05701377979722215 0.09997111804487875 0.16907584915751125 -0.24850088023512298 0.18493723791593084
-0.26152653570728135 0.34824521660066154 0.23202787387655152 0.28592943330385723 -0.23728481956252442 -0.18055069323554035 -0.26285771099108357 -0.03828791930385263
0.06674585164081301 -0.1861399996525406 0.2000851859266316 -0.22269935267119204 0.19914433296010245 -0.05362825676996692 -0.20543403126425522 -0.48037318028387377
-0.20888762507642916 -0.02964642708025948 -0.1184123592478023 -0.17851101141496245 0.019372368250087858 0.2877389455171941 0.26850563043108744 -0.202368386963406
-0.1316683314025922 0.38914618367279785 0.1570508307913619 0.275168509977147 -0.13072416320419383 -0.014501156641843382 0.0022095804681045318 0.403648083164426
0.29274006425789295 -0.05842053135643603 0.06861037953548692 -0.5213441062879999 0.2612761830421258 -0.15902108735026793 0.2490348527707901 0.04428310460743882
-0.039735339855601674 -0.2565765855123709 -0.2273300103293869 0.09060007868132118 -0.04011103750908877 0.30448983628721576 -0.08297140582683096 -0.26097936076050937
-0.048674405951609184 0.1267406783530223 0.3382575916591016 -0.23603827371259914 0.2678651209284595 -0.3559796461321126 -0.3016437403292502 -0.09219022763254239
0.3214300082074585 -0.019206616208326775 -0.003799649075367283 0.016046036193881764 0.29821373765190506 -0.10515920350136444 0.1102952595835997 -0.047929432217039145
0.20384619223788658 -0.4362380020371511 0.17698469610118064 -0.17855937902994637 0.1797819179881746 -0.08295225757954997 -0.1354693726997313 0.5186034248582668
0.1412124678968815 -0.13682343427980603 -0.08267192631693719 0.033293917538734986 0.06890269695951397 0.00543889580979845 0.0427548007350416 -0.21803398274967098
-0.38632912340958697 0.23329357405402018 -0.03647496603342828 -0.38978118384132476 0.2421809594079954 -0.29560770039240236 0.2073478811835518 0.1636541202592052
0.07479552460260239 -0.3251180299429095 -0.13170200457981437 0.2528037251156811 0.09875991016891841 0.044853997907904106 -0.6749940629398276 0.21135137247811833
0.02934843082828475 0.19362500207233027 -0.14669750999797862 0.13876088788540494 0.2615374729867754 -0.08653024847988074 -0.1455452016407467 0.17942239771355267
0.08545654951980435 0.18314279991255855 -0.15360272847088036 0.15022386411602495 -0.10144251005427043 0.31756348179793603 0.03558511089868828 0.1585565812762362
0.1613563503343482 -0.03732005183706905 -0.007594435800627869 -0.09128742809885562 -0.41316644264002544 0.1023224861596199 -0.12621165629280934 -0.4592648845532447
0.08793936074618613 0.007092506826334121 -0.24119372833230307 0.5292897257590282 0.009222746457674656 -0.1480646691657514 0.19519361771343094 0.11132026222009186
-0.23088273737637158 -0.1655701490961997 -0.4223108315614944 -0.12070749546876451 0.026107481136136087 -0.007979893385128127 0.27355470281057115 -0.30817415516869295
0.047228492556425784 0.2721708427330321 -0.1352236045791389 0.23284572859211003 0.18180914419916347 -0.25872791811864027 -0.07752857247616181 -0.0727674943774044
0.1875048325352677 -0.16277027636499186 0.24396751889079574 0.41776939379932526 0.0991023745907093 0.11638697021544661 0.12501122099900502 -0.09904459718584435
0.012795628298077389 0.37091609581929347 -0.1772590723184763 -0.16689605291494952 0.15799759699583035 0.2130045106302756 0.09016810981908076 0.23515573849407867
-0.08880133912353143 0.24125667130588455 -0.46734487890236764 -0.06827284393845509 -0.48464112565423306 -0.254438147622496 0.17153605658895105 0.047028153282656235
0.3810841748733586 0.23980897663449302 -0.33805411778099703 0.11921129335968794 0.285565150033667 -0.056005407435843854 0.06555255220924107 0.05370599826698349
-0.04413156411836952 0.13337953043751077 -0.37683884653320876 0.025261279620998407 0.14108210784809067 -0.20653255629868358 0.24258691171146535 -0.169431851096277
-0.40912583949082115 0.030352318070664408 0.11557568860279502 -0.2876583693162834 0.055184370670340196 0.41107595782661566 -0.18556211646675216 -0.20602205066497167
0.2470637801021935 0.2528354971884942 -0.23369167249883183 -0.14902131943305383 0.02098279050478525 0.08330993429857092 0.15690248897347397 -0.050048331137369784
-0.30530555964118977 -0.18620603636367153 0.2203565515031806 -0.0015008767415850565 0.146349636400317 -0.11148352060593561 -0.4968795970575201 0.2400495708773851
-0.010594670270528997 0.09257597278725689 0.10494378663770687 -0.2314838983198603 0.4343782299509491 0.04642195985877415 0.15535221349542536 0.28797414683991945
0.11471928343630686 -0.301938742957989 -0.40857035083208165 0.03159085724594055 -0.12530500827944632 -0.018130979849609954 -0.4563038945870025 -0.1418324445124143
00000000: 24ac 7faf 3833 cbbf b818 904f c5dd cfbf
00000010: d26f c451 2ed7 ccbf 930e 3afe 71ac cbbf
00000020: cf5c dbd3 39a5 cabf 219d 9a40 927f c9bf
00000030: b023 db62 e462 d0bf dd28 61c7 6713 c6bf
00000040: c041 d571 8ea0 ccbf 5f95 3503 61ee cbbf
00000050: ee37 ee6d 0d9b ccbf acdd 4bc9 87f8 cebf
00000060: c047 4822 2c7f cabf 8387 8157 5344 ccbf
00000070: 3e4d b2dd d17a d1bf f21c 1274 bc31 cbbf
00000080: 9220 b325 40e7 c9bf e4cf 4c7f fd66 cebf
00000090: 6b42 1c61 b73d cbbf ae3c eab4 7688 cebf
000000a0: c150 9c2b 2a7a d9bf b066 0646 257b cdbf
000000b0: a13c ff63 efe7 933f c724 a884 ec08 b43f
000000c0: 5043 878b 8023 d53f b8f9 6d95 2803 c6bf
000000d0: 165e 2816 1776 c23f 2603 4dff e830 ad3f
000000e0: 7d1c 8c0a b597 b93f 6f64 5605 47a4 c53f
000000f0: 618b d178 e0ce cfbf d7ab 54fe 05ac c73f
00000100: 6488 79cb d9bc d0bf 2473 124e a649 d63f
00000110: afb4 07e1 16b3 cd3f 923f 40f7 aa4c d23f
00000120: e3dc ed55 595f cebf 42bf 5bfd 481c c7bf
00000130: e651 0d26 a9d2 d0bf cade 7b62 799a a3bf
00000140: bee2 f091 4116 b13f 3118 7e7d 6fd3 c7bf
00000150: f406 fc30 649c c93f f914 4892 6981 ccbf
00000160: fba9 9fbe 8f7d c93f 0adf efb1 2975 abbf
00000170: 35f9 e18e a94b cabf c876 cc26 6fbe debf
00000180: 1206 1f67 d4bc cabf cb08 030b a25b 9ebf
00000190: fc58 69ba 4550 bebf 1a67 00e6 72d9 c6bf
000001a0: ed1e 52a0 59d6 933f 3b0a 329c 506a d23f
000001b0: 9693 5f3d 322f d13f dd44 e011 35e7 c9bf
000001c0: ca81 a504 82da c0bf 5c39 0f65 c5e7 d83f
000001d0: e27d 07db 3d1a c43f d76a cf61 5c9c d13f
000001e0: 3a26 e1c2 91bb c0bf 8643 3f4c c8b2 8dbf
000001f0: 6401 267b d319 623f f031 12c5 5ed5 d93f
00000200: 97dc 8dd2 40bc d23f f681 2ebf 4be9 adbf
00000210: 7364 4528 7390 b13f 9104 cfd5 d9ae e0bf
00000220: ddef 58bd bfb8 d03f ee99 c590 cd5a c4bf
00000230: e57b 1bc2 5fe0 cf3f c5cc 1b6c 46ac a63f
00000240: f7ba 59c2 3058 a4bf 8f7a ec32 c06b d0bf
00000250: afcc e157 2619 cdbf 7b88 f316 9131 b73f
00000260: 06ce 9e14 6f89 a4bf e159 34f0 c27c d33f
00000270: a285 8732 9d3d b5bf 916e d9c6 e2b3 d0bf
00000280: 6cc4 6d0b daeb a8bf d9ae 4cde 0939 c03f
00000290: 0d2c 732b 03a6 d53f a596 198d 8036 cebf
000002a0: cc1d 88bf b324 d13f fd75 8bda 5ec8 d6bf
000002b0: b776 f08b 214e d3bf f24b b15c c799 b7bf
000002c0: 160f 4d2b 4f92 d43f 2625 ed31 e6aa 93bf
000002d0: 7eb5 7a10 7120 6fbf da8c bb42 5f6e 903f
000002e0: eab3 9b12 ef15 d33f b169 e9ab b6eb babf
000002f0: 7cbd d064 4f3c bc3f 1eac c6df 348a a8bf
00000300: 84b5 89cc a117 ca3f 8d67 01cc 52eb dbbf
00000310: 2dd3 d23c 6fa7 c63f adf1 a9a2 08db c6bf
00000320: 42ef 1509 1803 c73f 2afc 6ef1 5b3c b5bf
00000330: 0670 ad76 0f57 c1bf e383 ab35 6698 e03f
00000340: 7dc8 b309 4013 c23f 3072 c727 6e83 c1bf
00000350: f71c d4c3 fc29 b5bf dd1b f87d e60b a13f
00000360: 951c 0c6e 9ba3 b13f 402b 127a 1847 763f
00000370: 25d9 ce0d f5e3 a53f 9bc9 a99c 89e8 cbbf
00000380: 6956 a2c9 9db9 d8bf 84e8 7657 90dc cd3f
00000390: 63fa 78c4 d8ac a2bf 3475 4cc7 2cf2 d8bf
000003a0: ea84 2f22 c9ff ce3f 8264 688f 3ceb d2bf
000003b0: 0e04 4a18 608a ca3f 5739 2f43 9ef2 c43f
000003c0: ce2a 0eac cc25 b33f b476 7cda bbce d4bf
000003d0: fb74 3e7d 9cdb c0bf db71 ebac ef2d d03f
000003e0: cad6 5458 5448 b93f 3ef6 376c 1af7 a63f
000003f0: 6143 2a26 8d99 e5bf c50d 61d0 8f0d cb3f
00000400: ffb6 62da 830d 9e3f f156 cb3d b4c8 c83f
00000410: 2148 ece7 fbc6 c2bf 2743 b7b1 eac2 c13f
00000420: 1b07 4aab 07bd d03f b5f9 55ab d826 b6bf
00000430: 7480 91a4 39a1 c2bf 26c0 2c29 50f7 c63f
00000440: f3a3 6afd 7ae0 b53f e0a7 0f28 3971 c73f
00000450: 22ed ad13 41a9 c3bf 7081 ba1b 893a c33f
00000460: 4274 1be7 22f8 b9bf 3877 2ec8 f552 d43f
00000470: ca9c 112f 3638 a23f e9d0 9201 954b c43f
00000480: 8e0e d82b 53a7 c43f f91e 4024 9d1b a3bf
00000490: d304 53d6 571b 7fbf 1275 38e6 9c5e b7bf
000004a0: 7063 bca9 5171 dabf 6f73 b373 ce31 ba3f
000004b0: ea67 131c b427 c0bf abdf d68a 9864 ddbf
000004c0: b89e 6fa6 3183 b63f 0c29 da4d 080d 7d3f
000004d0: a601 98a3 6fdf cebf 7fcd c701 f1ef e03f
000004e0: 12f2 5113 60e3 823f 6e46 e177 c8f3 c2bf
000004f0: 55ca 3bbe 1afc c83f 7a10 9e15 7c7f bc3f
00000500: 5909 1fc7 908d cdbf 53f0 c713 6731 c5bf
00000510: 5a67 9302 2407 dbbf 1ba0 6bb9 afe6 bebf
00000520: 2f7f a466 ebbb 9a3f a9e3 ea28 c357 80bf
00000530: fc41 8f95 eb81 d13f 7c01 7b17 20b9 d3bf
00000540: ad3e f03d 552e a83f f5a3 1d41 3f6b d13f
00000550: 0a46 a8cf 014f c1bf f37f a88a e3cd cd3f
00000560: eb7d 39a4 8545 c73f 326e b88a ff8e d0bf
00000570: 0d6a 4a9b e9d8 b3bf b214 90f8 e3a0 b2bf
00000580: f75b ca89 2800 c83f 90cf df0a a8d5 c4bf
00000590: a10b 76e1 533a cf3f 7dd2 e8d6 bbbc da3f
000005a0: 9bb2 d2f1 c55e b93f a680 c156 89cb bd3f
000005b0: ce70 e920 5e00 c03f d839 c299 fc5a b9bf
000005c0: 5a7c 9328 9834 8a3f c5a5 46dd 16bd d73f
000005d0: cd79 43df 6cb0 c6bf eaf3 8c90 d95c c5bf
000005e0: 7bca f8e7 4339 c43f c05c 8757 bb43 cb3f
000005f0: a1a9 d0da 4115 b73f f43e 264f 9519 ce3f
00000600: 1367 603f afbb b6bf 1fad 99a4 7fe1 ce3f
00000610: 12ae b57e fae8 ddbf e6aa eb3f 547a b1bf
00000620: d7d1 3e36 5c04 dfbf 212e b9f0 b648 d0bf
00000630: 6232 91bc e4f4 c53f a639 aef8 1214 a83f
00000640: 8bab 06e1 ae63 d83f 1658 f77f 0fb2 ce3f
00000650: e070 09bd ada2 d5bf 5831 4b9e a184 be3f
00000660: 5a67 110d b346 d23f e615 aca2 bdac acbf
00000670: 3174 e853 0dc8 b03f 6bbb 4f44 5a7f ab3f
00000680: c42d 3891 6998 a6bf 4aac 9798 9412 c13f
00000690: 5a3d 6eae 201e d8bf 9527 4fc7 17de 993f
000006a0: ca0f a17f fa0e c23f 1b5a 6ea7 a86f cabf
000006b0: 5683 1e82 160d cf3f f4fb ad61 f1af c5bf
000006c0: 9ef1 2325 1e2f dabf c09a e295 ad14 9f3f
000006d0: c2fd c24a 5e96 bd3f 8a95 28a6 fe68 d2bf
000006e0: 6e14 8f36 2041 ac3f 5061 c288 114f da3f
000006f0: 8df5 ccda 7fc0 c7bf 3f32 ee38 ee5e cabf
00000700: c653 c833 c99f cf3f a251 ecef 742e d03f
00000710: 7871 5dd5 9be9 cdbf 0795 af6e 2113 c3bf
00000720: 02cc fc3b 837c 953f 8888 3ec3 cc53 b53f
00000730: 46aa 6679 6115 c43f b8a4 e852 ef9f a9bf
00000740: 6c89 7c54 208a d3bf 01f8 3f72 99d5 c7bf
00000750: 1d2f 15bb a434 cc3f 05ce 4e21 2297 58bf
00000760: 1a78 0fbb 95bb c23f aaa1 0b1b 2f8a bcbf
00000770: 6759 da14 e0cc dfbf 7829 2bc0 f1b9 ce3f
00000780: d531 9792 a8b2 85bf 7543 8417 0fb3 b73f
00000790: 9800 8793 98dd ba3f 45cd 6aae 43a1 cdbf
000007a0: d8f4 ee58 dacc db3f ecbe d17e 9ec4 a73f
000007b0: db7a 29d2 94e2 c33f 5757 b11d 2b6e d23f
000007c0: 9e59 9432 3e5e bd3f 2d98 99e0 f652 d3bf
000007d0: 2f19 bc41 0426 dabf 8da5 7245 ad2c a03f
000007e0: dbe8 4a98 fe09 c0bf 5779 fe75 ed90 92bf
000007f0: 8a78 1240 1534 ddbf 9da5 58c7 9027 c2bf
