Fuentes/model_rdim.npz (npz, 23362 bytes, 3 tensors)

V1 f8 [35, 41]
0.29609714513246416 -0.2225842873547767 0.6674290797997136 0.25111973009928396 0.25441266988546873 -0.07617586256900212 0.6365901850941175 0.529595595301117
-0.012240947541897917 0.5063790740799357 0.9582459198654951 0.1336371299890362 0.045594055665534254 0.4505582273215503 0.22891053700671848 -0.3547095580106784
-0.339483692949095 -0.1238132372352894 -0.4135602626252919 0.07398951680593546 -0.2122965179232391 -0.43737038038423925 0.22398643299295273 -0.39489375628338974
-0.268257864036547 -0.11105607854326979 0.21859009206333505 0.21303168528412478 0.07804119928893638 0.09945742328399387 0.07340785209839676 -0.025710581563052618
-0.10861985552683612 0.19643024674433113 -0.2241348406448832 -0.20512000331143754 -0.35981306497566 0.18933717554592164 0.30115253876497466 0.22871528754390968
-0.46422563529278793 -0.27882155797920455 -0.4488298313497344 -0.14651153201816827 0.00638315560200969 0.24780021613661807 0.24272959838698344 0.30723860944806286
-0.195910156586827 -0.25873409186879687 0.468829135114424 0.4943715521430151 0.45654218704368255 0.14329875574146583 -0.6051406786926751 -1.036260931086919
0.016543464889512503 0.20624605676644928 -0.15147782357463413 -1.0287853449259252 -0.13807968892677422 0.25449846811043286 -0.08076413805135259 -1.075727865193868
0.8062368412593603 0.22740897862824128 0.22523761775287007 -0.10598448847195516 0.03795496519823767 -0.45466626980213765 -0.27581607965900656 -0.12403399511961208
0.5999131730060604 -0.8220751968392465 0.44648764309787525 -0.1667140343815028 0.20590343593688112 0.22388070751068107 -0.1685789282428163 -0.08443214583599867
0.07972695643501583 0.012655605436038086 -0.5485150756258281 0.12568835340504575 -0.25393753860848656 0.41118213694545686 -0.49364037321884774 0.07939680404835639
-0.30208414890919527 -0.3783147879953198 -0.06772003727397422 -0.35154891558145956 -0.06878879829671501 -0.04259807504734458 -0.06308845712898441 0.5314720962674976
0.8540648678789524 -0.3680740481155619 0.8044093428481661 0.348841677469869 -0.39675790743589184 -0.26298391193850135 -0.14632448846445345 -0.49645186295111204
0.3273628488474647 -0.45107183089155334 -0.3251114767300666 -0.05099576713944912 0.17771618203311634 0.06752410736533382 0.23176835515801142 0.1426104884150351
-0.4249706995053756 0.10608736437816038 -0.2914521830091754 0.612857203875163 -0.05878276180953099 -0.5125451858594879 0.2828333068071517 0.2518320964823051
-0.01204733096002732 -0.02030052761423152 0.19257399440778478 -0.6342407340460567 0.19576492549903188 -0.10605094989622275 -0.47295430286460094 -0.23912628592220242
-0.16452491817957896 -0.12038953297440322 0.35997857800813315 0.2553263196988914 -0.16744212902017785 -1.9300488129905045 0.46819631588571364 -0.18933757954456318
-2.7214955004833112 -3.1485125190007763 0.011202794526981398 0.18753841284370262 0.11299751232122407 -2.0509691371778103 0.25243391367770707 -0.20117311917487288
-4.167746723159277 -0.007559643911442921 0.43883016180864376 0.34719838753242505 0.3622749508957706 0.32430833582941754 0.35829004699295613 -0.09269023657988301
0.19657277810962667 0.31774345019561545 -0.01594988811470123 0.1260492642404371 -0.3790817941598223 0.039571411522808624 0.07632740621412544 -0.2266784267202404
-0.4860319220922973 -0.2764776300181703 -0.10849442498055006 -0.7764769489872474 -0.08637972761166737 -0.10169177373964583 -0.06645899157159446 0.09163129867414666
-0.15789632427065478 -0.12037599536342115 0.09816676130641853 0.26784142673207095 0.2596666201034471 0.41906414845416284 -0.70067363028063 0.009064262820349715
0.36738987607203794 0.21730965597665974 0.34377161805641154 0.3084191003629662 -0.49758331554641966 -1.2289537916547724 -0.05846729789412587 -0.262777042968333
-0.02758287596158593 -1.802027012667695 -0.06462462743861709 0.2746374163163643 0.10688370177162677 -0.1620983928997896 -0.3558960140318328 0.04099253878103674
-0.6307014733310615 -0.185843201151708 0.026818188051486405 0.4838811150875528 0.5935426754489608 0.3677273465798301 -0.1433583664024781 -0.07369267843094311
0.26816757969963356 0.3515849867469066 -0.3991846441754883 0.6098701155988101 0.24283105381212702 0.4226023616498941 0.12250368765256495 -0.02667456892087892
0.23092806917377826 0.017947572997882095 -0.543122309034189 -0.21530947434224273 -0.44429587059156084 -0.23711191969223644 0.00970130719793015 0.2978135728489709
-0.06753721604771937 -0.1737133997850666 -0.37786842629968975 0.229436128300712 0.09912367373972344 -0.4263271921223876 0.16203405483434888 0.13255905105490562
-0.09198972663729493 -0.17415965881277828 -0.8204791072228601 -0.1576630256885711 0.24775888757964915 -0.6204897318964847 -0.619132304170769 -0.1320468782550859
-0.5231409239598379 -0.3423092610123363 0.01891717933066898 -0.007479295842244441 0.007544567520997568 -0.2225146226189958 0.22573971387348118 0.07330666393856304
0.13181508271920564 0.095645480105976 -1.0753081713663986 -0.48994507840867996 -1.2154513850080522 0.1237614980136921 0.38056222660851646 -0.07576196148777137
-0.12956793209791645 -0.4996600982945163 -0.10490377224380089 0.47881916894720083 -0.062340696460041506 -0.1373463911956242 0.1819624161611793 0.181048379419278
00000000: 051b b270 41f3 d23f de67 6555 a47d ccbf
00000010: de73 c43a 945b e53f 8b08 0a7d 5812 d03f
00000020: 0827 3614 4c48 d03f 017c 7ae6 4280 b3bf
00000030: dde1 3d61 f25e e43f fd90 3d76 72f2 e03f
00000040: a080 ea2a c811 89bf aeaa 51e3 4134 e03f
00000050: ac20 eb58 f3a9 ee3f 70c7 6a7f 051b c13f
00000060: 3771 f3a3 1a58 a73f f58b d22c f2d5 dc3f
00000070: ecaa 13c3 f04c cd3f b201 cfb7 8fb3 d6bf
00000080: 8077 afcf 19ba d5bf 03ca bc6c 39b2 bfbf
00000090: b4a6 b976 c577 dabf 60a7 ed1a faf0 b23f
000000a0: 8b7a c444 882c cbbf 2052 ff55 e0fd dbbf
000000b0: 24e9 3962 96ab cc3f a66e 2876 f045 d9bf
000000c0: 59a2 3b08 232b d1bf a687 5dd1 2b6e bcbf
000000d0: b121 5298 c2fa cb3f 694e a74c 9f44 cb3f
000000e0: 08c5 af0e 82fa b33f 0864 59ac 0a76 b93f
000000f0: 823f 0864 dbca b23f a1d6 e5eb df53 9abf
00000100: 041b 2fc7 82ce bbbf 8226 db56 a024 c93f
00000110: 8c62 3b51 73b0 ccbf 4830 fd4c 5f41 cabf
00000120: 6a9d af60 2d07 d7bf d780 7158 333c c83f
00000130: 8b96 464c 1546 d33f 7c54 0ce4 8a46 cd3f
00000140: be07 6370 dfb5 ddbf 5b30 3c60 36d8 d1bf
00000150: 8a71 c7c1 a0b9 dcbf 39a0 40cf e3c0 c2bf
00000160: bc02 e548 3925 7a3f 0ccf 1fe0 eab7 cf3f
00000170: 86f1 6b73 c311 cf3f f577 e920 cca9 d33f
00000180: 0d51 bf81 9513 c9bf 95f3 bb6f 198f d0bf
00000190: 5f9e aeea 4b01 de3f 82ba 2194 c8a3 df3f
000001a0: 2034 a6b8 fc37 dd3f 8ac9 bb16 9d57 c23f
000001b0: 69db 0efc 4f5d e3bf d440 9257 8694 f0bf
000001c0: 59e4 a622 c5f0 903f 79d4 5e52 4566 ca3f
000001d0: 8041 2915 a063 c3bf 90f9 309f e775 f0bf
000001e0: 3357 1762 98ac c1bf 6ea6 5af1 b349 d03f
000001f0: adc4 9e63 f5ac b4bf fb74 066c 2e36 f1bf
00000200: ea41 4134 b1cc e93f 2435 03c7 bc1b cd3f
00000210: 5fec 0915 96d4 cc3f 5ece dea7 cc21 bbbf
00000220: 6a97 7e4c d56e a33f 623f d98d 4019 ddbf
00000230: d42a 767c f8a6 d1bf 6e86 a120 b1c0 bfbf
00000240: 1305 501c 7d32 e33f dbdf a8a4 704e eabf
00000250: 881a 4be8 4093 dc3f 81f4 b9ae e256 c5bf
00000260: d5d0 bd35 0b5b ca3f 125b 7b7e 1fa8 cc3f
00000270: 097f cc8b fe93 c5bf 70c2 1859 589d b5bf
00000280: 917d 7f5e fc68 b43f 93c0 ab9b 2eeb 893f
00000290: f6a0 e57c 6f8d e1bf fa6e ae53 8e16 c03f
000002a0: 4436 e33b 8340 d0bf 0f54 b8e1 ce50 da3f
000002b0: ad73 bdca cd97 dfbf a26b cb54 5953 b43f
000002c0: 851e 0dc1 5855 d3bf da1d 823a 4f36 d8bf
000002d0: a628 60b1 1956 b1bf ed76 d705 c77f d6bf
000002e0: dff9 0387 249c b1bf 2fdc 6636 6acf a5bf
000002f0: 1bc4 1fac 9026 b0bf 2d93 06c5 d101 e13f
00000300: 347c 86d8 7f54 eb3f 2a69 ca73 868e d7bf
00000310: b526 84a9 b8bd e93f 63c0 0d0b 6c53 d63f
00000320: 9175 3747 7b64 d9bf b899 4979 bad4 d0bf
00000330: 5885 47c6 c2ba c2bf 8373 da08 dec5 dfbf
00000340: 886a 6e4e 83f3 d43f 3cde 7462 5cde dcbf
00000350: 9e08 075e a0ce d4bf f55c 3200 1e1c aabf
00000360: 10af e662 67bf c63f 2c61 d388 4249 b13f
00000370: 2860 d3e0 95aa cd3f a492 e77b 0f41 c23f
00000380: b290 084e b832 dbbf 92e5 85a0 8a28 bb3f
00000390: 60d2 970e 27a7 d2bf e860 f8b5 869c e33f
000003a0: 8cbb 142f c618 aebf c7a3 5f29 c566 e0bf
000003b0: 3633 bdde f019 d23f 2060 9e5e 041e d03f
000003c0: 0aba d163 45ac 88bf 6257 c758 a9c9 94bf
000003d0: 9c50 05c0 43a6 c83f 669a 5039 b34b e4bf
000003e0: a771 5c38 d30e c93f 3f96 83b1 2726 bbbf
000003f0: 8694 d31f e244 debf cc2c d3ac b09b cebf
00000400: c9ab 7a0b 270f c5bf e6e0 e732 d9d1 bebf
00000410: 968d f396 e309 d73f be8b 3a34 4457 d03f
00000420: 9ca0 0e62 be6e c5bf 38a5 37dd 7ae1 febf
00000430: 8c8e 35ae edf6 dd3f f31a 06bc 363c c8bf
00000440: b94b d66e 9fc5 05c0 433d e154 2730 09c0
00000450: d402 f0a0 7df1 863f 4b27 f43a 4201 c83f
00000460: 9cf2 f2ab 67ed bc3f b345 ca81 6268 00c0
00000470: 1669 e992 e027 d03f af5e d86f 0ac0 c9bf
00000480: c9eb 07cc c5ab 10c0 faa3 e775 dcf6 7ebf
00000490: 5adb 5d1a cb15 dc3f aa3e eb95 7f38 d63f
000004a0: 4578 9046 832f d73f 3a48 0dc0 77c1 d43f
000004b0: 8b4a 9460 39ee d63f c4e3 c41e 8cba b7bf
000004c0: 0fe2 a1fa 4b29 c93f 96ef c69f e855 d43f
000004d0: 645c 4fdf 2a55 90bf 2e7c ccdd 6122 c03f
000004e0: 6b3a 1b49 e042 d8bf afac b13c b442 a43f
000004f0: bd69 7a61 318a b33f e86f bc76 cc03 cdbf
00000500: 30b3 8ca2 251b dfbf 763b c03a cfb1 d1bf
00000510: 58fc 1667 4ac6 bbbf 56f0 bf2f e6d8 e8bf
00000520: e226 2159 fb1c b6bf 1ce8 7bda 7808 babf
00000530: 3c3c 53db 7403 b1bf 9870 1817 2675 b73f
00000540: 5f56 735e f235 c4bf 0131 4f13 f6d0 bebf
00000550: af84 5df5 7421 b93f a301 155e 5024 d13f
00000560: 2242 4dbe 609e d03f 9859 226f f2d1 da3f
00000570: 6432 e71a eb6b e6bf 9c89 01c3 4890 823f
00000580: eb18 a7d3 5083 d73f 7c2b c384 cdd0 cb3f
00000590: 3e19 36ac 5a00 d63f d952 6177 23bd d33f
000005a0: dea7 d3b0 67d8 dfbf 373d 7773 cba9 f3bf
000005b0: 2278 aef8 6cef adbf a511 6ccd 56d1 d0bf
000005c0: 4011 bd78 af3e 9cbf 47a9 de46 1ad5 fcbf
000005d0: 9173 5d55 3d8b b0bf d88c 55d0 a893 d13f
000005e0: 59a5 95f3 ba5c bb3f 868f 1ee0 a3bf c4bf
000005f0: 5cc8 4213 00c7 d6bf f59d e35a f9fc a43f
00000600: 9fde 2fdb b42e e4bf 62b5 90c3 b5c9 c7bf
00000610: 84f8 7922 3a76 9b3f ccfe 1c7f e8f7 de3f
00000620: 16ad 7a35 4dfe e23f 40ef d947 d888 d73f
00000630: 9b3f a723 9159 c2bf 93c7 d0fb 85dd b2bf
00000640: d612 2a5a a829 d13f 75ec f550 5e80 d63f
00000650: c524 f3bf 3d8c d9bf 85bf 2955 0e84 e33f
00000660: 41c4 4985 1615 cf3f 0bea 9fc6 ea0b db3f
00000670: 326f 1bd4 665c bf3f bbac 9904 9450 9bbf
00000680: ff36 6a0c 0d8f cd3f a51e 463c d960 923f
00000690: 82f4 6009 4261 e1bf 2ed1 68c7 428f cbbf
000006a0: 0e12 7cf2 576f dcbf 98f3 48f2 ae59 cebf
000006b0: 7802 2669 47de 833f 563d eca8 600f d33f
000006c0: 5a16 3076 1e4a b1bf 4017 7a9d 3d3c c6bf
000006d0: 5a7b 490d ff2e d8bf ff44 c9bd 295e cd3f
000006e0: 52b3 f848 2b60 b93f 1bea e3d8 f148 dbbf
000006f0: c107 2d2b 88bd c43f 1ce9 88ea b1f7 c03f
00000700: 34a4 7983 a38c b7bf 4813 711b dd4a c6bf
00000710: cc59 9266 5d41 eabf 0e77 8f51 4d2e c4bf
00000720: e455 b92f 90b6 cf3f 87f9 3f48 0ddb e3bf
00000730: 40f0 c98c eecf e3bf 917e d27f e9e6 c0bf
00000740: 4e6a f308 92bd e0bf 4e9e 4a1a 65e8 d5bf
00000750: 6b2d 3b6a 065f 933f c4fd a130 9ca2 7ebf
00000760: 320c 3e6c 0de7 7e3f 20e3 83f1 5b7b ccbf
00000770: 225c 3ff8 09e5 cc3f ebea 31bc 39c4 b23f
00000780: cd02 b30e 51df c03f 1bbd 10e1 387c b83f
00000790: 723e 5257 7634 f1bf ee7d 269a 425b dfbf
000007a0: c1cc c726 7d72 f3bf e207 7962 d5ae bf3f
000007b0: e418 58ab 215b d83f 10ec deca 2265 b3bf
000007c0: 7246 7c97 ae95 c0bf 44a1 5259 6efa dfbf
000007d0: d19f 033f f9da babf 41df d427 f9a4 de3f
000007e0: 84f0 02a9 1eeb afbf 7c54 3409 9194 c1bf
000007f0: 52b7 4161 8b4a c73f a5bf 4ce2 972c c73f

V2 f8 [19, 35]
0.2370587729628335 0.2236270021147006 -0.3102483735112638 -0.07325455893806217 -0.5480776019392714 -0.07160414558824732 0.22970404185796375 0.06864743327537808
-0.055997106033312496 0.18037483278161023 0.1803166254004043 0.007890710157695218 -0.055346896379494394 -0.10704191790777297 -0.021986166527698178 0.09229533025770449
0.1779823716443147 -0.20473484786220555 -0.21810326752550022 0.013931007848940477 0.20148336273284537 0.11148307070100508 0.2683901547338547 0.12710815401012734
0.14626707194185362 0.22645868418849255 -0.40490094413866257 -0.251220288771284 -0.026848779414604486 -0.07061305627265992 0.24781727309958587 -0.06877309113393854
-0.09907365036063387 -0.0489327617992926 -0.02669449897756522 -0.37613659202141814 -0.09903691951960032 0.018478159391439604 -0.17841004845178504 0.3098090124548479
-0.06311969384152466 -0.020604841356566043 0.1635563949074019 -0.1173360317427437 -0.06308848984278459 0.0960780347435892 0.15968377033323408 -0.06269978792616389
-0.220447730047822 0.19656263907906543 0.32973084769877026 0.16386635151356238 0.20288906909594262 -0.013216056500652246 -0.0700722913995987 0.027329703941747302
0.23506303609446988 0.2223376336059123 -0.09572303637664151 0.07209059688113065 -0.2716094780406536 0.3606410865016141 -0.12244181741864325 0.2756857812111087
-0.202481473115442 -0.2272572442079261 0.2203105131494493 0.12286853004083234 0.21290305197258683 -0.3558396170416753 -0.2435090036247972 0.15199229464753566
-0.056953931716425536 -0.24021488301722288 -0.05879009183697811 -0.09241543914513647 -0.011525034873608847 -0.3076097864413445 -0.14838362334280283 -0.0068333723361354405
-0.1557145339872046 0.2806092612983773 0.03889511150516356 0.05458246347420847 0.125615859241812 -0.043484540994511836 -0.007383670877382301 0.06596162793474067
0.41872977644316745 -0.11458373162219859 0.3509094259643848 0.008662988228343755 -0.08962241016120885 -0.23748901421012877 -0.10156459434960913 -0.24550386415659375
-0.32412180317655676 -0.022170851392874506 0.07872104630645109 -0.04541063434997048 0.22076643807117072 -0.2639288892394453 0.2723367448351156 -0.05820997675703226
0.25579442681236997 -0.08020074609880323 0.025642105034230544 0.07748050256190533 0.2991183661662578 -0.16978456494142935 -0.20478933890367243 0.25488437059828056
0.25292896555769073 -0.21273775172327206 -0.10122778406052492 0.15710184697520516 0.13230235713562538 0.39523945852809483 0.16196937909528064 -0.07405887232171701
-0.1920360924724421 0.027811519146823442 0.17370432957079776 0.2024419867281323 -0.18333884667656228 -0.15741701956057136 -0.3352696361999996 -0.03827390411903216
0.2854117709682983 0.25221345073417895 0.01568898311697906 0.07869164064139113 0.10126179124933087 0.014709613912172742 -0.0898080244812589 -0.15455286759390666
0.07474645562892689 -0.4736921214851909 0.08248023999122489 -0.06637193001612843 0.04520932867458337 0.28017005945659307 0.17849522733812664 0.2459654025912052
0.31789028547016507 -0.05307720785939327 -0.09381738285038106 -0.22809285179256236 0.0026467733863850735 0.18004770114186344 -0.10503234339578747 -0.259716898248312
0.0975700846010216 0.16146823018291068 -0.10547890573931974 0.14816088500989397 0.25173308118722504 -0.1666889916542555 0.03289078891503427 -0.2917647230569926
-0.11397455369278776 0.2565448537331676 -0.12387322170053286 -0.1012820710192437 0.14750968215840052 -0.11963177415428157 -0.18501027623830024 -0.19862354238006805
0.3057615162482492 -0.05605800543470541 0.10579781861611598 0.2880173490967879 -0.24740042589462036 -0.45446722388059724 0.15442310616378863 0.057776558988858834
-0.19871566647773745 0.018250228602868387 -0.3221175512075913 -0.2731834248802643 -0.06608146140519686 0.09168320312639623 0.1957234532784325 0.41741049283000947
-0.09782984282839612 0.2507297025334953 -0.06650592874006483 -0.152311394254489 0.27234589170030604 0.26331052082136736 0.2945951018165941 -0.00031632523443447954
-0.09817162026536004 0.08895104171959975 -0.03334298103912563 0.11103112670074959 -0.13936378383948056 -0.4628898555296087 0.16298817449209718 0.03732883560196974
0.26913090696585784 -0.14944809167632858 0.050880267700182835 -0.19488196388541434 -0.008664765266359334 0.0633934895321322 0.0726680755862776 0.2889261318090528
0.07221664178833995 0.03661706131806827 0.047229709124813384 -0.08651089990253044 0.19741318035232056 0.13406580454051567 0.08556005398265594 -0.18555248065561014
-0.2337855588377982 -0.07963069549258578 -0.4603509926248804 0.39444250589247964 -0.1465935153295019 -0.11910124392956796 -0.18591037259377777 0.18265003222558046
-0.4338436462083918 0.07679948781002992 0.29057518351477846 -0.2800913724699364 0.03758096158087196 -0.07180292411957372 0.0766339348219086 -0.06167889414722663
0.15403146602632034 -0.17772718312150232 -0.3080427031644918 0.16059506190181377 0.21340535617724188 -0.4002883928633731 -0.008400969839666659 0.2511841676082515
-0.05061913930566272 -0.12245166653008334 -0.12213447531606904 0.27828913912345793 0.3684249614908871 0.13720392367358886 -0.046050110370884266 -0.11826115735228486
-0.14704057257956943 0.10945473689204635 -0.1090952188406069 0.31917509132433786 -0.46789933807168416 -0.24702087677582021 0.06699504609195422 -0.1912186183611264
00000000: 2079 8d1e f157 ce3f 96e6 4a42 cf9f cc3f
00000010: 788e 77fe 1bdb d3bf 6d00 ec8e cfc0 b2bf
00000020: 13fa ff09 da89 e1bf 563e 8f37 a654 b2bf
00000030: f3fc c429 f166 cd3f 5b41 dfd0 e092 b13f
00000040: 8add 2a16 a7ab acbf 1bc4 e8c3 8516 c73f
00000050: 7189 827c 9d14 c73f 635e 8e30 0129 803f
00000060: 8d22 c5ab 6d56 acbf 590a b760 1967 bbbf
00000070: ccb1 cda8 8a83 96bf adc5 07b1 aaa0 b73f
00000080: 6709 bd58 20c8 c63f 01b9 f561 c034 cabf
00000090: 131d 96d0 ceea cbbf e563 e438 dc87 8c3f
000000a0: 2716 d0f2 34ca c93f d2ed b78e 278a bc3f
000000b0: 479e 49e6 4d2d d13f 89a3 437a 1445 c03f
000000c0: 8c68 3c21 e1b8 c23f df0c 3e21 99fc cc3f
000000d0: 2b7c 4ca6 e5e9 d9bf 5c51 1743 fe13 d0bf
000000e0: 5acd 1716 3f7e 9bbf 3197 5c7f b213 b2bf
000000f0: 1b5e acf5 79b8 cf3f 2cdd 4301 1d9b b1bf
00000100: 18bb 3108 e45c b9bf ed07 4307 b70d a9bf
00000110: 34f3 5d80 cd55 9bbf 8ce5 6336 9f12 d8bf
00000120: 9dea 6eca 7b5a b9bf 0225 1b49 f0eb 923f
00000130: 9a68 b0f5 23d6 c6bf e9f9 1f2e e9d3 d33f
00000140: e46a c8bc 9c28 b0bf c118 107f 6f19 95bf
00000150: e7e7 967b 6aef c43f 933d faf2 bb09 bebf
00000160: 40f8 a038 9126 b0bf 5e71 16f1 9198 b83f
00000170: 6740 a48d 8470 c43f 0de8 9be2 170d b0bf
00000180: d733 8497 a137 ccbf 83e2 3aed f628 c93f
00000190: 0e4f d669 4f1a d53f 1232 5596 92f9 c43f
000001a0: 90d1 3dde 44f8 c93f 707e 9e13 0511 8bbf
000001b0: 58c4 eaf7 41f0 b1bf c881 8e62 51fc 9b3f
000001c0: 8019 43aa 8b16 ce3f 44f3 8040 8f75 cc3f
000001d0: 7224 b60e 4e81 b8bf 8a1d f483 8774 b23f
000001e0: 9af7 5db8 0c62 d1bf e092 075a be14 d73f
000001f0: 01d3 79d1 5858 bfbf f587 91f9 d5a4 d13f
00000200: 2ed2 89b4 e9ea c9bf ee78 d3ef c316 cdbf
00000210: f58e 7888 2233 cc3f d2a3 3bde 4f74 bf3f
00000220: bb6d b83e 6840 cb3f 942b 7487 13c6 d6bf
00000230: 6bce 6c93 4d2b cfbf 22a9 60c7 7b74 c33f
00000240: 578a 33d4 1029 adbf e224 497d 5cbf cebf
00000250: 7b8d 8923 bc19 aebf 561a c6c8 89a8 b7bf
00000260: 6374 f0fe 6f9a 87bf d47c 2cf5 e0af d3bf
00000270: 1779 c20c 3cfe c2bf 6d0f 486b 4ffd 7bbf
00000280: 8953 7e2f 74ee c3bf c9cc 0e8c 80f5 d13f
00000290: 9024 c75f 0fea a33f 1f1a 1d8f 3bf2 ab3f
000002a0: 0ab9 a633 2e14 c03f 92ef e712 9b43 a6bf
000002b0: 50a5 150f 573e 7ebf 1648 c57a dce2 b03f
000002c0: b0d3 ebf9 77cc da3f 6892 f803 5c55 bdbf
000002d0: b802 18cf 4c75 d63f f7cd 0299 e6bd 813f
000002e0: 1f8f a188 7ef1 b6bf 538c 983e 0a66 cebf
000002f0: 74bf 2923 2300 babf a40e ccad ab6c cfbf
00000300: 4916 2460 69be d4bf 11a3 a0a6 f4b3 96bf
00000310: cba2 64ff 0f27 b43f 1df4 d80a 1040 a7bf
00000320: a1f8 c81b 1342 cc3f 8b31 f0fe 35e4 d0bf
00000330: 0238 2419 f76d d13f f7da f1b4 b2cd adbf
00000340: dc1f 6a96 ef5e d03f e0f1 9b3d 0988 b4bf
00000350: f328 178a ec41 9a3f 3abe 9420 c3d5 b33f
00000360: 394a 145c c124 d33f d8fe e428 80bb c5bf
00000370: eb92 947c 8936 cabf 4fcb fe88 0650 d03f
00000380: 5402 d2f8 fc2f d03f a954 239b fd3a cbbf
00000390: 918b fc65 10ea b9bf 7529 73cf e91b c43f
000003a0: 8665 8a9c 48ef c03f f2e1 1d71 9a4b d93f
000003b0: c475 15a1 69bb c43f beb4 99b2 85f5 b2bf
000003c0: 030f 6980 a394 c8bf 5e30 c074 9f7a 9c3f
000003d0: 3510 5787 f13b c63f fcd3 2a78 9ee9 c93f
000003e0: f3f5 47b7 a577 c7bf 5a58 6cab 3d26 c4bf
000003f0: 4088 b4c6 0e75 d5bf ea84 f61c a398 a3bf
00000400: 36f2 8cbb 2f44 d23f 4def a0e2 4324 d03f
00000410: 3966 94d5 c510 903f e1fa 05a7 2225 b43f
00000420: b710 c0f1 4aec b93f 833c 84f5 1220 8e3f
00000430: 5fbc 10a0 a8fd b6bf fdcf e86b 63c8 c3bf
00000440: 470c 6b6e 9522 b33f 56b6 89c2 f850 debf
00000450: 581b 54cd 6c1d b53f 0aab ca34 c0fd b0bf
00000460: 7e4d 4358 ad25 a73f e9cd ab66 4eee d13f
00000470: 3965 f47d eed8 c63f 4ed1 0958 cb7b cf3f
00000480: a0de f37e 5058 d43f bd92 d68f ef2c abbf
00000490: b581 237f 6a04 b8bf 4d41 7385 2532 cdbf
000004a0: ed63 4da4 afae 653f 95e8 0f96 cd0b c73f
000004b0: e73a e84f 66e3 babf dc7b 0ca0 339f d0bf
000004c0: 4ae9 6d62 5afa b83f d042 fdaf fdaa c43f
000004d0: 8178 9162 aa00 bbbf 0bfb d495 eff6 c23f
000004e0: f64e c111 651c d03f 260e e19b 1056 c5bf
000004f0: bf9c 75bd 0fd7 a03f 7f00 eaf1 45ac d2bf
00000500: d9cc afb4 6f2d bdbf 806d 2f1b 3b6b d03f
00000510: 6acf 0dcc 27b6 bfbf a1e4 b22e 9fed b9bf
00000520: 075a 5be6 98e1 c23f dd1a 8e1d 30a0 bebf
00000530: cc07 efae 6aae c7bf d378 5e09 7f6c c9bf
00000540: b457 2ac0 9891 d33f 11c7 0a88 a2b3 acbf
00000550: 74c1 f1da 9015 bb3f d048 c351 e06e d23f
00000560: 52ef 1d31 d1aa cfbf e6f2 eab1 fd15 ddbf
00000570: c82f 5ce7 22c4 c33f c445 aa9e e394 ad3f
00000580: d1c3 5cd4 836f c9bf 1cb2 f91b 30b0 923f
00000590: 93de f9ee 929d d4bf 69e1 ea54 d67b d1bf
000005a0: e671 9bf3 b6ea b0bf b938 05e7 8c78 b73f
000005b0: fa0d 7253 770d c93f 9793 ed7f dab6 da3f
000005c0: ef51 8567 600b b9bf 5319 2198 f40b d03f
000005d0: 4cbe ed54 8806 b1bf ebca 9094 f07e c3bf
000005e0: 9f60 8376 1d6e d13f 45b6 e75e 14da d03f
000005f0: ca4c f769 a5da d23f 1c70 6b89 0ebb 34bf
00000600: 955f 6f7a c621 b9bf ee7c 21d7 7ec5 b63f
00000610: 7677 3aca 5412 a1bf 638b 0432 896c bc3f
00000620: 582f eb26 acd6 c1bf e296 c9c5 fc9f ddbf
00000630: b205 8ae7 cbdc c43f ae68 37e0 c31c a33f
00000640: 24b7 f0d6 7039 d13f 4987 1975 1d21 c3bf
00000650: d069 917b fa0c aa3f f4ea bb66 e4f1 c8bf
00000660: 5b7e 921b d5be 81bf 20e0 5144 8e3a b03f
00000670: ad37 1b00 609a b23f 4419 c507 c47d d23f
00000680: c636 b532 ca7c b23f dc67 acb1 78bf a23f
00000690: cf6b 2e10 7e2e a83f a632 d40d 9425 b6bf
000006a0: fbce b4c8 d544 c93f 81b8 017b 1129 c13f
000006b0: 8d12 b381 43e7 b53f 28c3 0d06 2fc0 c7bf
000006c0: 7922 be68 afec cdbf ecfc e560 ad62 b4bf
000006d0: e551 8002 6476 ddbf a078 bdc7 8b3e d93f
000006e0: 5fac 1289 93c3 c2bf 4d25 974b 6b7d bebf
000006f0: 7d83 233d e9cb c7bf ead7 8285 1361 c73f
00000700: 4ab7 0224 18c4 dbbf 7b5e 7e98 21a9 b33f
00000710: 3769 8ea7 c898 d23f c19b 295d 04ed d1bf
00000720: fc57 e2d1 cf3d a33f 03ca d92a ad61 b2bf
00000730: a7ea d213 489e b33f 447b 6e42 6094 afbf
00000740: 5ca9 9196 4db7 c33f aefb 8eab c3bf c6bf
00000750: 363a f7bd f8b6 d3bf b239 6205 618e c43f
00000760: 3447 c9e0 dd50 cb3f f742 1435 539e d9bf
00000770: c578 ba15 8734 81bf 87a0 49c2 6613 d03f
00000780: bb2d bd77 c0ea a9bf 3960 160f fe58 bfbf
00000790: b956 3279 3444 bfbf f580 d73f 7dcf d13f
000007a0: f289 284a 4694 d73f 06cd 87ee e58f c13f
000007b0: 934f 0a4c e193 a7bf 9b15 37fb 5c46 bebf
000007c0: ea09 35b9 39d2 c2bf baf7 57c3 3905 bc3f
000007d0: bf03 120d aaed bbbf e0e4 bb5c 5d6d d43f
000007e0: aaa0 b510 10f2 ddbf e937 974d 619e cfbf
000007f0: 247e f55b 9626 b13f f0a8 1f08 da79 c8bf

V3 (column-major) f8 [19, 19]
-0.3444306779492018 0.14040749869334812 -0.12177829806519673 0.038295272758778656 -0.09518720674581016 -0.13416754386666205 0.08551825971431032 0.1734016230193849
-0.03353657104609113 0.053653299362447324 0.33226733417778737 0.09586539662546373 -0.37430608824688083 -0.04125886733994683 0.04564219669236827 0.2355758534077119
-0.5004363936644741 -0.35723183720623797 0.28263208026910636 -0.2987599849201955 0.13705781546471352 0.1658738182871136 0.004010938894513756 -0.12632352728284943
0.43254448176920923 -0.01342205869083554 0.06805712007470581 0.26539019556270765 -0.10117577148447131 -0.13752238047559995 -0.06323926019617275 -0.1455812223995226
-0.3754917923532841 -0.08769372724168623 -0.44381317539433623 0.19839921854674755 -0.08930065697370965 0.3725558588384296 0.12535434079282212 0.0052297478414733735
0.4774933780291103 0.13704055111636898 -0.3436267796058035 -0.1729786189628682 0.3150856352342748 0.06957802112186817 -0.1610188422308903 0.23499928396298025
0.015625676581085948 -0.4152720758263334 0.05494592452205067 0.35946553860269476 -0.11333250347253859 -0.18120974129028483 -0.02487752075674717 -0.07323628695003807
0.21820377214292547 -0.32993346631719433 0.11299018202685412 -0.03395518174129282 0.15440557446134953 -0.18631803591444726 -0.15508752416586707 -0.0913157029665791
-0.17183015105714802 0.060758492743909716 0.1307698628739689 0.22343280045762523 -0.2099570506040416 0.4219873245980901 -0.2928605339763431 -0.19259067703949773
0.45077217265586156 0.24511809442567525 0.21758218886949182 0.17436641496844962 -0.045969100134914946 0.17789106756659392 0.09679825455677765 -0.6103003639648705
0.027847913892553876 -0.1548991320312577 -0.2975355258300207 -0.36101542024821764 0.3363793204721486 0.301862620129857 0.01966633717164287 0.07871519869163969
-0.04278034623146824 0.2882227444910737 -0.07638042007351767 -0.07082135535822504 -0.04907234868330667 0.03530716714059631 0.17468438541598102 0.16799043493552662
-0.35288776565109037 0.12663726612435267 0.022850048795874656 0.09951550740395924 0.29567125495789354 -0.3477653068847402 -0.4707239029178414 -0.2712409778453546
-0.23416947044940603 0.14199492286349077 -0.2618755863064821 0.04668488047114951 -0.04164954909703697 0.021874784103756133 0.09038713133871659 -0.1982986982338644
-0.24917247391865996 0.2443841240715128 0.352154342848165 0.19716175104172176 -0.13712880422259874 0.014239300396252048 -0.05178414249057886 0.03704052357932661
-0.08204020348321645 0.18462536510835434 -0.12804440729721317 -0.1946060922852427 0.10128178321793872 0.19362727594714574 0.14242951592124647 0.025864803637477476
-0.10473428021843692 -0.10752794555419364 -0.2891545494066831 0.546011560044946 0.4959785218569249 -0.1313765383497719 0.003287811992350491 -0.4585120142911007
-0.05929105816622859 0.28979111023031656 0.08170823797127025 0.4291612242825826 -0.1545565800181088 0.21906698782228434 -0.27293892958948524 0.1468544376261196
-0.4348781652684258 -0.008248636794869198 0.2977566017676351 -0.1728523359195529 -0.09592047125749188 0.00544341392395797 0.07981183866237472 0.053684001839160424
0.3273194428826971 0.24523453577123638 -0.04581592003741642 -0.00757215309026734 0.012025096375528867 0.16263306414735973 0.1501914863819285 0.023545244594858825
0.0190775835161751 -0.09334330120664752 0.01558789444761433 0.33778817825510576 0.16293573172446238 0.15126192766036864 -0.3989834061997495 0.2460167876945728
0.3098158845244547 -0.5165199288244107 0.15974939239079478 0.10310003442773685 0.3931358165494971 -0.23480737480135544 0.12196187758424029 -0.1714053416426007
-0.34239767124125703 -0.2824320254687766 -0.061117627021238394 -0.043639647703469286 -0.30735827966074836 -0.32301622621411225 -0.2657600842218726 -0.15985890569961894
0.08656178998063281 0.3590771041389545 0.03263383182843653 0.22640451221761673 -0.15860075921018132 0.15453948836982448 -0.303064850337012 -0.22138468499922231
0.17453650629895306 -0.03566944285381056 0.05710611554261916 0.046065457021947684 0.1068740863446821 -0.0079733488189139 -0.07269279338971515 -0.17537540911326457
-0.6195733889737718 0.12268831441041363 -0.1786237564295394 0.222712314768991 -0.1654520561923124 0.42059704269427967 -0.0364385866261051 0.20636314798592637
0.21418463493705556 0.11104374197523595 -0.4380865114535544 -0.14672202420014124 -0.10819663401657087 0.07600903182127451 -0.4753380024210883 -0.030764750155693812
0.05753200579438283 -0.15619230613268043 0.028166658732806594 0.10865658806269876 0.029252522375552367 -0.3624369879976419 -0.23087715313213156 -0.32424221990384583
-0.15771424179993354 0.35296195122772 0.008129727062685574 0.22218104931175828 -0.2768694648880507 -0.30024036864588144 0.04502898574145597 -0.14165160015207176
-0.1389068070783885 -0.11979671814957346 0.1387557022850002 0.025720926024130227 -0.01964422101571408 -0.29894878611840053 0.2197234497610625 0.33864001066169247
0.34932123648444613 0.23719679017459488 0.45442239079887453 -0.14175206565223142 0.22356099193452106 -0.07794499413810742 0.20951731650204236 -0.10666727999738562
-0.20820698141824867 -0.4538590270106771 0.07984683624183819 0.035452868103369777 0.25134357159636256 -0.27227040725470536 0.3123312458220649 -0.13575457227471424
00000000: c2fa 61f8 260b d6bf d023 8077 dff8 c13f
00000010: 9374 8dcf dc2c bfbf e242 2e20 709b a33f
00000020: 5089 f853 305e b8bf 4fc5 8bee 662c c1bf
00000030: 540d af50 86e4 b53f a885 f83d 0632 c63f
00000040: 86d3 b997 b42b a1bf 6e1d 2bfc 7178 ab3f
00000050: 1da7 7435 de43 d53f 340e 5377 a28a b83f
00000060: e2b2 ed85 a1f4 d7bf 2947 cadb e11f a5bf
00000070: 14ff 38fc 695e a73f 4f84 0e7d 5927 ce3f
00000080: 118c 102f 9303 e0bf ac02 79ec e2dc d6bf
00000090: be99 63dd a416 d23f fe7b 2533 e21e d3bf
000000a0: d083 8a49 1c8b c13f 7124 6770 5a3b c53f
000000b0: fb11 0d36 c66d 703f fb95 328d 5e2b c0bf
000000c0: bce5 d00c cfae db3f ef1f fa38 067d 8bbf
000000d0: 2316 fb00 316c b13f 65bc a728 27fc d03f
000000e0: 3762 acc5 a7e6 b9bf bc2d 4e57 559a c1bf
000000f0: d7a4 5dba 7230 b0bf 3a0f 8fce 67a2 c2bf
00000100: c8b8 04ba 0e08 d8bf 4040 919a 1873 b6bf
00000110: c590 7660 6f67 dcbf 0fe9 9a45 2565 c93f
00000120: 34a1 3669 68dc b6bf 5b3b 6987 f4d7 d73f
00000130: 9ff3 0e6d 9c0b c03f 2495 20bf c96b 753f
00000140: 1243 ac62 408f de3f b6a3 a276 8b8a c13f
00000150: 51f3 1b2d fbfd d5bf 6227 add3 2924 c6bf
00000160: 7051 b1f0 5c2a d43f 6023 3d7d ddcf b13f
00000170: 52f2 b5f2 439c c4bf 5a2a 9adf 7414 ce3f
00000180: a415 9367 2d00 903f be6e 2754 d193 dabf
00000190: 59cb bd49 df21 ac3f 3b9b 15bf 7b01 d73f
000001a0: 2405 fde3 5b03 bdbf 7679 477c e131 c7bf
000001b0: 1521 3928 7e79 99bf e3b4 5401 9dbf b2bf
000001c0: 9edd 9be8 19ee cb3f 920c ec41 a11d d5bf
000001d0: 8c0d 93b0 ecec bc3f fa98 37d6 9262 a1bf
000001e0: e9d7 50d6 8fc3 c33f 1b29 74f7 44d9 c7bf
000001f0: 5eae 2772 e8d9 c3bf 084b da45 7760 b7bf
00000200: 9feb a0c7 87fe c5bf 1925 94b6 bc1b af3f
00000210: 0a4d 2c1e 11bd c03f 5bdb 682d 7299 cc3f
00000220: 5159 f464 dfdf cabf dc6b 9e1f d701 db3f
00000230: 5deb ed1b 3abe d2bf 0c17 b3b1 cfa6 c8bf
00000240: 1c3e e086 73d9 dc3f a9a9 9b9b 0760 cf3f
00000250: e27a b1b0 bbd9 cb3f 78b6 e780 a351 c63f
00000260: ff79 690b 4389 a7bf 617a b96e 22c5 c63f
00000270: 2499 a139 c5c7 b83f 9ae9 fea0 9487 e3bf
00000280: d3ab b8dd 2984 9c3f 8c63 2019 bcd3 c3bf
00000290: 77a3 3572 d20a d3bf b056 d46b e01a d7bf
000002a0: 14a1 1e21 3d87 d53f 46ed 5598 b751 d33f
000002b0: 57f0 ef8b 6923 943f f127 14e4 ad26 b43f
000002c0: a590 f337 4ee7 a5bf 955c 63cf 3d72 d23f
000002d0: 823f 45ce aa8d b3bf 7c39 1f2d 5921 b2bf
000002e0: df25 77c9 0220 a9bf 2cd5 5df0 c713 a23f
000002f0: 42e3 3dd5 0e5c c63f 2a61 0be8 b580 c53f
00000300: 0651 2891 b695 d6bf a8be 3a62 a635 c03f
00000310: b040 29d1 0066 973f 8bae be29 d979 b93f
00000320: e154 9a20 47ec d23f 1937 f06a c941 d6bf
00000330: 2091 1e26 5720 debf 3093 4b1e 035c d1bf
00000340: 9ba2 a6e4 43f9 cdbf 3bc8 f2be e32c c23f
00000350: 9ca8 b3d1 91c2 d0bf 23b9 aea5 14e7 a73f
00000360: 9ca3 87f6 1653 a5bf 8bad 54e9 5766 963f
00000370: 423c 146d 9c23 b73f 317d e00b da61 c9bf
00000380: ada3 4535 e2e4 cfbf 913d 469e fa47 cf3f
00000390: e757 6b5e b289 d63f 6586 5fa4 983c c93f
000003a0: 0be2 bcc8 6f8d c1bf a498 288c 7e29 8d3f
000003b0: f499 e57c 7383 aabf edc2 ccba f9f6 a23f
000003c0: d4e7 ea36 9600 b5bf 3383 93d0 cda1 c73f
000003d0: 6a7c e356 c263 c0bf 3bd6 fb38 dae8 c8bf
000003e0: 0303 9a5a 9aed b93f 4e3d e750 c7c8 c83f
000003f0: 6ef5 6e60 213b c23f a732 f696 4d7c 9a3f
00000400: daeb 4ea4 ddcf babf 57b3 8f91 f386 bbbf
00000410: 973e 4c15 8281 d2bf 0431 343c ed78 e13f
00000420: e235 b9b2 1cbe df3f 5344 d647 f2d0 c0bf
00000430: d7fb 709f 0aef 6a3f e303 8dc6 4258 ddbf
00000440: afd2 89c7 655b aebf 6016 4703 f08b d23f
00000450: 0880 e6c1 d4ea b43f 2352 c0a3 6077 db3f
00000460: e899 4790 82c8 c3bf 863b 2a16 630a cc3f
00000470: ef17 19d8 d477 d1bf 4036 704f 20cc c23f
00000480: bea1 643a 0bd5 dbbf be13 2a4a a9e4 80bf
00000490: 4aa5 b0b4 710e d33f 52e5 e77c 0620 c6bf
000004a0: ad5d 1177 3e8e b8bf 7c08 834c d54b 763f
000004b0: 8f76 e374 8c6e b43f fd68 6f30 787c ab3f
000004c0: 04ac a13f cdf2 d43f a65c 7e63 d863 cf3f
000004d0: 21ca 642c 2f75 a7bf 58c8 205e fa03 7fbf
000004e0: 0e2b 501d 9da0 883f 5a6e e105 29d1 c43f
000004f0: 11f2 1281 7939 c33f 5982 0b9e 3e1c 983f
00000500: ed9b 27f5 1289 933f dcb4 fbb9 58e5 b7bf
00000510: 4393 edc6 8bec 8f3f b430 a54e 529e d53f
00000520: 5f9e 8dfb 13db c43f 9931 3704 8d5c c33f
00000530: 2c93 51b2 f188 d9bf 2424 b564 7a7d cf3f
00000540: 0b16 f400 06d4 d33f 160f 41cd 5487 e0bf
00000550: 34ea ef07 ab72 c43f 1067 158c c364 ba3f
00000560: 9bd8 bd20 2329 d93f e6d2 d005 2b0e cebf
00000570: ea43 95c3 e438 bf3f 897a 5b38 9cf0 c5bf
00000580: eb4b 0dec d7e9 d5bf d3cf 2ec6 5d13 d2bf
00000590: 46db 8742 cf4a afbf 8006 6497 ef57 a6bf
000005a0: 1c0e d30f c2ab d3bf 4faf ea3f 4cac d4bf
000005b0: 642b 9495 3602 d1bf 9923 fab1 4176 c4bf
000005c0: 51cf 0cd9 e928 b63f 813a c188 1efb d63f
000005d0: 4681 e4b0 61b5 a03f 8d1c d2b3 d2fa cc3f
000005e0: 13d9 f698 074d c4bf 8596 3e30 f3c7 c33f
000005f0: 3aef 301d 6a65 d3bf 0216 f456 5556 ccbf
00000600: 8a8c 4155 3657 c63f ce1c 0ce5 4343 a2bf
00000610: 8475 5045 033d ad3f e6e4 c43e e495 a73f
00000620: 08ea a3a1 195c bb3f d0ad 55c3 5454 80bf
00000630: 9a82 43b2 fe9b b2bf f500 558f b372 c6bf
00000640: d4a7 6392 8bd3 e3bf d17c fe59 8068 bf3f
00000650: 3fa7 13ac 24dd c6bf 04b5 2c4e d681 cc3f
00000660: a472 3371 882d c5bf caa3 cadb 0feb da3f
00000670: 4f40 be13 14a8 a2bf 247e d98d 1b6a ca3f
00000680: 0920 2ef1 666a cb3f a287 35d8 5c6d bc3f
00000690: 70c0 e001 9c09 dcbf 8871 c58b c9c7 c2bf
000006a0: a871 a34c c6b2 bbbf c17c dff1 5375 b33f
000006b0: 6573 bc15 f06b debf 443c 276f cb80 9fbf
000006c0: 7766 b8c6 d574 ad3f f003 5d07 1cfe c3bf
000006d0: ed46 6178 b8d7 9c3f 7a67 390c ebd0 bb3f
000006e0: 2fca b68b 5ff4 9d3f 24e1 93e8 2a32 d7bf
000006f0: a54c 0cef 618d cdbf 9a0b 9e70 62c0 d4bf
00000700: 8873 52f3 fa2f c4bf 8c58 50b9 ed96 d63f
00000710: 4b8b e07e 51a6 803f 23e0 4aba 6d70 cc3f
00000720: f721 3db4 3ab8 d1bf 9079 1161 2337 d3bf
00000730: 8f61 430a 0a0e a73f c723 0abf a321 c2bf
00000740: 7ff6 cbc0 b2c7 c1bf 36dc 9e6a ffaa bebf
00000750: 934a b931 bfc2 c13f 3fca 6220 9656 9a3f
00000760: 6684 455b 9d1d 94bf ebac e316 fa21 d3bf
00000770: 08ac 71e3 e51f cc3f 0c2e ba26 47ac d53f
00000780: 42ef 9f75 475b d63f 3a0e 42e4 765c ce3f
00000790: 7548 c3a6 4115 dd3f 9cf2 0e83 ee24 c2bf
000007a0: 3c92 8286 a59d cc3f 01c8 b500 34f4 b3bf
000007b0: c235 29a3 76d1 ca3f 245d 24ff 8b4e bbbf
000007c0: c4c0 febf 86a6 cabf d555 80bb 060c ddbf
000007d0: f806 599e d770 b43f ef53 1bda e026 a23f
000007e0: d03c 0459 0316 d03f c1f6 b4db e06c d1bf
000007f0: f9c7 9431 3cfd d33f 21e7 19e4 6760 c1bf
