Fuentes/model_rdim.npz (npz, 25834 bytes, 3 tensors)

V1 f8 [35, 41]
00000000: cb7b 6909 d762 c83f 5818 64bf a1d1 c93f
00000010: fa1e 90b5 ca7d c3bf 95f3 25aa c6ba d03f
00000020: 9ce1 cf36 3963 b63f 03c0 4498 5bb5 b83f
00000030: d6ba 9fd9 1355 b9bf 7448 ac6f b69a b13f
00000040: e27e a0b0 bc3e 53bf 48ef 13d5 3c8f d13f
00000050: d9c8 3563 c054 b83f c35c 5222 dbe2 c9bf
00000060: d751 eaf3 06cb 96bf ec95 1fa0 6b6b bbbf
00000070: 6b0e cc3a 3e33 c0bf b8a5 4eee c3e4 ccbf
00000080: fe77 70ba 3c38 cbbf 6008 a976 4713 bdbf
00000090: d0be 96d1 0569 d1bf 5b2d 39bd 0ccb 54bf
000000a0: 8f86 7e7e 7104 5ebf 0655 dab2 9f01 c7bf
000000b0: a607 dd05 c85b b3bf b907 3302 815a d0bf
000000c0: 2a09 08ce c1d6 cbbf 8b48 c8bc bb7d a53f
000000d0: 961e 81f0 ce3e d2bf c436 24f7 4043 b7bf
000000e0: b701 d898 47d6 a5bf 8670 2091 42bb c7bf
000000f0: c581 e3a4 8ea4 a83f 6d2c 999c d2c0 c23f
00000100: 445a 66ff 5978 bdbf 8cef 6e8a 5379 c3bf
00000110: ba33 80ce de08 853f b074 a3c3 53eb ab3f
00000120: c802 91c0 b264 c5bf 42d2 1589 819b a83f
00000130: 8b96 3e4e 667d c63f 6871 c842 8c8d b3bf
00000140: 0ad4 1d05 080a b23f 5b0f d207 f2a7 d3bf
00000150: 678f d081 b48e a93f 4237 e1ed 9823 a2bf
00000160: 81f4 2980 5a6e c33f 86e0 2022 4778 b73f
00000170: 4900 4027 8f44 d1bf dff4 1c0a f919 ab3f
00000180: 7d2f 8010 e697 c83f 4c7b ea30 dfa0 463f
00000190: e0f6 066e 2ed9 91bf 5a81 c883 e173 c23f
000001a0: e1b9 f8e8 f924 d2bf 2a49 38b7 f80c 753f
000001b0: 5c0c c4cc 534b babf 4f0d fcd8 7f37 84bf
000001c0: 7b4c 4686 4fa4 b3bf b3eb 2c3c 83fc 9a3f
000001d0: 142f dcd7 07e0 a2bf 8717 ae1a d706 93bf
000001e0: 0bb0 2952 2fc8 653f 3fb5 b80a 2e45 5e3f
000001f0: 3a43 0582 d9d2 d63f 82e9 0d26 8a52 d0bf
00000200: 8e61 d530 9cb9 d93f 64e4 f9f9 705e b9bf
00000210: aebe 344c 1e7b bcbf 603a 855b a1c2 c7bf
00000220: 38d2 f270 a92a d23f 9211 b859 6f17 c53f
00000230: f393 6f7e 3558 a3bf 9611 b889 5c36 a6bf
00000240: 83fa e63a 84b3 cdbf eee2 01fe 78b1 b03f
00000250: 0800 620f edce cbbf 4a60 328c ec60 bd3f
00000260: 34fe fc62 8466 bd3f 03fd b18d 968d d03f
00000270: cb32 cd1d a7a6 bc3f c2d4 ceaa 019b ccbf
00000280: 7fc7 3d24 bd07 b43f 0977 0c99 c0f8 c83f
00000290: 582a df02 aba2 b3bf be29 c76d 03da a43f
000002a0: c255 86fb 114c bfbf 45cc 98da a27d aa3f
000002b0: 4909 f2a1 c424 d2bf 6aef cb5b bede afbf
000002c0: 4912 b00a ea05 b2bf 6804 9eaa d6c0 d33f
000002d0: 8a6f e616 4bd0 373f f3d0 728e 0cd3 c5bf
000002e0: 5c46 9625 5791 82bf ea91 b565 7b0a c5bf
000002f0: 18f8 5860 1937 a5bf ca71 9f89 c761 c7bf
00000300: fd3a f4d2 d633 afbf a449 89d8 0367 b9bf
00000310: f0e7 c11f 5692 c33f 5c88 67b0 312c aabf
00000320: ca70 2d16 46e4 b7bf 6edf 045d 4ba0 62bf
00000330: 491d d017 e5ae 35bf 2bb0 09cb f207 b4bf
00000340: 9117 f034 6dab c03f 630b 1836 b492 c33f
00000350: 2967 a351 8653 aabf a385 cd30 c0c9 c43f
00000360: 4cb8 b980 c424 a23f 6fc8 48ab a773 7abf
00000370: f3d0 ac84 6eb1 a9bf bbd9 4369 7204 d03f
00000380: 0190 33c8 c027 b8bf 158f d172 03e4 af3f
00000390: bcae 1550 a322 dcbf c33e 8cf8 5d61 7c3f
000003a0: 5d9f ef47 419a b43f fb35 9dcc cbec ce3f
000003b0: 359b 4a18 db16 b23f 62c6 d0c5 60d6 c23f
000003c0: a8e1 644c 9edf 463f c6e6 e249 ec45 bd3f
000003d0: 67c6 057f fad0 90bf e29a f662 8e49 c43f
000003e0: 26c9 cb94 7bb0 923f 56c1 bdb9 0ad2 d0bf
000003f0: b62e 16eb b8b7 95bf 030a cebd 61f0 c6bf
00000400: 5bc2 d68c abb9 abbf 3555 5a28 0d57 ad3f
00000410: 65f7 dc60 97a0 a03f a1f4 63b2 1f90 613f
00000420: 98e8 1f1e fca1 d33f 5844 7350 62e5 b43f
00000430: c057 6fc1 7633 a4bf 9c5a 8a6e 7f67 cabf
00000440: 0a69 3ef4 4eaa ccbf 9c73 9a0d e627 aabf
00000450: b470 d108 beb4 b23f fa34 4231 cd0b a63f
00000460: eb9e 6c72 b20b b2bf 3ce1 b2d7 10f2 c43f
00000470: 0b5f 8c19 74a0 72bf 2f06 ef9e 594c 4abf
00000480: c03d 72a3 3e7a d2bf dc78 d6a6 b3f5 803f
00000490: bc2e c9a0 a85a d23f 36de 6c20 7006 aabf
000004a0: c55d a63d 429d d63f 69c1 fd1e 99e0 c13f
000004b0: 8a66 5d26 e3b0 bebf f6dd 3a84 6553 d53f
000004c0: 4300 e8da 1433 bcbf a8bd 1d1a c7e0 d23f
000004d0: e984 eb62 9e8d c5bf 8512 82aa a8a4 b93f
000004e0: e326 29d3 00a1 d1bf 48e1 55e5 58a9 cb3f
000004f0: 8b80 8b04 c379 b93f 2069 7711 d0f3 c3bf
00000500: b8ec 02bc f011 c83f 4348 b23d c91c cbbf
00000510: 32a0 d8f3 95c5 923f 87a4 cd93 4ffc bebf
00000520: b812 05fb 4aa8 cebf 5dde be80 c079 ba3f
00000530: 9b32 6104 dd5c b0bf 8e9a 2e1e a939 d1bf
00000540: 0d14 bb68 8cb3 c6bf d7a7 c214 d918 d23f
00000550: bd1d c8b1 33fa b1bf 6bca 7fc3 24ca d03f
00000560: 7b30 a676 c4c3 563f 0e49 5c80 9f9d cabf
00000570: 2e76 b0b0 6e94 c2bf 82b1 2287 9d14 d23f
00000580: 0306 5f04 7acd c6bf 0ad8 129e 96cb ab3f
00000590: e637 be70 40ff b9bf fc06 e525 da5a 90bf
000005a0: 5497 8745 855c b2bf 561e 4e4e 10cd 80bf
000005b0: 13c8 23a9 be64 d2bf 182d b4e6 d370 493f
000005c0: 403a 304c 6161 4d3f d3d7 0dfd b873 acbf
000005d0: ed56 5ee4 4160 d7bf 4a0a 35a8 5cf2 c53f
000005e0: e3be 752c ff15 cdbf df40 a723 bb3b d0bf
000005f0: 20ea 65b2 663c c13f 2874 fff2 1b7a d53f
00000600: 0561 5c7d d20b b43f 7efc 1bc1 ba76 96bf
00000610: 7877 8ceb f674 a9bf 6e3b b512 2520 b43f
00000620: 5b60 c8a2 bf68 c13f 34a8 7bb2 dfd5 d63f
00000630: 1674 8cde 8670 c93f d1d1 a21c 9fcd c2bf
00000640: ea9d 5ce8 cc35 c7bf f68b ad15 1261 c23f
00000650: e339 5e5d e20e 9abf 6011 d651 2ae5 903f
00000660: 9445 05b5 c355 ac3f b3b2 a222 4822 cfbf
00000670: 4e0f 5ba6 fc34 d3bf abab 4f7b 2505 d3bf
00000680: 686a 7e8b df4d b93f 370c b804 abca cf3f
00000690: 0f32 0025 dcbe b5bf 7651 4e6a c461 9b3f
000006a0: 05de 0d0d 2fb4 95bf c934 9ee7 48ea 323f
000006b0: b2ca 6e39 9642 c4bf 802f 8141 d6de b3bf
000006c0: 1747 5e9a 26c5 b6bf 2e3b 530a e2a1 953f
000006d0: fd34 a4a7 4094 bc3f 5b73 0973 3359 cfbf
000006e0: 741f 53c7 0b5a b63f 6670 61bb 61ae a23f
000006f0: 6228 d453 4596 a33f 2fba 0a6d 248e c9bf
00000700: f799 93b4 cdfe 36bf 93f7 b83f f518 313f
00000710: 2788 24b0 3296 973f 1431 a2e0 2092 abbf
00000720: 3648 e109 8d71 d4bf 687d 45b2 8714 cd3f
00000730: 909c 48e2 9a67 d43f 270a d655 f29a b63f
00000740: a964 b952 dd7f b2bf f97a f381 067f b8bf
00000750: b246 8174 2b31 9fbf d830 eb3e c1e5 d93f
00000760: cd4c 3f21 7b45 ab3f d7a4 cd20 b484 bf3f
00000770: ab27 56eb 6545 c63f bfe3 dfeb 2af8 cf3f
00000780: e9bd e000 a83c c93f 9c9c 7caf e854 c73f
00000790: a770 9a95 6217 c83f 98b4 a544 ba9f bf3f
000007a0: 178d 10d7 8a9c a93f 65ab 1589 cc3a a83f
000007b0: fe16 df57 7317 c43f c952 603c fb28 d1bf
000007c0: 30a5 124f 85e3 c5bf cfce ed50 d0d3 9f3f
000007d0: 258a 62be d612 babf 63db 81fd 2858 ac3f
000007e0: 91c7 7ecf f35f b7bf 264a be94 00d2 c6bf
000007f0: f338 43fa 3813 263f 049b a198 3c06 c2bf
0.1905163570363285 0.20170995564712046 -0.15227636208896184 0.2613999044040665 0.08745153034386138 0.0965173002957727 -0.09895443022808634 0.06876697756186606
-0.0011746256518633748 0.2743675309027265 0.09504320547219737 -0.20223559547296163 -0.02225886214962877 -0.10710785540830842 -0.1265638148398581 -0.22573136459440746
-0.2126537237499519 -0.11357542654971686 -0.27203507869397203 -0.0012691139608190436 -0.0018321140614507047 -0.17973705514001653 -0.0756192220988213 -0.2555239221074959
-0.21749136505247552 0.041974894327851585 -0.28508351790194675 -0.09086996110655848 -0.04265044918793442 -0.1854022225023792 0.048130471828475 0.14650948187258753
-0.11511766896578829 -0.15214008578720628 0.010270825077918978 0.05452977908292078 -0.16713556673678043 0.04806141661075404 0.1757018930485866 -0.07637859945720538
0.07046556591906508 -0.30712557567334436 0.049916878553885984 -0.035427836454444264 0.15180522211077022 0.09167904456342243 -0.26980952103622663 0.05293253181887691
0.19213558011722034 0.0006905641365227782 -0.017430043664481754 0.14416140494086954 -0.28350684882289384 0.0051393237549908575 -0.10271190404096003 -0.009871481713622869
-0.07672593143642985 0.026353884265727334 -0.03686546812067895 -0.018580780986233527 0.002658932136275998 0.0018475484493010866 0.356619240735245 -0.2550378200172859
0.40195374268434925 -0.0990973100941957 -0.11125363693713083 -0.1856271454693852 0.2838538744938748 0.1647776783066886 -0.037782355960906865 -0.04338349515095101
-0.23204090953909792 0.06520801736213475 -0.21725238085855403 0.11476019308827393 0.1148455373449842 0.258641851782116 0.11191791989876802 -0.22348042335730695
0.07824308523939115 0.19509131882744438 -0.07670086689101063 0.040725810194618614 -0.1222544898103797 0.05173977774065767 -0.28349414648996124 -0.062246273713724445
-0.07040274392063241 0.3086449304756287 0.0003633673976766108 -0.17050320582860187 -0.009066277346195743 -0.16438238588592863 -0.04143599797360781 -0.1826714918123698
-0.06094237637636544 -0.09922813450365325 0.15290333319336424 -0.05111842420934984 -0.0933269313949864 -0.002273699945501243 -0.0003308591183785637 -0.07824628312090513
0.13023152432304788 0.1529145492678153 -0.05141849276124184 0.16240694411230291 0.03543676444392982 -0.006457953412381297 -0.05018182153290409 0.25027141837872663
-0.09435658347825894 0.06228647972673521 -0.4396141321255802 0.006928793977536154 0.0804787445664465 0.2416014432041463 0.07066125243237027 0.14716729792557987
0.0006980441037632195 0.11434819034448215 -0.016422189715234483 0.15849475700561927 0.01825135322264617 -0.2628199399832928 -0.021208657597113066 -0.17921087043585268
-0.05415092558121578 0.05730477445210128 0.032475214552035316 0.00214391890324224 0.30676176969394353 0.08162512268178668 -0.03945513831392544 -0.2062835016010539
-0.22394740034071275 -0.05108565250450356 0.07307040896688727 0.04305878855039143 -0.07049098294794091 0.16363726169744008 -0.004547551646076685 -0.0008025586702091243
-0.28871122323559106 0.008281138924584423 0.2867833681272989 -0.05083036800209266 0.3533483125733848 0.13966669095271847 -0.11988658606187577 0.33321512139397613
-0.11015444130316702 0.2949693446198247 -0.16838435964658707 0.10016874468608179 -0.275451856815023 0.21610556791325508 0.09951418744049272 -0.15587807515005014
0.18804749660725917 -0.2118159819843318 0.018331854828062606 -0.1210374580238228 -0.23951089150263782 0.10342028754427575 -0.06391698223996871 -0.2691443247553388
-0.17735438455397948 0.28276659991626957 -0.07022402849553706 0.26233786670414955 0.0013894480312926216 -0.20793527381517446 -0.145154796861719 0.28250826069668034
-0.17814564908444205 0.05428763084039197 -0.1015510821582378 -0.015971573412804738 -0.07172425220013895 -0.008203627957995934 -0.2873989726787169 0.0007763895677341008
0.0008966183744421666 -0.055570393457784605 -0.3652500848923939 0.1714587994884645 -0.22723378821273518 -0.25364569169779644 0.1346557971081248 0.3355779526735341
0.07830539284293898 -0.02193729213376771 -0.04972049355840985 0.07861549097763795 0.13600917290091527 0.35680382184966963 0.19874654642708894 -0.14690007112734674
-0.1813293585375811 0.1435873609399036 -0.025447403858885564 0.0164991962860922 0.055341831061592434 -0.24323369685352744 -0.30010906453775454 -0.2971891121111933
0.09884450107203124 0.24837243776718917 -0.08494354155863724 0.026740139950179174 -0.021195159122241253 0.0002886226644641219 -0.15828206829390506 -0.07761897181734234
-0.08894578236347815 0.02112534702319662 0.1116371545105785 -0.24490969769513068 0.08731149307561542 0.03648667728768444 0.038255850298882135 -0.19965033840476695
-0.0003508808336633302 0.0002608870270001059 0.023033897400758143 -0.05384924642666725 -0.3194305988773779 0.22718902783069983 0.31882354829799286 0.08830179782493329
-0.07226355809815978 -0.09568825409540328 -0.03046100519742962 0.40464812416463536 0.053264472778801066 0.12311864662992221 0.1739928626159871 0.24976097600281652
0.19716358225694755 0.18227871483506852 0.1882136564717076 0.12353099990805771 0.05002244830418528 0.04732360051533283 0.15696565428350334 -0.2681263055431314
-0.1710058818910425 0.031081442775259312 -0.1018499579245505 0.05536010832377405 -0.09130786720086649 -0.17828376067025536 0.00016841955687713731 -0.14081532910059746

V2 f8 [25, 35]
00000000: ff5c 56da 7a0d d2bf 2fa8 5e6b 1acb 91bf
00000010: a06f 07dd 43fa b8bf c212 dc06 2b7a a7bf
00000020: acd2 26ca 23f9 cabf 5b47 17b9 9602 9abf
00000030: d2d3 b012 9096 d53f b049 a802 97b0 a3bf
00000040: 2085 9447 94e3 d73f 6de2 0387 f690 b6bf
00000050: 4c3e af18 7cff cf3f 2ec3 e8ff 312e d13f
00000060: f9a0 69d5 c6ba d83f 50c7 935c ac27 ccbf
00000070: f6a1 ec0c b4c3 da3f 638a 4aae fc4d a6bf
00000080: 6972 f9b4 8a6d b9bf d6dc aa49 dcc1 cbbf
00000090: 88d3 83ec f38d afbf d41a 758a 1ebf a23f
000000a0: 7152 8a4f bf9f cd3f c465 9984 9b28 d83f
000000b0: 1b7c bb05 65d7 c5bf fc09 3483 759b d5bf
000000c0: 10f6 58a5 0591 d5bf d2a9 9772 8279 af3f
000000d0: 9079 38f1 4894 c9bf c134 0549 a521 d33f
000000e0: 30fd 5aa4 4025 b03f a58c 1fc1 809b c7bf
000000f0: c104 e1b0 9441 d43f a13f 965f 3d72 b7bf
00000100: 4a8e 4536 2b26 c33f b0ec a181 101f b63f
00000110: ebba e1ae a611 bdbf 8fd0 e862 74b7 a5bf
00000120: a8e3 50e5 4c2e cebf e1a8 d53a ddc6 bd3f
00000130: 40fb 182f 389c cbbf 5498 8bab 7576 b8bf
00000140: c48d 7d10 d22f d13f 1613 308c 2370 d7bf
00000150: 6a42 c702 750a c7bf 1ebb c318 1b50 b0bf
00000160: 9ff6 4605 2fbc c53f c590 632d 69fc c63f
00000170: a3cb 151e 8f4b 56bf 24ee 16f1 955b c13f
00000180: 096e 5e00 a06e c1bf b824 aba4 ce9f c4bf
00000190: e552 d819 0899 d43f 7850 11da a329 90bf
000001a0: a24a 8e60 9d23 ad3f 85bc 9ab8 2c9a cd3f
000001b0: 2c2e 68e3 e212 c5bf 76c7 2804 18c6 ad3f
000001c0: 613d d12b ed19 cbbf bfd5 f802 5197 c8bf
000001d0: 2147 2e3a 9bc4 bf3f 34f4 acd7 2c79 d1bf
000001e0: b447 dc12 a5be af3f 678d 43e9 3f73 d9bf
000001f0: b475 2320 0f69 bebf fa8c 6e62 320a cc3f
00000200: 913a 790a b420 b33f 9d78 b328 e496 95bf
00000210: b2e0 cf08 7152 043f d127 fb33 356f c43f
00000220: d119 7aa0 baaf a03f 7d2f b4da 2f0c c53f
00000230: bd58 e2f6 8348 bcbf ce55 bea5 70d4 b2bf
00000240: 2e2f 4173 8678 b73f 6b61 f4e7 3164 b4bf
00000250: 6792 d84a bfd3 9abf 5682 e429 df57 9dbf
00000260: 4c8a 7efc 786f b73f 4b55 0db5 f6d1 d1bf
00000270: f2f2 cd20 03ac 9e3f 30f3 1683 ae78 c0bf
00000280: fbf0 e60d e99f cebf 474f 4e0e d21a b7bf
00000290: 26d6 8b5c 0ebe ab3f 55c0 0c84 05ca ccbf
000002a0: ba59 5a5c 7cac c6bf e2fd 9e2c 9f32 9e3f
000002b0: 0198 5102 65eb dabf 34c9 6e0c 9795 dc3f
000002c0: 67d2 7027 71e8 b23f ad70 8459 b452 b43f
000002d0: 5790 cf3c 6765 c13f 4545 36ba 0929 c9bf
000002e0: 5472 6f6e e2c3 ae3f 301d f0f6 595b b3bf
000002f0: f81a bfeb 11ae d03f 2239 2d65 446a cc3f
00000300: beb5 0daf e078 c23f 63ed 98d9 48d4 c83f
00000310: 82a4 a7b4 162e c4bf 3bbf da3e 545a d1bf
00000320: 678c 5936 24e6 bfbf 7c7d c4f2 f0e0 c8bf
00000330: 1c6e 9f9d 2ff3 c2bf 5c9e 4828 0702 a23f
00000340: bd7a f301 1c82 933f 3f67 ccee a199 9b3f
00000350: 5a73 12dd dc51 c93f 6851 e1d9 c4ac b6bf
00000360: 6223 5756 d97b c4bf 0f69 1589 1bdd c03f
00000370: c2c9 c998 c16c a3bf 4817 bac9 a348 a33f
00000380: e623 6b30 ee9c b93f bfbc 20fe 233f b2bf
00000390: 102a a248 37e9 d6bf cd33 e809 2698 b43f
000003a0: a48a 922a 09dc da3f 384b 59a3 f0ea d3bf
000003b0: 0f99 e15d fc26 c13f 7a14 7dd8 9451 d9bf
000003c0: c9dd 6f38 518f d13f c307 677a eccc c53f
000003d0: b020 55c8 baef aa3f da54 129d 6f9b 96bf
000003e0: 564f e30c e246 c03f 2603 05b1 e8c4 c83f
000003f0: 91d5 d7d0 050f d93f 85b4 b496 8e1c c13f
00000400: 22b5 880a cdd6 ac3f 0bdd f817 2f6a b9bf
00000410: c116 d6cb 0734 c13f 1efa 0cf4 1819 bebf
00000420: 83be 9bb2 7895 b6bf 716a 649c 7955 bb3f
00000430: b957 947f 38c3 d2bf a8ad cd50 903e d13f
00000440: fdf4 becd 0e98 d2bf cbbf 57e0 70f3 963f
00000450: 4299 e2b5 8094 c43f 70de 2cbf 2c33 823f
00000460: 922b 9e4c 55ac ae3f e85c 1d4a 809f 823f
00000470: 3308 0806 47da d23f 1c64 0a59 88e7 c13f
00000480: c676 3b02 2e61 d53f e591 f920 debf b23f
00000490: 488b fde6 5e90 d8bf 9500 c147 ce82 96bf
000004a0: c047 d858 8011 ce3f 81d1 4279 1bc0 cdbf
000004b0: fac4 b2db 9baa 833f 4acb 3447 6b06 bcbf
000004c0: 2a51 fbc6 5ce5 c6bf 0c94 53cc 7a0c d1bf
000004d0: a7b7 ff0f b165 a6bf a02a ca4a 2c90 cbbf
000004e0: a639 30f8 6513 9dbf eed0 e5ae ba5b cc3f
000004f0: 4dc7 6150 65f1 ba3f 722f c31f 700e afbf
00000500: 910a 3bf5 a749 a9bf 7731 b6c6 a523 c13f
00000510: 1667 6e99 0abe c6bf b1b5 7405 3b1a a4bf
00000520: 0feb 4bda 99db d6bf 25db fd5d 109d aebf
00000530: 7b22 b5d9 fde4 d33f 4175 6146 72a2 d73f
00000540: 2684 f805 5e73 ce3f 6d78 7bbc d324 97bf
00000550: 5994 6b99 9744 ac3f f5c9 ce30 afaa d63f
00000560: 0270 4f17 b210 c5bf 42b7 75ae 1baa c53f
00000570: 56e2 bd65 e54c b7bf f2ae 9c13 5c8f acbf
00000580: e573 df63 1ba3 c13f 2f5c 6499 80c7 b0bf
00000590: d3c3 d057 c933 d0bf 1b76 878e 3e58 aebf
000005a0: 8439 152f 1254 9fbf 57a4 aba9 3667 9b3f
000005b0: f339 7c32 4ff3 aabf 5ad3 8f73 9c78 d63f
000005c0: abf5 5150 b8f0 c0bf 23bb bea1 c4f7 d33f
000005d0: 95ef eeff 5813 ccbf d7cc 63e4 e56c d7bf
000005e0: 19cb 3168 73a8 ae3f 5ac0 8deb b467 813f
000005f0: 6f85 391a 519b d5bf 02a8 97bb 1f39 cabf
00000600: 99db dd1f d00f cebf c0bd 1aaa 30f2 e13f
00000610: a208 357a f64d a8bf 1e0e 041c 5a3d abbf
00000620: 3025 0992 f46d 9b3f 35e9 db43 65d0 b53f
00000630: b6e6 b3a4 4fb1 c2bf 4f41 8c77 a121 983f
00000640: 643c 11a4 bf1b 893f dd75 f44b 2299 b9bf
00000650: db29 59d7 481e d1bf 45ef fa93 1740 c4bf
00000660: 8f35 b37f 2d10 d73f 9585 6b58 e7d5 c23f
00000670: 25eb a4a7 6fcd c9bf 6ba4 3ec2 36e6 c7bf
00000680: 41d8 b5c4 9cb7 b9bf 7ae6 2a5a 3277 b7bf
00000690: 7f31 a911 3d99 d9bf 863f 27ae 3805 d23f
000006a0: db01 0947 d8ec b23f 326e 8c4d 2116 cdbf
000006b0: 1bf1 525f 8b3c c63f 0894 2b8c 41d1 debf
000006c0: 33b0 fb20 2084 783f 097d 1681 d979 b2bf
000006d0: 6b2c cbdf 732e babf d475 449e e643 bb3f
000006e0: 7815 d341 67f8 c53f 3925 e408 eb3a b2bf
000006f0: 3da0 1de4 5d67 d13f f1db 8e29 ff99 b9bf
00000700: 785b ec0c c974 d0bf e805 6a8e 49a8 a6bf
00000710: b7d9 a89f b59d b13f 4dd9 dd75 018b ccbf
00000720: f1e4 bebb 752b babf e10b a60c 49cc 96bf
00000730: b4f0 7575 b366 ba3f c02b c376 cb9a cb3f
00000740: c188 f596 c3fc b5bf 98a4 f946 bd30 cb3f
00000750: d267 8053 dc85 b4bf c441 f04f 66c4 ccbf
00000760: 9652 86e7 def7 9bbf ac9e 14a5 a422 693f
00000770: 2109 a669 f8c9 aa3f a8c1 fe10 4148 ca3f
00000780: a2fb 0f7e f9a5 95bf 1563 5f91 f0be d83f
00000790: 8f22 e5c4 9efe aabf 687d 1b23 4e93 c1bf
000007a0: 3e57 6219 da40 ab3f 04e4 49ef effa 69bf
000007b0: 9b1c a7c6 f813 dcbf 063a a2f0 1740 a8bf
000007c0: caa7 ca55 e52e 953f d08e fe2d 1ce8 b9bf
000007d0: 5bde ed47 6404 c13f 93be ae80 e110 ba3f
000007e0: 4aa4 4712 ec2f a2bf 0b05 714c f7ed d13f
000007f0: 93e6 ae8b 3603 ce3f ca31 6002 6cd9 aabf
-0.2820727474404094 -0.017376339724855135 -0.09756874223916023 -0.04585394343124484 -0.21072814341245782 -0.025400500342420567 0.3373146231199914 -0.038456648897539636
0.3732653330826725 -0.08814945980328455 0.24998427586841598 0.26844453803191726 0.38639994469714584 -0.2199607326543238 0.4181947828497238 -0.043563743854311075
-0.09932772558517801 -0.21685365292589748 -0.06162988912721007 0.03661437454370789 0.23143760093502722 0.3774784846223975 -0.1706358221044589 -0.33761346638507894
-0.3369764437410092 0.06147391938050685 -0.19983779695844506 0.2989285672272893 0.06306842815955771 -0.18443307332845396 0.31650273583734295 -0.0915869100920177
0.1496023192404315 0.08641150631767647 -0.11355058450292758 -0.04241527278318912 -0.2357879752833274 0.11631567655937004 -0.21570493983923633 -0.09555755079381473
0.2685437356032845 -0.3662194127103232 -0.1800066245619008 -0.06372231821636062 0.16980540998149693 0.17957796779876936 -0.0013607881195098835 0.13560747405959817
-0.13618850725184498 -0.16112692871528167 0.3218403103249286 -0.015783844170372124 0.05691234401378621 0.23126753820313098 -0.16463886360030366 0.0581519608571303
-0.2117287124587888 -0.19211781163327932 0.12409372492245697 -0.2730209451872867 0.06200137953977905 -0.3976592805831473 -0.11879057440406521 0.21906118208162423
0.07471776252462294 -0.021083416923709398 3.876120999985032e-05 0.1596437934697961 0.03259070595690939 0.16443441561602504 -0.11048149850316498 -0.07355407759162988
0.0916828185447087 -0.07965385353998548 -0.026198376601444553 -0.02865551655952666 0.09154468693172041 -0.2784401672446008 0.029953049542643613 -0.1286829128347562
-0.2392550771600169 -0.09025299882187908 0.05418438796725082 -0.22491520831818215 -0.17713884839458932 0.029489981745198686 -0.4206173441547208 0.44663025106560217
0.07385928357036563 0.07938697038156546 0.13590708226468237 -0.196564880298448 0.060088230114818814 -0.07561266211279327 0.26062438985938696 0.22199301662698995
0.14431389377152287 0.19397841095802013 -0.15765651532209196 -0.2711382497609411 -0.12460542990588551 -0.19436466077693726 -0.14804644771980768 0.0351717220949552
0.019051015490613155 0.026953249168492063 0.1978107528165321 -0.08857374495830117 -0.16002957073058172 0.1317476672509845 -0.037939119244487354 0.037663572668903245
0.10005081827252091 -0.07127594904226252 -0.35798437207327627 0.08044660322066406 0.41967991979087516 -0.3112145991519131 0.13400225242657668 -0.3956043352266715
0.2743723918096888 0.1703162763279221 0.052610241846708816 -0.022077316247835245 0.12716317776959823 0.19350918429884095 0.39154191393694143 0.13368399008451007
0.05632630113209759 -0.09927648864037424 0.1344003434461936 -0.11757045706051669 -0.08821825371318863 0.10677299564523836 -0.29316532572681414 0.26944358721695005
-0.2905308732259327 0.022413028424068487 0.16078194504843607 0.008886670669752322 0.05990854797626989 0.009093286763955225 0.294572597398772 0.1398783144730097
0.33405637948986244 0.07324016861964074 -0.38381168897301565 -0.021983359460364744 0.2349090989887923 -0.23242515011737555 0.00960275425163325 -0.10947294701035762
-0.1788745853033416 -0.2663866992355117 -0.043744595721235506 -0.21533731128541422 -0.0283943112117925 0.22154935398032854 0.10524590694856535 -0.06065702808117991
-0.049390076337222706 0.1339003772994933 -0.17767460338364377 -0.039262623229983425 -0.3571533805658626 -0.05979205272062974 0.31085153828147555 0.369289940577648
0.23789572993794755 -0.022601421717688575 0.055210816839271266 0.35416774526961997 -0.16457201135824567 0.16925378817125575 -0.09101709112099718 -0.055781247514770885
0.13779013039211843 -0.0655441641323342 -0.2531607968876958 -0.059267001055314426 -0.030594143031799984 0.0267609158571854 -0.05263755313182008 0.3511115196736704
-0.13234619066126405 0.31199756427206377 -0.21934044358010554 -0.3660216074342321 0.05987892767816145 0.008498586119202556 -0.33760478554730516 -0.20486828479562297
-0.23485757404315846 0.560814220652837 -0.04746980897699983 -0.05320245353689422 0.02678663388568231 0.0852111139937833 -0.14603610555768903 0.023565791055319803
0.01225995749896764 -0.09999288896911858 -0.26747342138392377 -0.15820593572231637 0.36036241026598587 0.14715282266028554 -0.20158191381218518 -0.18671307072262108
-0.10045795252321545 -0.0916625471244518 -0.39997793888758076 0.28156868941459157 0.07392646536118923 -0.2272378567366658 0.17372266916744014 -0.4815219754075888
0.005985379699023285 -0.07217177774008489 -0.10227131093704293 0.10650483478499179 0.17164316858376671 -0.0712115189272894 0.27193400647093197 -0.10000605358696625
-0.25712801229513316 -0.04425268042997371 0.06881270549715778 -0.22299211745457584 -0.10222564538607394 -0.022263661763201163 0.10312959306424113 0.2156614618200745
-0.0858881228973898 0.21242490735611308 -0.08016755140889067 -0.22474364188430063 -0.027312739258905504 0.0030682769508024368 0.05232216157584647 0.20533002214280072
-0.021140955275764768 0.3866540355352737 -0.052723847899476366 -0.1373078986571088 0.05322915611138378 -0.003171414015295417 -0.43871898078618593 -0.0473639947168643
0.020686705933861828 -0.1011979687014517 0.1329465247360869 0.10182008163132598 -0.03552186701910694 0.280149292611967 0.23447305508107216 -0.052440047540673954

V3 f8 [18, 25]
00000000: 72b2 b15e 1510 d3bf 6b51 8a1a 0436 cabf
00000010: af86 2e89 5a8b 9fbf 1177 e03f f82d be3f
00000020: 0da6 5058 5f1e c6bf 0f89 0dd4 4a55 c7bf
00000030: acd3 d9d0 9ff4 d23f 7734 f12b ae29 b33f
00000040: f802 e625 3a45 d2bf 1c3a 72a2 06b8 d43f
00000050: ba28 0ca2 3c56 96bf 7fa4 ff02 859e c23f
00000060: 0dd0 df5b cc54 983f faf2 25d1 d9d4 b63f
00000070: 3d74 8c4c 82a2 d0bf fdea 28a0 31b2 ba3f
00000080: fa6e d7ad 47f1 d1bf 8b1c b065 6ff2 b2bf
00000090: 484c 5eb3 741c c63f 29d0 0956 034d c33f
000000a0: abab bee9 fef0 d03f f470 4e67 65fd d2bf
000000b0: afcf 4411 09de cc3f ed30 2cb4 4963 ccbf
000000c0: 8c3a 3cd5 b572 b7bf d00c 44d8 a767 c73f
000000d0: f2cf f54d f277 c2bf 61c9 9bc3 f6b6 a83f
000000e0: 5aa2 7b72 b987 d1bf 876f b21a d9a9 c9bf
000000f0: 18f0 98cf 91de c03f 863e bcaa 703a c83f
00000100: 7d05 7081 ea8d c5bf 0fd1 c90a e76f bf3f
00000110: ed06 9410 8896 c1bf 158d 2022 b2a6 cf3f
00000120: 20c8 51bb 42ed 953f 3868 f714 3b6e d53f
00000130: 6df7 5269 162a d53f 54c2 12c4 5098 cdbf
00000140: 45ee 302d dc8e ccbf d8c1 e2c8 6c2d c7bf
00000150: a500 1307 ddaa b3bf 8cc5 ccdd 9797 abbf
00000160: 7ae2 f2f2 4066 b9bf b4d0 cc44 3239 c4bf
00000170: 0cb8 1d92 05ef bd3f 86d9 5f58 f5a4 cf3f
00000180: 4a0a b222 0ad0 c4bf 410b 580c 71ae d83f
00000190: 4093 04c8 c0eb a3bf 9285 ca03 3608 c63f
000001a0: cc35 4bcb a6b4 d53f 63ea 64fe ce8b 813f
000001b0: 97ef 3f00 a977 d0bf 0448 154e d3b2 c5bf
000001c0: 714e 53b5 41d1 aebf 9d9a 658b fb1d cabf
000001d0: fa4a ba1e 82c6 cbbf 9fd7 30e6 f84a a9bf
000001e0: 98a1 a913 8c82 a93f 18d2 26a6 3455 bfbf
000001f0: 38d6 74f9 c915 b73f 0743 9975 f8c3 bcbf
00000200: 1d31 cc54 4f60 b03f 5f0f f0e7 465a c0bf
00000210: 3a27 81ac 2a16 78bf a24b 0d7c 81a1 d83f
00000220: 218b a0cd 43a9 dcbf 7f54 5662 6d44 de3f
00000230: 7ede af3f 7fed c03f 544f fccb b123 a33f
00000240: de3e b07b 065b ba3f 1cda 0475 a784 a33f
00000250: 1601 6057 e679 a73f e6cc 0482 0d01 b63f
00000260: 898b d00b f599 c63f 190c 63bd 501e babf
00000270: e166 ba80 a371 a63f 17b3 010e cdda d5bf
00000280: 938e 908a f643 a9bf 3278 f000 78e4 aa3f
00000290: d174 d6ea 0485 c5bf f8ee e957 152b a9bf
000002a0: a9ac eb4b 084c 893f 4146 f3fa 7406 c8bf
000002b0: 41f2 34ee 547e e13f 58b7 8ff8 f73a d6bf
000002c0: 87a8 b044 fad5 bd3f 5d43 ae7b f936 b03f
000002d0: f2a9 a190 68dd d9bf 70af cf3e 68a2 5fbf
000002e0: 560a d376 a87b c3bf f8c1 a04f dcce ac3f
000002f0: 9028 69fd 8d23 b53f f539 0af8 793e acbf
00000300: 7e66 248f 0a94 b7bf dc07 86ca fd27 cebf
00000310: 7bd9 7105 ed15 c83f 82ff d884 9853 c43f
00000320: 8b0f 6442 d26d 9fbf d4a7 baac 54c3 ad3f
00000330: 1bbd 1299 f65c de3f e61b 7107 1ce6 c5bf
00000340: c753 0fa2 2031 b63f c89f 9ead faba 99bf
00000350: 1f1b a23b 91c6 c43f 804a 7516 1a7a cd3f
00000360: 077c f73b 6b0c b93f 2aba ecd2 1c46 b43f
00000370: 06c6 82f8 6981 e0bf a5c1 c3ca 7f75 89bf
00000380: a109 378e 1c5b d0bf ad34 70d2 9236 ce3f
00000390: 60e6 7c54 9eb8 c6bf ed98 79de 0277 91bf
000003a0: 5ae4 3539 d613 983f c4b5 d4bf 3930 d13f
000003b0: 75b4 2c4c 41ab c1bf 33b7 398a 273b d1bf
000003c0: 31bb 6bcd abe9 c7bf 568e 46f4 395c aebf
000003d0: aa5f a504 b512 ae3f 9b24 a84d 03f7 bcbf
000003e0: 7db9 b75d 52cd 79bf 88c6 3092 3137 c03f
000003f0: 0476 deb2 e534 b93f d4f0 5aeb f17c 973f
00000400: 3c04 53d7 e483 d0bf 9650 baf6 6fa7 b5bf
00000410: 6a38 3687 b923 e0bf 313e 25b0 89cb afbf
00000420: 338b da90 a03c e23f 6214 bcbb a0e5 cebf
00000430: c4fe 9bd1 2219 b2bf 5191 34d9 500f bd3f
00000440: e8ce 73be 17dc 9c3f c5a4 3d92 c63b cd3f
00000450: 6057 3267 84af bc3f e5f0 cc1a edc2 b63f
00000460: 9051 8288 b63f c8bf 80a2 1898 badb c43f
00000470: 2c9c e4fb 8bf5 c0bf 1f12 6f48 8c30 bf3f
00000480: ae82 d139 1566 ac3f 41f2 ba3c a095 b5bf
00000490: a76e 1b33 fc02 c23f d3a9 8366 b9c3 bdbf
000004a0: 73d4 288c 1e81 b9bf daa3 96fe 91b3 c1bf
000004b0: be91 f036 3905 c0bf de82 fed2 ebc6 c63f
000004c0: 0e91 7feb dbe2 c8bf b334 a88d 14dd dfbf
000004d0: 7305 2a32 ab82 d03f 6dd1 d240 b18e cebf
000004e0: 9c7d e6f2 9b9c a43f 0f87 954d 9fc2 c7bf
000004f0: 46fa 66d0 3769 aebf 2441 bce8 1070 c93f
00000500: 1d8b 3cb9 f316 c6bf f49a 25bd 4d8f c3bf
00000510: 7421 1da9 8d04 973f 3650 2ec8 93f7 943f
00000520: a7d2 65c7 f465 cdbf ab47 fb3f 810b c13f
00000530: 77fd 8710 43df c03f 58c3 094f 54f2 c7bf
00000540: ffd7 6175 4b47 a8bf cc28 f58f eedb b83f
00000550: e33f 04f2 df66 c13f e647 cae4 5a51 9abf
00000560: de0c 6fcd f504 a23f e7f7 a0bc ceca da3f
00000570: 067b 514e cc1d d23f 82b6 1fc2 44bd c2bf
00000580: 1c4a 0298 bcf9 b1bf 293a 15c4 2d5f c1bf
00000590: 54e3 4e72 e227 8cbf 5a4a 752e 16c0 903f
000005a0: b5ed 0ee0 415c bf3f 6a6b 7d56 7912 bfbf
000005b0: b393 8a46 e137 cf3f e6cc c39c a5d8 c33f
000005c0: a9dd 2d7f b7c0 9abf 3b54 402f c3ca c7bf
000005d0: 1aaf a480 9f5f ce3f 1f84 2378 c6dd c63f
000005e0: 7b44 116b bab3 dfbf ffa5 d54a d8b2 cabf
000005f0: 8f1c 11f4 d1a0 d2bf 454e 9438 72e3 d23f
00000600: db41 b852 aa77 acbf ccc4 4860 db3f d0bf
00000610: 5a16 1895 f9ee b6bf 9a04 7e48 9504 d03f
00000620: da18 0ba0 8ac8 a9bf b2ed 00df fd20 c33f
00000630: f4b0 b451 9aec cdbf 422d 6b7e 1a79 c93f
00000640: a6d2 7bc7 e473 cf3f c211 0435 0e15 d2bf
00000650: ef87 b60d 2e77 e13f 1b44 a0d4 04cd 60bf
00000660: 2d6f a83a dae9 acbf a554 2c70 8fa4 b73f
00000670: a615 e06e 7292 b43f af91 59f3 4d9f afbf
00000680: d9c8 de2b a11b a8bf 5941 2111 6c8d 9bbf
00000690: fd3c 34d5 e7cd a2bf fd4e eac6 d423 b8bf
000006a0: 9318 231c 0f0f a73f c798 b9dd 9fd4 bdbf
000006b0: 276e b9b5 2ddc 823f 8107 4610 f7bb b33f
000006c0: ea24 8bdd 6976 c23f b304 55aa 2036 e3bf
000006d0: c92a 51b2 1328 babf 5f13 bd1f 21c8 b03f
000006e0: eedd 9efa 89d9 c23f b787 e7f9 b4c6 c8bf
000006f0: 9635 3f6d 7233 cabf bb0f 5c74 41af b43f
00000700: 49a9 c069 4a0e a4bf cb47 672b 0026 6ebf
00000710: 1de9 7368 b93d d4bf 9b14 e148 dd25 a73f
00000720: 31f6 f070 d9fe d33f 7cc0 57e8 b32c d53f
00000730: a2c0 868b ef25 d1bf 6a9b e203 b768 c83f
00000740: 009a 9a25 b2e3 9abf b596 6c58 9112 ccbf
00000750: 8047 63b7 8d31 bf3f 2485 31c1 aecb c23f
00000760: c68a 5d5c 8fc5 c43f 84e1 d44d d1f1 c53f
00000770: a27b 2307 08f3 b8bf 1903 4d51 8f18 b7bf
00000780: 7320 6911 f2d7 bdbf e3e4 ea55 c190 b9bf
00000790: d48f 8c4d f05e c83f d56b 3b08 a913 cebf
000007a0: 2a43 6edb e6eb d1bf bb84 cd27 b05e c1bf
000007b0: bba8 e6ae f530 b63f d8c6 5e8d df85 d4bf
000007c0: 81b6 31a6 f111 d03f ac2d d9c3 8e3c c93f
000007d0: dc19 b48c 1a31 bd3f 2a17 692d 2001 e33f
000007e0: e65c 1cb1 145b 45bf ad37 71bb 9c21 b33f
000007f0: 9620 4fd9 1eaa 743f b82d c51a ae60 b6bf
-0.29785665748094126 -0.20477343841470072 -0.03080502950945768 0.11788894233219717 -0.17280189335114962 -0.1822904143728654 0.2961806811866221 0.07485474179084571
-0.28547528935455047 0.32373205055128706 -0.021813342466921105 0.14546263357559394 0.023760979754982304 0.08918534618528531 -0.25991876101926775 0.10428152237083661
-0.28035156227791413 -0.07401176674476255 0.17274340398998533 0.15078775120821433 0.2647092135109072 -0.29671607101933195 0.2255259832687648 -0.2217800264119271
-0.09159409004153413 0.18285081920485036 -0.14428547674799536 0.04827090394782619 -0.27390896015143584 -0.20049585155072355 0.1317922843608137 0.1892834504765128
-0.16839343376345176 0.12280124677073821 -0.13740635690196915 0.24727465311398392 0.021412890132019524 0.3348529534101803 0.33069381986194096 -0.23121079992189897
-0.2231097431812136 -0.1810737591636229 -0.07682591841421756 -0.05389093954580479 -0.09921651774755871 -0.15799549445512684 0.11692843262946456 0.24722163024098281
-0.1625988644992325 0.38564706998311143 -0.03890802804588711 0.17212557969200454 0.3391510949412264 0.008567444933409612 -0.2573034765662156 -0.1695198184266361
-0.06019025171704307 -0.2040399962090377 -0.216995491985095 -0.04940011796899956 0.04982412090322724 -0.12239388519703487 0.09017622318500507 -0.11236527319966792
0.06396957226042273 -0.1277550346859426 -0.005880514807424403 0.3848575316853219 -0.44783110695623135 0.4729264698338013 0.1322478352519631 0.03738170256670395
0.10295143623101974 0.03812144568876283 0.045851896444221094 0.08595356392179418 0.17657340123068035 -0.10202507613853164 0.043835744346507395 -0.34147955291591486
-0.049346641935952416 0.0525243283411644 -0.1681219240826182 -0.04915682504812752 0.012352051560318893 -0.18769705060417333 0.5466713573910696 -0.34734915994237303
0.11654628922465991 0.06333884496258464 -0.40413869976205696 -0.0019308107396182848 -0.15221124460193164 0.05626572105427735 0.08257377087389473 -0.05516415741759665
-0.09210268015558573 -0.2355954398045118 0.18816912427764607 0.15880114065839385 -0.030692372610260626 0.0581308804369908 0.47442402790598387 -0.17108488429423047
0.08668712574519964 -0.025127331587697005 0.1623097935846198 0.23028875443067776 0.09784574712783477 0.07919483327416602 -0.515797601101611 -0.012431143165003553
-0.2555610073869961 0.23604045176799585 -0.17750910878548876 -0.017055554226680526 0.023513171426632652 0.2685684560154551 -0.1380387899347714 -0.26923550127581847
-0.18681857614816402 -0.05929738146667478 0.05873647386277921 -0.11314411779325655 -0.006299325697439404 0.12668437612733308 0.09846339814108523 0.02293756484026306
-0.2580501654411511 -0.08458614133479822 -0.5043609276633678 -0.06209974551404363 0.569900782506329 -0.2413826862977287 -0.07069604508796618 0.1135149507795792
0.028183337210932274 0.2283867086473831 0.1120531799263893 0.08891183761892625 -0.18944436707955647 0.1629555933625575 -0.13249349402869492 0.12183453339009319
0.055466330821905316 -0.08431436045334186 0.1407160996958414 -0.11626776459494374 -0.09962645456183043 -0.13829255038333949 -0.12515940840343193 0.17794559290361794
-0.19442318915310647 -0.4978686698312444 0.25797538660852765 -0.2387296263237987 0.04025733318416799 -0.18562690056119677 -0.05939649981472832 0.19873248447448433
-0.17257544083357682 -0.15281078086555733 0.022478307196509076 0.020475682347367484 -0.22967395530908627 0.13316360115146372 0.13181341464222004 -0.18708280429157287
-0.04741893585098466 0.09710589422789723 0.13595198933808125 -0.0257009699003631 0.03519409306275077 0.41862839146403846 0.2830687298609721 -0.14640101889328966
-0.07021692954212039 -0.13571712564812913 -0.013747948754699792 0.016357752404767424 0.12250148506330201 -0.12137564050264663 0.24389282173538404 0.15504903940709552
-0.0261257811903001 -0.18587531859580672 0.23729318410311678 0.17864304414891394 -0.4953447385387972 -0.20858291296035245 -0.2910656817879919 0.2951322128803649
-0.05560047397387154 -0.25389751818427153 -0.08958396806709726 0.2502797325069622 -0.05035813525823736 0.14944432629441234 -0.2337830447153305 0.19900828526292896
0.2457242940942212 -0.28253512551625815 0.545798327239252 -0.0020508856150702865 -0.056471652660745476 0.09235474098780345 0.08035960394780392 -0.06176227183894711
-0.047085796933417697 -0.026906670136953668 -0.036727185035596556 -0.09429674011544971 0.045036766228393386 -0.11652564204414083 0.009209019764219907 0.07708686969092861
0.14423869435839914 -0.6003573729323278 -0.10217402556842638 0.06555373215549086 0.14726376283009251 -0.19356405451168054 -0.2046950372154412 0.08079918947993196
-0.039171529206515183 -0.003680229502813303 -0.31626734924761185 0.04521075739516186 0.3124297717039069 0.330853440186736 -0.2679404127657198 0.19069564523416754
-0.02625921587482516 -0.21931664292894984 0.12184987761727761 0.1468409007384618 0.16227905283002125 0.17144218731278837 -0.09745836424143176 -0.09021850333102711
-0.11657631802620631 -0.09986503932568129 0.1903972986848418 -0.23497498418768595 -0.2800233023527193 -0.13570215171333708 0.0866845657352852 -0.3206709747856684
0.25109521131421536 0.19716057360561245 0.11403051314491769 0.5938874136852281 -0.0006517268213625221 0.07473163200594853 0.0050450520547614865 -0.08741272119112053
