Fuentes/model_rdim.npz (npz, 27248 bytes, 6 tensors)

V1 f8 [37, 41]
00000000: 71bb a0d8 5edb d53f 6fc6 ee08 ea75 b73f
00000010: b5fb c59e 5b5b b9bf 20e4 23a3 1ae0 c5bf
00000020: aa47 4a78 821b 9a3f 37d8 4a27 396b c23f
00000030: 2bed 8429 2d21 d43f 3863 1905 a9eb af3f
00000040: 4ec0 078b 2986 c63f 1494 e958 b0e3 c0bf
00000050: 250d 1a22 7b06 c3bf 6f70 8b34 3f81 d93f
00000060: 8d42 5edb 9817 cf3f 830b 9430 6376 d43f
00000070: 1796 c418 1474 e1bf ebc3 f302 e66f 983f
00000080: c96d 0cd2 5190 cebf 2108 6c15 746f d03f
00000090: 6a74 0485 cec2 debf 061d e676 7bb5 b4bf
000000a0: 4911 5ad4 b007 cebf 5b26 6e6c 0f6c d0bf
000000b0: 10db c817 32df e8bf 4c2a f084 e181 eb3f
000000c0: fcd2 9712 6ff6 b4bf 6478 d159 98f7 b1bf
000000d0: b043 2b00 caf4 bb3f a97e 3d57 4c78 abbf
000000e0: 2d0f 4863 e83b e13f 732d c799 7b60 d43f
000000f0: 79a8 64da 7cd7 cabf 55ed 3aa0 40a6 d63f
00000100: 9184 c23d db1b cc3f 19ae b2b0 c252 d6bf
00000110: 7d9b 1274 3515 abbf 2684 7ad2 fc0c abbf
00000120: 6216 9483 b402 bcbf 2cbd 81d9 970c e13f
00000130: cc3e d53b 138b d53f 5a7c 18c3 e099 e23f
00000140: b325 de15 5bcb ba3f de02 b682 803f a83f
00000150: d578 9373 7c77 6dbf a2fc 414e 8ddf d73f
00000160: 5024 1e35 6fe0 cf3f 4735 23a4 7e7d d1bf
00000170: 0297 1ba9 d425 ab3f 96c9 aa57 93c3 bebf
00000180: 75af 8e2b 8e57 dbbf 1403 5b2d 1f50 b23f
00000190: d353 d232 84af c4bf dadf 0d1a 13f3 d83f
000001a0: 802d 33e6 ccd0 dfbf c9d2 1f06 5b42 c03f
000001b0: 055e 3c4c c01e d53f 4b80 806d 6660 dbbf
000001c0: c41f dec9 1a5c d3bf 8c4f 6230 3e76 d23f
000001d0: f616 23f7 e2f9 eb3f 79dc 0529 3d1c d0bf
000001e0: 220b 86a4 e298 cdbf ffcc 379e 5987 c0bf
000001f0: 5c55 bf1a 71a5 f03f b374 4804 3ec5 c83f
00000200: ea99 ec16 2e80 b5bf a6de 941d fede ca3f
00000210: 313b 8b65 6864 c83f 2f29 d501 af96 c1bf
00000220: 309a c67a 3ce8 cdbf 96b9 e777 b52e da3f
00000230: 03cc 078e 5205 d4bf 7384 284c cb68 d03f
00000240: c4c9 cca1 c2eb ce3f 3bb6 8f18 430d c8bf
00000250: 7388 017a 79e9 bcbf 54bb 834f f92c d2bf
00000260: 26c8 84ed 842d d13f f784 4dad 58a8 bf3f
00000270: b10a a4b6 9f92 b93f be89 fc63 7547 e2bf
00000280: e3a2 ebd8 955b ea3f 518d c07a 9c98 c0bf
00000290: be64 bd34 ec38 a63f cc0d 6e19 3620 bebf
000002a0: 69ee 6d6d a19e b13f 3eb8 c333 96c7 ce3f
000002b0: 8ebe 81e1 a412 c03f bc6c d4e6 98eb b7bf
000002c0: 01e9 6c7e c114 fe3f 5999 48c2 3198 c7bf
000002d0: f873 40b1 96b5 d0bf 292f 2deb a68d d83f
000002e0: 21cc f409 6179 e23f dbc2 2eb0 4278 cc3f
000002f0: 10a4 66d6 6dd2 babf 4386 6a7c 8761 d3bf
00000300: 172f 3a65 bd98 cbbf 73b1 f23e 716b d63f
00000310: 7d0e 8768 2d8d d4bf db76 ca9f 9369 bfbf
00000320: ffcf 8907 1c15 d53f 1e03 f6a5 b335 c03f
00000330: b842 effc b2af b83f 1dc2 3d13 19c0 d4bf
00000340: 3e37 ac27 8045 ad3f 1a30 7338 89e0 c53f
00000350: 8ee8 54a2 926d bbbf a4fa 7660 43a1 d2bf
00000360: 2001 c4b8 e98a c7bf c597 fb71 aaeb d0bf
00000370: 17f6 27d8 7d79 ba3f 3353 ef5f 3d36 dbbf
00000380: 35d4 c6c8 e022 ac3f 26bf e872 c068 c8bf
00000390: e6d4 03ca 4d51 d63f d133 28c4 02b7 d9bf
000003a0: a5ec c646 c940 d63f 59cc d35e cddc d6bf
000003b0: 187b 3ec2 cd6e c73f 227a 72a1 644d bebf
000003c0: 127a 1f36 dcd4 c93f 59ed 41ed 074b eb3f
000003d0: a761 a711 34ce dc3f d8d1 9d8c 6cb5 dc3f
000003e0: 5971 8446 46e0 903f 661d c1ad 51e6 bdbf
000003f0: 4db8 3c35 9232 b3bf 921b 2ea1 6ceb ce3f
00000400: 2ca8 cd4f 6093 9f3f de3f 1f32 65cf f2bf
00000410: 5e5b 90ca d468 c23f 28b2 9458 52a5 9dbf
00000420: 47aa d77b 570e b3bf 62d7 af1c 6926 b2bf
00000430: c1b9 95b2 8027 c8bf 22be a9f7 6f8a ae3f
00000440: 4108 4dda e26c cf3f 164d b834 667f f3bf
00000450: 28a6 bef5 576c c2bf c00c 654d ec77 af3f
00000460: 6aa6 d2a2 0776 eebf 232b 57f8 3ee6 d23f
00000470: 647e 6ee2 8c43 d03f 706d 8ccb 350a 933f
00000480: 0c14 1cd6 ed6a f3bf dd3d 9396 0de9 c03f
00000490: 577c 2744 9520 cabf a610 2ecc a1b2 bc3f
000004a0: 1da9 6a30 e414 ce3f 5c17 64ea eced c3bf
000004b0: cd83 8b42 049b b5bf e375 0ce0 1def e83f
000004c0: 7cf5 0908 6834 d2bf 6a7a b1a4 66a4 a63f
000004d0: 2351 f02a f50f cfbf b841 c1d4 a3b9 dbbf
000004e0: 735d 10c6 783d 9dbf 41f1 c2b5 54f4 cd3f
000004f0: 0670 a13f 56bf e0bf 0740 d439 9c9d c4bf
00000500: 9a85 b871 8c54 c1bf 9d0f 870d 68ed d0bf
00000510: c7d1 e95b b52e d2bf 9f3d 5d42 c0dd a33f
00000520: 125f 3ba7 f36a b8bf 6796 9cc0 f5a4 b13f
00000530: e879 f54b f54c b33f c7f8 347c eebd bd3f
00000540: a5de 6230 6168 bd3f e928 3c39 bd66 af3f
00000550: dcc2 69b7 4065 b4bf 6cea 7a66 ce5f d03f
00000560: 403a c735 6dde a8bf 2972 baad 836f d83f
00000570: f93d 1813 1431 c4bf 8c3f df2c ba24 d23f
00000580: 5361 bde4 34c6 ca3f 86c1 8011 7d27 eb3f
00000590: ac4f 5325 3ab3 f13f 6f54 089a c4c8 a1bf
000005a0: edaa 99f8 8295 d73f 46ae 1f68 1afb f13f
000005b0: 1880 73ee 00a8 d4bf 401c 249c 9d9e 93bf
000005c0: b87f 3cb6 dd81 bebf cc36 952e 819f c9bf
000005d0: 62b7 eef6 6ad5 debf 0b6a bace ea15 ce3f
000005e0: 24f5 53c7 b90c b0bf ddb9 4ade cc71 ccbf
000005f0: 279b 61f2 6d95 d8bf 612c e0c7 ec35 c3bf
00000600: 1e66 5ec7 699a ebbf a16d 0dee 9165 d0bf
00000610: 3072 4b29 3701 b73f 54ca 388d 8bd6 ddbf
00000620: d334 1fa3 b541 cabf 02e6 8781 83e7 c03f
00000630: 89e8 afcd bdd9 d5bf 3386 1055 3f5b a13f
00000640: a786 f822 ffd7 cbbf c547 dfd0 07eb d23f
00000650: 111b 9eba 76eb a4bf 54b9 6d6a 41ed b63f
00000660: 9f60 df70 726f ef3f e023 b202 28a8 dabf
00000670: f9cb 4e31 f1c9 eebf 5463 1db7 c4bb a83f
00000680: 4a97 9f7a 376a c53f e482 4425 1305 763f
00000690: ddfb 06c7 c83c b7bf 0385 0ba8 ac19 b1bf
000006a0: 77e4 b42e 8779 eb3f d04c ef8b 4ae3 93bf
000006b0: 88b1 0a9e ce53 c2bf 314e 32a5 2ac4 c03f
000006c0: 0950 96fe ec0d ef3f 1d3f d84b 12b9 b93f
000006d0: 40a2 ec74 3e7c c63f 1ab6 dd4f 9d07 cf3f
000006e0: 3afd 392e 8650 d4bf 85fd f687 614f e2bf
000006f0: 7198 3191 cf8a cc3f 9dd7 d1b2 b031 dc3f
00000700: f0f9 d0c1 0e07 cabf 5fa7 1563 7cf9 c1bf
00000710: 856f 4441 b2ac ea3f 7390 ce86 f0ef d9bf
00000720: 8a9f f978 5133 e13f e0b1 5a91 ee21 a93f
00000730: 8b95 379b 15ae cb3f 78fb 7701 375f 923f
00000740: a537 67e3 9a7f cf3f 218b ea4b 47ab b83f
00000750: ce3f 3c3b 75ef 9ebf d560 677b f3aa a83f
00000760: e8da 5037 6a8c b1bf 8a73 4b04 0f0b b93f
00000770: 05e9 d08d 39c1 ad3f 3ab2 75ca 090a 913f
00000780: 45cf 19d4 0e35 b1bf 3e0b e782 f26c d6bf
00000790: 3cfb 99cc fd9c c0bf 4e99 68e4 d3b6 d6bf
000007a0: b27f a5c1 4a86 b4bf 8916 a1fe 1304 cfbf
000007b0: 0d12 b180 40c9 d2bf b209 cc08 9204 62bf
000007c0: d49a 1d25 5f64 993f 7c55 5e88 3ce1 dfbf
000007d0: 8f0d e7b8 e3d6 c63f e002 6b3c 6b98 b73f
000007e0: 9202 fc94 14ea bcbf eae7 7ff0 1d6b cdbf
000007f0: 6020 12d7 8732 bb3f cd60 6f05 837c 673f
0.341514312315602 0.09164297788699981 -0.09905026079466846 -0.1709016129096037 0.025495565978935687 0.14389719408581111 0.3145249276601187 0.06234481990094881
0.17596930779063985 -0.1319485124724059 -0.14863528409123564 0.3985136044627841 0.24290762626016651 0.3197257971188991 -0.5454197391270011 0.023864358835400095
-0.2387792850139319 0.2568025788497171 -0.4806400584219036 -0.08089419987492272 -0.2346097027658607 -0.2565954741372473 -0.7772455658476662 0.8596046062896874
-0.08188528255397992 -0.07018425171688275 0.10920393470884338 -0.053652177476349046 0.5385629595843732 0.31838884370218706 -0.20970116294603594 0.3538972439525499
0.21960011020295103 -0.34880130057965314 -0.052896185320881785 -0.0528334624225482 -0.10941627704968362 0.5327872512988612 0.3366134723955667 0.5812839327298989
0.10466546329384734 0.047359481769495324 -0.0035970144932512085 0.3730195297466229 0.24903669446601606 -0.2732845881372054 0.05302300037673825 -0.12017174616156576
-0.4272189545979395 0.07153506142914196 -0.16160633546374345 0.3898360971866147 -0.4971191642805124 0.12702501105345324 0.330001902054818 -0.42775879567671343
-0.30249662126197685 0.28846697545054023 0.8742537333389169 -0.25172356611387375 -0.23122818978671328 -0.12913055634962942 1.0403910679645696 0.19351935586101873
-0.08398712215112139 0.20993019527826567 0.1905642028636634 -0.13741099919782004 -0.23364978785430557 0.4091008826207142 -0.31282485838090696 0.25639612614947466
0.24156983280552258 -0.1879047269753061 -0.11293753842031311 -0.283994987154917 0.2684032744901991 0.12366251212144506 0.09989355286601655 -0.5712229683743357
0.8236798512199041 -0.12965732568509705 0.043403035581556434 -0.1176790058216774 0.06882676049820592 0.24046590354504532 0.12556897173952958 -0.09343867907994058
1.8800673426144956 -0.18433210360053456 -0.2610832911466896 0.3836457535405651 0.5773167795617874 0.22242005922955496 -0.10477339252851459 -0.3028277125359617
-0.2155987495683511 0.3503077616431007 -0.32111678321619036 -0.12270472193855701 0.32941342102208176 0.12663884738506054 0.09643095660363599 -0.3242247283842817
0.0571708725384341 0.1709147954592261 -0.10714069808173773 -0.2910927240408603 -0.1839267875839221 -0.26438389903193765 0.10341631438492303 -0.42518553131712905
0.05495359850775864 -0.19069676981734424 0.3487123940279403 -0.40179509311638834 0.34770423805066236 -0.3572266984985553 0.18306896195004962 -0.11836842481213997
0.20180847780916672 0.8529090532241909 0.45008565639502723 0.44857324344709815 0.01648053937343383 -0.11679563991594008 -0.07499040412651077 0.24155958051798315
0.030835633154687667 -1.1756336172002118 0.14382419482054848 -0.02895096460012972 -0.07443758748528594 -0.0708985991512612 -0.18870552749599592 0.05964994333487207
0.24551044139121994 -1.2186033305523032 -0.1439313840794949 0.06146181530723416 -0.9519079380163025 0.29530309917451997 0.25412294495069987 0.018593636082284204
-1.2136057246837053 0.13211221554091326 -0.20411935642093468 0.11210070834028105 0.23501255382627387 -0.15569840855476513 -0.0843966162169771 0.7791890502882634
-0.2844486311440375 0.04422302971282906 -0.24267448994272298 -0.4332055642780932 -0.028554808701384226 0.23401888728211342 -0.5233565562043629 -0.161059883343569
-0.13539271881840592 -0.26449014016201905 -0.28410085655130185 0.03880120096311689 -0.09538195450602086 0.06892333939011906 0.07539303879227754 0.11617937595744642
0.11487395697883558 0.06133071254414963 -0.07966999509677514 0.2558475495131123 -0.04857198029968801 0.3818062969747041 -0.15774775440557656 0.2834916532710785
0.20917378586706067 0.8485703794340658 1.1062566240334304 -0.03473486309318551 0.36850046422357147 1.1238044802984333 -0.32275412832496064 -0.01915975823888183
-0.11916909884575844 -0.20018019461206504 -0.4817759906244331 0.23504386037969058 -0.06269417873769051 -0.222222908535925 -0.3841204516415239 -0.15008315810732412
-0.8625992673798384 -0.25619934317884413 0.08986229665919931 -0.4662197951430802 -0.20513029541908753 0.1320652372813101 -0.3414148815787788 0.03389928735147087
-0.21752919395026035 0.2955951251761884 -0.04085894611403352 0.08955773208956447 0.9823543743650766 -0.41651344550387925 -0.9621511424105612 0.04830755934989975
0.16730397689314663 0.0053759334444129815 -0.09077124461235493 -0.066798010851489 0.8585849678267 -0.01942173461050062 -0.14318258969195718 0.1309865290282786
0.9704499218373722 0.10048021651914181 0.17566662511059583 0.24241987609586674 -0.3174148036414014 -0.5721900611460319 0.2229861697152873 0.4405328508649918
-0.20334038222968287 -0.14042620504488476 0.8335810923340295 -0.40526974835143575 0.5375144350809802 0.04908700489372442 0.21625013426743708 0.017941340889588514
0.24608169654532933 0.09636350253508087 -0.03021033453029514 0.04817925340074828 -0.06854881144031888 0.09782499174930429 0.0581148133864691 0.016639855367815516
-0.06721584966890955 -0.35039961608361014 -0.12979099741274946 -0.35490891747976583 -0.0801741335649229 -0.24231195385998586 -0.2935334450487808 -0.0021994449838313663
0.02479694999729072 -0.49812234227405106 0.17843290832943778 0.09216947770165573 -0.11294678342165757 -0.22983144992014043 0.10623978615524399 0.0028669890411770816

V2 f8 [28, 37]
00000000: 8889 6433 d1ad f2bf f2ea 0f18 8c5c a1bf
00000010: 80e2 8e49 60e1 efbf 372f 8aab 3143 f13f
00000020: 9d85 5c30 f3e7 edbf 7f9c ffd2 2000 edbf
00000030: b38a 6105 1775 e93f cd72 2f00 4a1e f1bf
00000040: 0f56 a0f3 a436 df3f 41ac beb7 17b6 eb3f
00000050: 6332 7d7d 3a08 e13f 7161 d1e0 7e18 e43f
00000060: 9ce5 d665 a533 f43f 4692 ed63 1893 f6bf
00000070: 4c86 2622 e5db f03f 322e 0a12 d490 e53f
00000080: ad71 7b14 f8bf f8bf 47c2 622e 54b0 d6bf
00000090: f671 8b48 4ec2 fabf 4e1d 7667 8bec e73f
000000a0: 87c3 ee02 68b1 e53f 42fd a0b0 caa8 e5bf
000000b0: 287f 588e e103 e5bf b059 2e60 085b ebbf
000000c0: 4e14 984d c879 da3f aafe 9970 a9b0 e1bf
000000d0: d898 c296 aaa9 de3f d2d1 40b5 02ed f8bf
000000e0: c085 f4ad 511e bc3f d063 cfb1 d726 bc3f
000000f0: c790 efc8 7faa e23f 21f0 467f 52ef c63f
00000100: 822a 7fd5 1ccc 0240 06c9 2ae4 7875 e6bf
00000110: e6bf 2c70 5291 e23f 3254 76a8 663c dd3f
00000120: fd38 4b48 f7ec ec3f 194f 222d 4fde eabf
00000130: d3f4 ccf5 a3ff d3bf bdec 6bed 37c4 ed3f
00000140: 753d a3ed 481f d93f 4898 3c83 cb6e e33f
00000150: aa6c 7e5a 4fc2 e9bf 08a3 225a 9d1d f33f
00000160: 69a6 73f1 8981 c1bf 95ed 49a2 a6be d83f
00000170: 8c52 65ea e44e e0bf fa59 aa45 1244 e93f
00000180: 2932 f72e 0e76 c83f 5869 216b 4767 dabf
00000190: 7a0d 22b8 878a e6bf dab7 65c6 e03d e5bf
000001a0: 6382 4069 d0d1 c6bf 6ff8 c423 4d60 de3f
000001b0: b282 4b52 2c06 f43f 14c2 70fb 2a21 f53f
000001c0: 4c84 89c4 9b9f e0bf 3d8c 6e9f aeda fbbf
000001d0: e2a9 7eb5 1b35 fcbf 7371 c941 97f4 f4bf
000001e0: 319b aeb4 e823 e43f c514 41b5 f5c0 dd3f
000001f0: 0e9f c750 70c6 f9bf 7f2f 8eba 72fc fc3f
00000200: f115 3b2a dcd9 d93f a362 a848 c344 d0bf
00000210: 5366 f3b7 735b e63f a52c e0cd 88a7 d93f
00000220: 701b b62f 8251 d73f 68c3 9577 2f46 f03f
00000230: e6ac c13d 56a5 cc3f 7396 71a7 3835 de3f
00000240: e5d0 c96b 90e1 f1bf 5ccc ecb3 7e95 f8bf
00000250: bf10 7d8c 067e f13f 87d7 23d5 b4b8 eebf
00000260: 4613 0608 8f3f e1bf 0149 13b8 0464 e2bf
00000270: 466f 11b1 d1e6 d2bf f62d 4a1f 9508 e63f
00000280: c3f1 2f74 d03a e3bf 388d bfba a132 e9bf
00000290: 3ce2 2c81 46c4 bbbf f357 31ca f5d4 fcbf
000002a0: 8c09 b95e c75f f73f 11c4 531f 21f9 eebf
000002b0: e19e fdf5 5e9c f0bf df50 6d02 e54c ee3f
000002c0: d9b2 4153 2a79 e03f 9963 4ef3 99c4 f43f
000002d0: 8acc 5edf a7a1 f53f c4d5 d5f5 84e4 e8bf
000002e0: 110d 9897 be1d b63f a250 d4ca d701 e6bf
000002f0: b044 c902 7c3c d53f 5347 1650 7aaa d63f
00000300: 03da 6ed4 5283 dd3f a9a2 cf4d ed56 f03f
00000310: 1be3 3865 f90f e7bf 2f66 b20f 52f8 ec3f
00000320: 8b8b 9cd3 35cb f43f 63b1 0846 9b7d 00c0
00000330: b7f3 b586 bf44 ea3f 35bb 3f80 2f9a f0bf
00000340: 618a 29b2 09de f03f ebd6 9de4 c127 dcbf
00000350: 815f fc49 f153 df3f 8af8 a170 b60e f6bf
00000360: 1932 4ddf a676 f03f 1ef6 79a2 6ee4 e6bf
00000370: 82e5 bf04 1c80 c83f 41ca 5bc0 3879 f63f
00000380: 9a3a edd2 3ba2 ef3f f28a 8ace ecd1 db3f
00000390: a9fe 30bb 49c4 debf 8523 8b8a 2f41 f53f
000003a0: a245 50b2 a90f f43f 6b90 4088 c17a fd3f
000003b0: ed35 fe09 1365 e4bf ac1f 6d60 6b8a fabf
000003c0: bc58 9b36 fe2d 01c0 bbc2 fb03 d57c f2bf
000003d0: 51a3 deed 4dbd ed3f 75f2 45f7 390f e43f
000003e0: 8da0 a2ea 9c2e e2bf 53c9 714d ef3d e2bf
000003f0: 89f2 c03a 4407 02c0 779c a186 17da a5bf
00000400: e2cb cf7a 2625 c23f 36c7 d432 a02a ea3f
00000410: d838 cfcf b2c4 b53f c054 8168 76d6 b23f
00000420: 4e19 1d40 c2bd aebf eeef 1bf1 169c e03f
00000430: 04e8 0e02 e7bc fbbf cff0 9b2f 31f1 d13f
00000440: 0887 ce34 869e dbbf e58f 6e4a 0dd0 d8bf
00000450: a17e dbb0 7291 d4bf b93c b30c 76e5 e0bf
00000460: e4ba 1f08 d4ef b73f fe15 3fe4 0830 ee3f
00000470: 2185 f162 31f6 c23f 6ec8 316a c3cb df3f
00000480: 9fac 0ac2 250d e8bf bd99 9673 882a d13f
00000490: d114 38c1 87f5 f33f e13e ad38 83eb b5bf
000004a0: 2f8e 3812 78a7 913f 1667 c16d 9f46 f13f
000004b0: 9bd8 9ee7 04e0 d93f 473c 3454 75ca e8bf
000004c0: 1d07 8e4d a364 ee3f df7c 4e05 1ec7 e03f
000004d0: 2a6e 5d98 4a8f db3f ee80 49bf 7f5f e73f
000004e0: 7df0 1052 c023 f13f 5d7f eef9 a29b bebf
000004f0: adc7 a364 d080 f1bf 07c0 b407 3020 f33f
00000500: 03e4 bf5b 38f3 e43f 8b5b 8b53 3e5e ed3f
00000510: e5ec d126 a874 e63f 46a9 4d10 b47b f03f
00000520: 6fd7 202c 7dfe f63f 04c0 0200 951e c23f
00000530: 788a 4526 5562 f8bf 088a cff6 b847 c53f
00000540: c909 70f7 1d6d f03f 1ad9 0962 ef44 f9bf
00000550: d820 efc7 125b be3f a2cb baac 3a95 f1bf
00000560: c35d 06fa addd 05c0 4014 6464 d4c1 efbf
00000570: 783b c809 584a f83f daa7 b559 eea2 e0bf
00000580: 3921 27e2 b65d debf 8ef5 df33 b56e f1bf
00000590: 6d56 eaeb be44 d03f a673 c9aa 4cc8 c0bf
000005a0: 6100 18e1 f82a e2bf ed23 73fa 3236 d13f
000005b0: 8d65 e811 8845 f4bf 0038 fea0 2649 e2bf
000005c0: 11f4 afdf 940b e0bf df8e 52ec b397 fdbf
000005d0: 744c 240d f264 f43f 60a0 97e1 ef78 d13f
000005e0: a854 c181 4fa4 c7bf 5d28 38a3 1795 ecbf
000005f0: b070 63c5 1e70 e4bf ce0c d976 2ed4 e63f
00000600: bce2 46a6 ef92 c6bf 927e 35a5 3245 f93f
00000610: b33a e4bc dc24 f4bf 45af 259a 421e f2bf
00000620: 2a0b c574 6cbc e2bf 3fa9 aa91 f29f f43f
00000630: 15a1 169c cbaa e13f 1d15 b77c 596d e7bf
00000640: a6fe 9fc7 715e f1bf f475 1607 0f50 e63f
00000650: 8b3f 6db7 a823 d3bf dd9d 1101 2f4b dd3f
00000660: 1edc fee6 f51d f93f 3334 d368 bfec c6bf
00000670: 3d4b bf4b 9eca ddbf 53b9 55c6 61fa db3f
00000680: 125d a49e a916 c13f 6441 f81e d53f e23f
00000690: a95c 0006 dd97 f03f 0ec0 a521 3a24 cd3f
000006a0: ba4d f7f7 423b eebf 6162 f106 8d3b 0040
000006b0: 386a 7a0b 4e95 e4bf c650 b309 208c e2bf
000006c0: d5fd 2ad3 d586 f23f d933 d0b6 673b f9bf
000006d0: 0e91 1025 9132 dfbf 66f4 bfcd fbc6 a2bf
000006e0: 35cc 1955 c954 eabf 0776 8360 bec7 fb3f
000006f0: 65e0 4b03 bf77 d2bf 1058 5a11 80b9 e83f
00000700: 42b9 5c26 773d f4bf 162f 76f0 5235 e6bf
00000710: 6dfb 7079 c2f4 f2bf 034b 77b0 7502 c33f
00000720: e51a 3a06 eaf5 febf b40e 61a3 aa7b c53f
00000730: cd14 3fc3 588c f6bf b752 1e7c 0938 e2bf
00000740: 52f9 2881 629f e23f 43fa 9c39 cd2b e8bf
00000750: 571a 478b 199b f23f d362 f4d4 80ef f33f
00000760: a611 812d 25b9 e63f e0a4 029b 134b e8bf
00000770: 1f2b 0d41 e4c8 d43f 05cb 9e4c e103 c4bf
00000780: 44e9 6cc0 a182 c0bf 070d a7fa 61d4 c83f
00000790: 0548 94ed 3ac5 da3f 4731 fe90 d0d5 e9bf
000007a0: 13b5 6e6a 57a7 efbf d12a 387d 07e7 d1bf
000007b0: 9222 8747 be96 e83f 6384 91d6 4f45 c5bf
000007c0: e459 6e23 0dfd f13f f436 9810 9f7b f93f
000007d0: a70f 5566 6b1a d3bf 9b23 e5ce a2f3 da3f
000007e0: ad35 8165 303e f0bf e6c9 b268 3b6d f83f
000007f0: 53f9 536a 2b2d db3f 1742 7576 9a87 aa3f
-1.1674358375099434 -0.03390920442321556 -0.9962617336924069 1.078904790951993 -0.9345642036970961 -0.9062656518043609 0.7955432038400744 -1.0698947913398797
0.48771022597915786 0.8659781063810287 0.5322544527967462 0.6279901877378916 1.2626089075186888 -1.410911932319452 1.0536853155139339 0.6739292480792243
-1.546867446907622 -0.35451225786076573 -1.6724379380967753 0.7476250668268365 0.6779060418394786 -0.6768544626028545 -0.6567237644376052 -0.8548623922859431
0.4136830098871699 -0.5528151702164525 0.4791056129710234 -1.5578639106944263 0.10983763215019504 0.10996769038264564 0.5833128857161903 0.17917853560163713
2.349664371436405 -0.701839872015882 0.5802395049013256 0.4568115849627389 0.9039265071858434 -0.8396373635791604 -0.3124780559918012 0.9302024495258575
0.3925344772987594 0.6072747767655153 -0.8049694793184206 1.194730140772835 -0.1367657116855299 0.38663640831483664 -0.5096306398432531 0.789559494080833
0.19110276501886972 -0.412553648585932 -0.7044104191158305 -0.6638034701297741 -0.1782780183721285 0.47462776654345523 1.2515071119925492 1.3205976316350005
-0.519483455526037 -1.7408891895108944 -1.762965878452285 -1.3097145623970305 0.6293834237047574 0.46490233135802966 -1.6109469562015337 1.8116328513451376
0.40392212032415303 -0.25419694991573233 0.6986635773457216 0.4008504877571773 0.36434988650619626 1.0171351119317595 0.22379568114715837 0.47199837066577927
-1.1175693712694337 -1.536497786361699 1.0932679641564815 -0.9600471651926775 -0.5390086323464878 -0.5747092814656584 -0.29533808032805486 0.688547669518299
-0.6009294766695848 -0.78743063425319 -0.10846367505735882 -1.801992215934203 1.4608834934339 -0.9679113017901974 -1.038176499272531 0.9468865439798967
0.5147906900507123 1.2979983810566635 1.3519667363550831 -0.7778954316587989 0.08639136506103663 -0.6877249681006286 0.3318166758736636 0.35415513821600547
0.46114035363589795 1.0212224044318339 -0.720699975680961 0.9053125673846746 1.2996118799280534 -2.061331317081725 0.8208921080655419 -1.0376429567074414
1.0542084655250152 -0.43992659879528045 0.4894984457509893 -1.3785919570650855 1.0289677355496052 -0.7153847859733025 0.1914095900718103 1.4045951379781771
0.9885539168988828 0.43468780679738395 -0.4807304695168378 1.3284144794326675 1.2538239446042572 1.8424697229720788 -0.6373381800819381 -1.6587938086176832
-2.1474575296552683 -1.1554765849688653 0.9293584485904863 0.6268586949878016 -0.5681900580139129 -0.5700603973948922 -2.2535481062062144 -0.0426795341343728
0.14175873753228446 0.8177033417507349 0.08503263066743061 0.07358493853947135 -0.06004149468076268 0.5190539082682315 -1.7336187439345858 0.2803461995060958
-0.43155055195721603 -0.3876984812616214 -0.3213774420855576 -0.528010392003032 0.09350323866213334 0.94336361483937 0.14813821154806653 0.49681172724297695
-0.7516049184681782 0.26822100913923547 1.247443918954833 -0.0856248868342351 0.017240406143299743 1.0797418868373305 0.40429804438770994 -0.7747141499147653
0.9497849001638518 0.5243063071865456 0.4306208122195324 0.7304075943066246 1.0712283330640553 -0.11956232644888361 -1.0939487391701548 1.1953583050744798
0.6546899597152563 0.9177543288923159 0.7017403372005019 1.0302010189867175 1.4371310924302312 0.1415582895328954 -1.524006986139879 0.1662512974863406
1.0266399064572502 -1.5793298558833784 0.11857716923907746 -1.0989329097035143 -2.7332419903939082 -0.9924108467827253 1.5181503660312199 -0.5198890449657896
-0.47446987233390164 -1.08952827705011 0.25419590986834956 -0.1311126550598633 -0.5677456280100267 0.26893305261597683 -1.2669754695437832 -0.5714295524974204
-0.5014137619870117 -1.8495368224475255 1.274644900641559 0.2730064108895984 -0.18470186076834705 -0.8931997478368988 -0.6386865477793631 0.7134010621306517
-0.17635913485516663 1.5793940022921658 -1.2589995745253588 -1.1323877354979726 -0.5855009346636042 1.2890496912101097 0.5520990418054078 -0.7320983348696789
-1.085557727608753 0.6972727907593126 -0.2990514556195129 0.45771384338737936 1.5698145888579869 -0.17909996622475574 -0.4654918422431143 0.43715710037840444
0.13350410696214304 0.5702920536878477 1.0370760187559347 0.2276680626196143 -0.9447340815626639 2.0290775816359177 -0.6432256912406222 -0.579605120607561
1.1579187630412566 -1.5770032063621697 -0.487461363025674 -0.03667437445253867 -0.8228499090313394 1.7362655420359958 -0.28855872461236337 0.7726440752910566
-1.2650062082789906 -0.6940092751042097 -1.1847557777216153 0.14851256481650674 -1.9350376361123207 0.1678365037679349 -1.409264338189405 -0.569340460223052
0.5819561503083526 -0.7553468823678674 1.1628661575829449 1.245972473005328 0.7101007355454854 -0.7591646220727419 0.324761451269909 -0.15636841050362463
-0.12898656745694315 0.19398140658277205 0.4182879753217324 -0.8073504287618015 -0.9891774252661513 -0.2797259066434608 0.768401279166101 -0.16617773034070912
1.124280107882094 1.5926809929109682 -0.2984875201548171 0.42112035946461795 -1.0151828732517558 1.5266679849415765 0.4246319330558396 0.05181582160969727

V3 f8 [20, 28]
00000000: b99e 0a7a 0cfb b2bf 6f96 22a2 c9c0 bb3f
00000010: 24b2 a60e a4bc d03f b814 eb51 70ff 8c3f
00000020: 1344 b9ff 5782 923f a8da d0d3 de0b b13f
00000030: f96f b343 ba92 d0bf 3f2c 8d7f 6e06 c2bf
00000040: 3ba4 3eab 21b7 d13f ee7f 8232 a172 bb3f
00000050: 8f9f 7d94 e0a8 d33f e057 cb28 b2b3 a4bf
00000060: 65e7 2ee5 d8e6 963f f311 e677 b7ef c7bf
00000070: ee38 42c5 c8b9 9fbf e32a 88a2 82b7 d2bf
00000080: 7351 df23 674e d5bf 5278 1d95 1a89 adbf
00000090: 7674 1ae5 197c 61bf a484 d547 1658 d1bf
000000a0: 0f4a 5305 93c5 903f b6f4 75e1 a4d9 6d3f
000000b0: b48a d1b8 8d4f d43f 8b41 ef05 0c68 d83f
000000c0: 3a32 a1fc c1c6 b1bf e60c 0979 8cb0 93bf
000000d0: e33d 37da 5ab4 d1bf d56c 678d 4009 9b3f
000000e0: 2a4f 3dd2 6708 c33f 6f75 bddd bfb8 b0bf
000000f0: ac65 ceb2 1816 9c3f 47ba 659d 58fd abbf
00000100: 30a5 ebb6 3269 ae3f 36e5 3cb9 5c85 8c3f
00000110: 518d d07c eba2 d03f 8592 4a0b 7acd b6bf
00000120: 1481 14cb 99ae b63f 8690 2424 88a0 d0bf
00000130: c052 ddae 56d5 d0bf 38ec 5745 260d da3f
00000140: db5b 6715 9b97 70bf 4eeb ea7d b6d6 c1bf
00000150: 0b4b 2d1f 31bf 93bf 84bf 1991 6f55 c2bf
00000160: 5b7d 372a b9d3 c1bf 8c4b 1a1d a402 623f
00000170: 4975 861f 72c5 d4bf 73fc 97f3 6b50 d13f
00000180: 195c dc78 f825 a4bf 4b11 8be1 a8ed d43f
00000190: a917 9ad4 182a c23f e460 9541 7023 be3f
000001a0: 5e8e 5d88 10e3 bebf ae9b 74e2 cd6d da3f
000001b0: 4a11 a82a 044a bebf aaee da2f d093 99bf
000001c0: 0627 1c4b 58c1 cfbf bc90 1637 0381 b63f
000001d0: f30f 4884 bd3c b4bf c04b d21f 38f1 c33f
000001e0: d214 9a5a ebbb c33f 4c83 9a61 43ca 98bf
000001f0: 6ad1 0ee7 7211 9fbf 4669 8d0a 9c35 c93f
00000200: d578 b311 11b6 c9bf 006e 0c80 2305 cabf
00000210: 3494 7cc6 8274 de3f 994d ca25 2a7b d93f
00000220: 1f89 1904 da5f 83bf d22e 2e3a c560 953f
00000230: bbe9 9e00 d3b9 873f b354 01f7 0a08 d6bf
00000240: 314c e728 06ad a7bf d4ab 5644 2614 cb3f
00000250: 8be4 9493 e41a adbf 8a84 a74a 810e a83f
00000260: 7383 6c54 57f0 d0bf e86f de40 082f a2bf
00000270: 9845 fc3f cd3a c0bf ad2f 6ed7 d179 c6bf
00000280: 382f eb5a 2e38 be3f 1723 68a0 742a b6bf
00000290: 571b 05b9 80f3 943f e194 a62f 8dcf cebf
000002a0: 6e9f 6978 c779 ba3f 835d 3484 a3b8 ce3f
000002b0: f910 abe6 3fff b8bf add1 9bee 3e59 ae3f
000002c0: ef99 477b a9f8 d0bf 7bd5 2fc8 fb7d b7bf
000002d0: f2f5 0673 d903 9a3f 25cf b8c1 4939 e33f
000002e0: 552a 58be e720 9c3f ae8b fa80 bf81 b03f
000002f0: 9f8b 2a5e 4eb2 c2bf ee22 f3a9 acf2 bbbf
00000300: f378 ebce 0c11 d2bf 7948 957d 2ff8 c13f
00000310: bbbd d700 c886 c1bf f105 f220 6214 813f
00000320: fcd6 ba4f 51a9 bbbf 33c9 abde 011f cfbf
00000330: c5e4 ba12 346f 943f ab1d fcce 8a4b 833f
00000340: fcf2 df42 8660 c8bf 3147 a8c8 2d21 a03f
00000350: e830 1e4f a82b bb3f 150a 45ca d0ce c23f
00000360: 2e4e 5a50 93e4 bcbf c411 b72d 75f7 953f
00000370: 6e5e 8396 935d bfbf 1b76 fec8 d9fb d8bf
00000380: 3c0a 14af ae3b a2bf fc2b 2c3c 3cbb d93f
00000390: 7574 3e93 2f39 bebf f28e 4b96 fca8 d1bf
000003a0: 8370 4e7e 55cb da3f 93ff d995 15a0 d2bf
000003b0: 88b2 8e16 d063 c73f 7b03 5565 dad9 bfbf
000003c0: b0ec a185 23ab c73f 83cb 8e50 b116 c7bf
000003d0: f53d 3cdd 4eb7 a0bf 9f7f 1c0f d0c2 ac3f
000003e0: 60df 5ce4 cda1 c23f 821e 7cfd a721 53bf
000003f0: f22e 2e27 e104 c83f 8ed7 5d9b 13c8 b33f
00000400: c6b1 4af1 bccf ad3f e574 59e7 93ab c7bf
00000410: 674f edac dc2b cd3f 0810 f920 4306 c83f
00000420: 545f 407d 6362 92bf b3fa 8aed 6d54 b7bf
00000430: 064d e5e6 6368 b43f 8e16 f955 95c4 c23f
00000440: 6494 9562 3765 c4bf 1704 7500 9232 d4bf
00000450: 9b35 e3bd 014c 76bf 52c5 af0e 0874 c1bf
00000460: e14e 4a65 ad9a ba3f c6aa a012 0596 da3f
00000470: 1dd4 6ad0 cf9b a6bf 98ed 002e 0ef6 c4bf
00000480: 4eda 05f7 7cba 943f b3a5 26ec 906d c53f
00000490: 7775 d47e 33a6 cabf fa73 d223 32d5 69bf
000004a0: 0897 b595 36ad c5bf 1de2 7403 4620 c4bf
000004b0: 0a2e 448c e33d b5bf 2374 00fb 9956 d4bf
000004c0: 1850 5ace ff24 d63f 514b 0c5a 1562 c23f
000004d0: 6584 4cff 4b15 ce3f 7024 9d97 308e c0bf
000004e0: ffd2 7d04 52ec a1bf 4100 43f4 71f4 be3f
000004f0: c679 6bbc 6823 c9bf 93ac 6456 d3ba c4bf
00000500: 8601 0166 0875 cb3f 145f 8c62 0206 cd3f
00000510: 114c 367f 3e57 c1bf dbee f4f3 c47d c1bf
00000520: 34ed c25e 9262 be3f affe 6350 8c12 c93f
00000530: 149f 6537 638d c0bf 8b69 d27f 23e2 cebf
00000540: 41ca 4fa5 4d76 cbbf ec9e c1a9 300f aabf
00000550: da01 b0d9 2729 ca3f 7133 5058 b409 d4bf
00000560: acba 0bb0 0461 a13f 5ae0 6bba e840 d63f
00000570: a46c e33d 2609 c13f 28a4 3a56 f9a8 9fbf
00000580: 94ea 9316 a706 c4bf f73d 4197 1e07 c13f
00000590: 2590 8c09 1f4b 9ebf 6bea 1783 a9ec 5bbf
000005a0: 0b92 7b05 2ffe d6bf d9dd 9373 10f0 babf
000005b0: 5dae 572e 3525 e03f ab84 5716 cd46 ae3f
000005c0: 63ed bb9e 8d20 c23f f728 bc78 8aa0 a1bf
000005d0: 9c7c 7517 9354 a03f e006 4767 8839 c4bf
000005e0: e058 f4ed f57e d0bf 4a82 0b01 5853 ca3f
000005f0: ea38 f476 e6d2 bf3f b2a1 e1bb b259 b23f
00000600: cc89 8c0e 062e a33f aeb4 a14d 0076 83bf
00000610: 552d d30c b962 c63f be46 5bcc 4289 c2bf
00000620: 3ee5 46d4 2903 993f cb10 7a0e abe6 c33f
00000630: 3115 ac98 4c5f d63f 53a2 2335 a12b dd3f
00000640: 740c a687 335d b3bf 3036 80b6 1965 d4bf
00000650: 45aa 9556 71a4 d73f cb83 0acf 8dea 9ebf
00000660: 175b 1eb8 caed cdbf a2e4 d301 0a27 b13f
00000670: efb5 7db7 c6ca aabf c9e2 64c9 0ad1 c1bf
00000680: bcb9 1cc5 7f14 cc3f f181 d5b3 d81e c6bf
00000690: 03b9 f5a3 5eab c83f f4a3 e1f4 3dfa acbf
000006a0: c6ba de92 f0d5 c03f 1eee 8a26 2ff2 c6bf
000006b0: 7600 02a5 3c66 babf ea4c 5cc9 61d8 c1bf
000006c0: 43f7 3dc5 b34f cebf 4b5a f081 f65b b33f
000006d0: 4a8d 3bab a488 84bf 1e77 c941 7476 afbf
000006e0: b90e e3eb b211 ad3f d311 6f66 5723 b0bf
000006f0: e984 4f8b 2e32 c5bf a0c1 21cb 7ba6 c23f
00000700: 542d aa85 732e b73f 6c9e f4d2 95f5 ca3f
00000710: b2bb 98b3 cd7b d13f 248a b214 7285 83bf
00000720: e790 e7b4 24c2 c6bf 9754 b3e3 eabe c7bf
00000730: d7ac 8724 996c cfbf 8e04 623b 9f45 b2bf
00000740: 988e 534f 6ee8 da3f 365a 1b5d fa18 c0bf
00000750: 7af7 4cd1 dd13 b2bf 068f e591 d984 a3bf
00000760: 28e4 4aee 26ed c4bf 45e6 a9a1 7434 d6bf
00000770: 8cf8 0050 10d9 b7bf 5c0d 6630 1b0c c33f
00000780: b55c 41b7 0a7b d03f 8ce7 6bec e0b3 da3f
00000790: 74ee 8041 36d7 97bf 8b2d d6ca 8006 ad3f
000007a0: 3f64 5cf8 d363 c9bf e581 b05c 7cb8 b63f
000007b0: bfe3 b6d0 58a9 b9bf b814 9a24 7ae5 c4bf
000007c0: 3d8b 9fae 84f2 ae3f 0213 66a0 1314 a8bf
000007d0: 9132 b4f8 a2c3 b13f 47f8 3cd6 d17d c4bf
000007e0: be71 376c a615 c6bf e035 db56 6723 c93f
000007f0: 0ed3 b407 8956 d2bf c766 2147 a3eb c73f
-0.07414319972542217 0.10841045578362139 0.2615137236669247 0.014159085750529918 0.01807534693063324 0.06658737822804517 -0.2589555417196148 -0.14082127788637597
0.27680246089090915 0.10721786006115483 0.3071824503044746 -0.04043347118356144 0.02236498736213068 -0.18700307230405108 -0.03098214820834582 -0.29245057937866487
-0.3329103327098643 -0.05768664427044769 -0.002134371353192106 -0.27100140585941745 0.016378686141999717 0.0036438198400775236 0.3173555664890657 0.38135052279997045
-0.06943905275074594 -0.01922816742650193 -0.2766329890264087 0.02640248168050337 0.1486940170822149 -0.06531905330253605 0.027428041375605325 -0.05466725274424227
0.05939634783664827 0.013926243212710614 0.25994383992129594 -0.08907282615343533 0.08860169609079477 -0.25979808358739154 -0.26302115513435 0.40705258151837453
-0.004050832553239093 -0.13936501644442462 -0.01928402664936883 -0.14323229393948733 -0.13927378236165108 0.0021985249848710028 -0.3245511348594233 0.2705335501522718
-0.03935219264365503 0.32700559640604315 0.1419096983046846 0.11772824860725312 -0.12065223054156024 0.41295191874308557 -0.11831689874094767 -0.024977925225114696
-0.248087917971411 0.08790607542920531 -0.07905182342079779 0.15579892686636576 0.1541723434822076 -0.024209072906731507 -0.030339999535230623 0.1969485332036333
-0.20086873401937191 -0.20328181984301352 0.47586125739536844 0.398142372993982 -0.009460166216005704 0.020876962352800295 0.011584900337642581 -0.3442408954773086
-0.04624194382963543 0.21155241333812447 -0.056845801368077785 0.04698566471393757 -0.2646692585422478 -0.035515077513281146 -0.12679448723114883 -0.17559264201224548
0.1180447551698166 -0.08658532062703404 0.020460139553758108 -0.24070896937079225 0.10342070283661339 0.2400097270517386 -0.09764480001019028 0.05927464163497418
-0.26517712630302887 -0.09176610600828454 0.02540530933923963 0.6007431777602262 0.027469273560237834 0.0644797983064069 -0.1460664710803856 -0.10917166852153645
-0.2822906513882934 0.14038652069081417 -0.136925697719091 0.008339659338392176 -0.10805233189133995 -0.24313376782044713 0.019955457347099043 0.009421429101634645
-0.1904456926858059 0.03150313448362708 0.1061349099310892 0.1469365108151385 -0.11286278449761575 0.021451788821438958 -0.12252161430967032 -0.39037174824065496
-0.035611590263233656 0.4020529353735467 -0.11806008667777397 -0.27593912770519957 0.41866051992997927 -0.2910207713502981 0.18273354627071492 -0.12441792463233796
0.18491024041199955 -0.180380024275646 -0.03264852953554601 0.056173803181308594 0.14556287432219062 -0.00116769223490279 0.1876489106474462 0.07727167647484931
0.05822554059463729 -0.18492363735541698 0.22790106242848227 0.18769110784535337 -0.01795344783758364 -0.091132040494794 0.07971786868192873 0.1466242475309411
-0.15933887780844025 -0.31558656735075047 -0.0054435794865645105 -0.13635349957579962 0.103922688702649 0.4154064828787053 -0.04415749949604495 -0.16375901457091113
0.020242645814017295 0.16740619211968308 -0.20819705670229968 -0.0031534175200946786 -0.16934854803110277 -0.15723490875986182 -0.08297559904547583 -0.31778573524371917
0.34600825454367756 0.14361826798320945 0.2350249287201535 -0.12933928874034306 -0.0350061064226903 0.12091743672772372 -0.1963931007403074 -0.16195146292134108
0.21450905781422253 0.22674588977746934 -0.13547497951057655 -0.13665067588760035 0.1186915856696274 0.19587854314157968 -0.12931480603150958 -0.24127620450310547
-0.21454783031329508 -0.05089714119168129 0.20438097123407212 -0.3130923139986442 0.03394331597325126 0.3477117367288024 0.133091716975149 -0.03091802204895458
-0.15645302393371152 0.1330297697590905 -0.029583439786748173 -0.001704373873848165 -0.35926414046687744 -0.10522558995932431 0.5045419602515256 0.05913391969421274
0.1416184449261478 -0.03442795490089339 0.031895252812995184 -0.1580057625088136 -0.2577490638517599 0.2056684498884514 0.1243118324675582 0.07168118559787365
0.03746050765609574 -0.009502413148050639 0.1748877823468812 -0.14481387117716865 0.0244261298955497 0.15547693449855723 0.34956660184282656 0.45578794659971783
-0.0756408888028533 -0.31867068121286746 0.3694117875626584 -0.030191627275261184 -0.23381933202900804 0.06700193924543155 -0.052328309916315756 -0.1391919597024496
0.21937558292979797 -0.17281636029203143 0.1927297878823496 -0.05659669508242607 0.1315289227618079 -0.17926587469070027 -0.10312251118193835 -0.1394159539418987
-0.23680731898269344 0.07562199280105479 -0.010026251292805672 -0.061450608282696204 0.05677565698127069 -0.06303926707102585 -0.16559392740513282 0.1457056753020085
0.09055253995227491 0.21061966705859747 0.27318136728984677 -0.009531871086726325 -0.1777997859309217 -0.18551384084881725 -0.24550165446939928 -0.07137484740998642
0.4204364561721632 -0.12576226755364112 -0.0706156383502882 -0.038122939166696 -0.16348730693224067 -0.34695163524120104 -0.09315587952821341 0.1488069521256915
0.25750987907435824 0.41722891891515057 -0.02328190588762742 0.05669023967774497 -0.19835900904652878 0.08875252974440391 -0.10024027915541377 -0.16325308596802812
0.06044401771193584 -0.04702817280761985 0.06939142772552943 -0.16008971176956008 -0.17253570827496206 0.19639293423681092 -0.2865316939599304 0.1868785950962801

X_mean f8 [41, 1]
00000000: 0b24 287e 8ce9 5440 dc68 006f 8184 0040
00000010: d49a e61d a7d8 3e40 c05b 2041 f1e3 1e40
00000020: c807 3d9b f508 bb40 d578 e926 1134 a140
00000030: 2d43 1ceb e236 1a3f 55c1 a8a4 4e40 a33f
00000040: 0000 0000 0000 0000 a4df be0e 9c33 c23f
00000050: fca9 f1d2 4d62 503f a9a4 4e40 1361 d73f
00000060: 0309 8a1f 63ee ba3f 2f6e a301 bc05 523f
00000070: 6132 5530 2aa9 433f 2db2 9def a7c6 bb3f
00000080: 8d28 ed0d be30 893f 2d43 1ceb e236 2a3f
00000090: acad d85f 764f 6e3f 0000 0000 0000 0000
000000a0: 0000 0000 0000 0000 5f07 ce19 51da 7b3f
000000b0: 2497 ff90 7efb 5840 48e1 7a14 ae97 3d40
000000c0: 2a8e 03af 963b d83f 832b a050 4f1f d83f
000000d0: 718d cf64 ff3c b93f 3980 7edf bf79 b93f
000000e0: 23a7 afe7 6b96 e23f 6ff8 dd74 cb0e a93f
000000f0: 1903 eb38 7ea8 b03f f4fd d478 e99a 6840
00000100: f31f d26f 5fc3 5a40 c118 9128 b4ac dd3f
00000110: 1ee3 8a8b a372 ab3f a6d7 6663 25e6 b53f
00000120: da08 c4eb fa05 8b3f 96cf f23c b83b d83f
00000130: 6344 a2d0 b2ee d73f bb0e d594 641d ba3f
00000140: 832b a050 4f1f b93f
83.6492 2.0647 30.8463 7.7226 6920.9594 2202.0335 0.0001 0.0376
0.0 0.1422 0.001 0.3653 0.1052 0.0011 0.0006 0.1085
0.0123 0.0002 0.0037 0.0 0.0 0.0068 99.9296 29.5925
0.378637 0.37691099999999994 0.098587 0.099514 0.5808620000000001 0.048941000000000005 0.065071 196.841
107.0527 0.46366599999999997 0.053609000000000004 0.08554300000000001 0.013195000000000002 0.378645 0.373944 0.102011
0.09813399999999999

X_std f8 [41, 1]
00000000: 77f7 2410 b44a 8c40 9845 c037 d3f4 d73f
00000010: f1d1 39fd a0dc 2f40 7f35 3278 9ff5 0440
00000020: 2d50 3ce5 35e7 fe40 62f3 895d fb4c ea40
00000030: e08a fa82 9f7a 843f 3803 6d13 02fe d43f
00000040: 3a8c 30e2 8e79 453e abac 7612 4902 fd3f
00000050: 237d 7bd2 5eb7 a53f 26c0 9fe9 20d1 de3f
00000060: beaa 067f 2bd3 1440 8191 31b2 c6f8 a03f
00000070: 4fea 5ba1 1d30 a03f 12c2 1fd2 8588 1640
00000080: 54a6 c97e 00f2 dc3f 85dc 27d5 d0f5 8c3f
00000090: 6ef4 00d0 5f86 b13f 3a8c 30e2 8e79 453e
000000a0: 3a8c 30e2 8e79 453e 215e 2ff8 d409 b53f
000000b0: 8ec6 661a 437a 5c40 4f63 927a 57c2 5340
000000c0: 0df8 74fb 13dc de3f fdf5 d113 9ad8 de3f
000000d0: a189 2224 b9f1 d23f 1454 e4ae f5f3 d23f
000000e0: 2e33 df83 e70c dd3f c9e1 5331 42b2 be3f
000000f0: fe79 37dd f8cc c93f 642c 9f7d 41b1 5640
00000100: 00cd b496 4189 5b40 0f5e fa6b ae5f dc3f
00000110: 42df a27d 6bc9 b93f 1937 b367 fa07 cd3f
00000120: 7502 6830 848a aa3f 8765 25e3 c8c5 de3f
00000130: 8917 7b26 7ecc de3f f4de 4226 12d3 d23f
00000140: c01c 7c44 b3a6 d23f
905.3379214180012 0.37431793636741295 15.930915749843708 2.619933070213562 126579.36846572226 53863.85516831909 0.009999509987499378 0.32800342461637255
1e-08 1.813057968257264 0.04241463012089699 0.48151419463011036 5.206220612317962 0.033148011448051136 0.03161709398951428 5.633322985828743
0.4522706258927418 0.014140731339450827 0.06845663860527093 1e-08 1e-08 0.08218127307133517 113.91034565006905 79.03658928199478
0.4821824985154997 0.48197032867014383 0.2960036137466436 0.29614011840141186 0.4539126193820263 0.11990750984467193 0.2015677528533643 90.76962223572042
110.14462821632696 0.4433399252388605 0.10072967355051524 0.22680597365836588 0.05183804598710121 0.48082182104334276 0.4812312484540305 0.2941327451367066
0.2914245766446122

svd_mean f8 [28, 1]
00000000: ec01 bcbd c166 dd3f a5ee 8007 f0c3 da3f
00000010: 7d4e e16a 654a dd3f 7998 7970 756d de3f
00000020: 4368 321c 231f df3f 4835 f7e1 b3a1 e33f
00000030: 01b2 e9ff a9ce e03f 7ee1 bdfe e10e db3f
00000040: fa4e 920c ad75 df3f a8c1 e903 6b69 dd3f
00000050: 830c 07c8 ef03 e03f 4c7e ae22 57cf e53f
00000060: eb53 ab14 ef41 df3f b2c9 739c 60c3 e03f
00000070: 55d2 e3bd 113b e03f 0945 a3ae c833 e33f
00000080: f2c3 399a 81b9 e13f e234 9b6e 9aaa e63f
00000090: 3f59 30f1 684d d43f 5de5 0aa8 2465 e03f
000000a0: 2204 538e 5bf9 de3f 06a5 1983 2928 e43f
000000b0: 436e d091 79d3 e03f cd6b 086e ab69 dd3f
000000c0: 527d cb5d 9bd7 e33f ba00 ad17 d987 e73f
000000d0: e59e dd2e 38fd e03f fc00 4077 449f e03f
0.45939677742720053 0.418209082916045 0.4576657813788428 0.47543083175549544 0.48627546075443123 0.6134890950576528 0.5252275465296067 0.42278337361451424
0.4915573714035727 0.4595592058385827 0.5004805475986277 0.6815601041198049 0.4883992864463937 0.5238497787197984 0.507210608366743 0.6000712786573398
0.5538948070735599 0.7083255920676061 0.3172247271881083 0.5123465807038589 0.4839695825467648 0.6299026070165901 0.5258148048337222 0.45957456345939535
0.6200692016536016 0.7353330099504298 0.5309105792375389 0.5194418267347198
