Fuentes/model_rdim.npz (npz, 18780 bytes, 3 tensors)

V1 f8 [19, 41]
0	0x3fc6eff61507f8ee	0.1791980364504932
1	0xbfa29898301e5d67	-0.036320453523496714
2	0xbfc9471e94e39e32	-0.19748289365746668
3	0x3fb9c4b1f2d9db88	0.10065757922153129
4	0xbfc5464a5448739d	-0.1662075912035136
5	0xbfb5d820d200d49d	-0.08532910468132333
6	0xc013126964da3d9c	-4.767980171032288
7	0x3fa4995f7ec6d9fd	0.04023264334266583
8	0xbfc03d15b195698e	-0.12686415835453285
9	0xbf6efa4264a15175	-0.0037814423313113307
10	0xbfca3c45b213a261	-0.20496436305190271
11	0xbf89a2e7ed7e74a0	-0.012517749724617666
12	0xbfb78cb42304471d	-0.09199071745777272
13	0xbff3d560bc4e8a6d	-1.239594207356869
14	0xc001db26d25152b1	-2.2320076399867834
15	0xbf99ddb47916e3dd	-0.025259799853049592
16	0xbfcd00ff2ce1ed12	-0.2265929192688892
17	0xc01b399ba16101a4	-6.80625774530964
18	0x3fc6152aa5adb44e	0.17252095308086485
19	0x3f9e3c25462b30b0	0.029526312263258248
20	0x3faf396d35deda90	0.06098500521277572
21	0xc0063840726db0e9	-2.777466672871118
22	0x3fb2418933fe9823	0.07131249923131171
23	0x3fa56d293305817d	0.04184845683880931
24	0xbf91cd4e0ee3db47	-0.01738473859674208
25	0xbfa06f8bfa259128	-0.0321010344366946
26	0x3fb1a3ee0f30c108	0.06890762205944523
27	0x3fad1d5cee1b36c4	0.056864646974287975
28	0xbfa1e7ac13cbe478	-0.0349706434407801
29	0x3fbb34950775f4f6	0.1062710898604172
30	0x3f989f0f801a1bb1	0.02404426783916919
31	0x3fe7bfa7d9fd6cfb	0.742145467530832
32	0x3fc965aed5e998cf	0.19841561741777133
33	0xbfad027f617291d7	-0.056659680028392216
34	0x3fcacb37ff3e694c	0.20932674372745408
35	0xbfc2aa80e34154f8	-0.14582835289426277
36	0xbfbf863d4eaea8b6	-0.12314208193734796
37	0xbf92005e97042c47	-0.01757953449945784
38	0xbfa18aee00cd3b5f	-0.03426307449136944
39	0xbf70e6e41550586a	-0.004126444769118812
40	0xbfbae7f937258dc5	-0.10510213466982694
41	0xbfaf276e5c138026	-0.06084771036125884
42	0xbfce57fc8ade41fe	-0.237060134703384
43	0x3fe60dd6ea78f42f	0.6891893939533754
44	0xbfbbd3f0ccfd8a80	-0.10870270733497911
45	0xbfbc4f891eb2bc5b	-0.11058861731975027
46	0x3fb69d6a271088ab	0.08833945707059125
47	0x3fe8965e1d6d884c	0.7683554243815336
48	0x3fb94b8ad1a22cba	0.09880893342976807
49	0x3fcb9a46530c25c2	0.21564559035350156
50	0xbfb15183646a1308	-0.06765004350206649
51	0x3f9baa4ccc80e5af	0.02701683042707764
52	0x3fa3b3e9a5472dd6	0.03848199980310667
53	0x3fa7d0aeaca54e3b	0.04651399476520309
54	0x3fe0a71e917d0f1b	0.5204003182957168
55	0x3ff524ca2a6c658d	1.321481862751486
56	0x3f9a374eb3ec0ebe	0.02560160611302708
57	0xbfd2a2d26a1175d0	-0.2911878619978241
58	0x40032994cc75a421	2.3953033421899055
59	0xbfc686157e43a8d1	-0.17596691766022457
60	0x3fb6714f9adab880	0.0876664879858442
61	0xbfaa1d2d534b8640	-0.051003853242729935
62	0xbfb7a1a96d7e3739	-0.09231051371736222
63	0x3fc150eaf85ecbfc	0.13528191688018854
64	0x3fc9d99c02e6ec26	0.201953412453663
65	0x3f99cbdea7b764ef	0.02519176386508531
66	0x3fc1f264e76c244e	0.14020978259967126
67	0xbfa14826a45fa877	-0.033753593030113764
68	0x3fbd53cdc396b685	0.11455999398341461
69	0xbf937a523d590f9f	-0.019021306032541593
70	0x3fbe0d9230ea56fd	0.11739457792495141
71	0x3fc7888488b8ca32	0.1838536899172865
72	0x3fc5207adbccb2da	0.16505370838549177
73	0x3fce04137b4ca786	0.23449939270477332
74	0x3fc03c0b9fe9bff8	0.1268324404550183
75	0x3fcc79b774cc00a3	0.22246449664090048
76	0x3fca74eac3743954	0.20669302505161602
77	0x3fcaf04d80500c6c	0.2104584576155476
78	0x3fae2b6a7e420262	0.058924987709364954
79	0x3fa825d29e1d2f49	0.04716356449225018
80	0x3fadc5b2372b9367	0.058148926958699935
81	0xbfa5fc05ee5bb4a3	-0.04293840918203642
82	0xbfb65d712775a703	-0.08736331189507145
83	0x3fc21de08b3a174a	0.14153677747907017
84	0xbf87be93a01dd059	-0.011593964885584439
85	0xbfbf9f8e6767d07b	-0.12352838539647053
86	0x3fd1c0644c60a53d	0.27736766299001997
87	0x3fc0e866f4e5cf18	0.13209235151190835
88	0x3fbe8be61b8458a5	0.11932218715478145
89	0xbfe6226c60edfdfe	-0.6917020695836411
90	0xbfb1c64232a7e1c0	-0.06943143593515
91	0xbfc4e149fa468638	-0.16312527389986697
92	0x3fd74c53acb44ae9	0.364033621460449
93	0xbfc5fd0c535d1722	-0.17178491659631684
94	0xbfb1ef3c0e24a3ec	-0.07005668015757721
95	0x3fd403d56465cd42	0.31273398212870884
96	0xbfeb69cb6c77e7c5	-0.8566643827937176
97	0xbfba57c2ad630483	-0.10290161831928128
98	0x3fc15db63fc55150	0.13567236055190302
99	0xbfea986f165e6ae2	-0.8311076580897316
100	0x3fde180f791d0538	0.4702185328242936
101	0x3fc9779abe601eae	0.19896253867795138
102	0xbfc7367674eb3e6d	-0.1813495703595324
103	0xbff021df65eaf391	-1.008269689670872
104	0x3fdff475ee8b0936	0.4992956952593376
105	0x3f9beb40043e7adc	0.027264595278775214
106	0x3fb7f1e5ff22414c	0.093534827030685
107	0x3fcf56e61b27bb00	0.24483944250047074
108	0x3fbdc56f418a5c19	0.11629386282071187
109	0x3fcaea4559097754	0.21027438018330236
110	0xbfc33475bee03641	-0.15003845043286115
111	0xbfbf145970850d2c	-0.12140425679267669
112	0x3fbb8456674ef810	0.10748806020907886
113	0xbf8a327cbd761a67	-0.012791609317685372
114	0x3fa8c0795c500ad0	0.048343460577617514
115	0xbf60296174601e22	-0.0019728568468087163
116	0xbfc0c2d6f25dddde	-0.13094603380498787
117	0xbfc2674d11378ad3	-0.14377749767944312
118	0xbf78599e787c4c6a	-0.005944842363322692
119	0x3fb9f622a244f98b	0.10141197644859383
120	0x3fbbfed4eceb0c28	0.10935717376837373
121	0x3fa5971944e5b46e	0.04216841665297798
122	0x3fb4a0aa336620a1	0.08057655100685902
123	0xbf8dd7aa4e459561	-0.01457150508276567
124	0xbfdf8aa222ecd690	-0.4928365078988941
125	0xbfaf064c4b108bc9	-0.06059492508236237
126	0xbfd1128057a4a58f	-0.26675423201467025
127	0xbfd19864883ef077	-0.2749263124967522
128	0xbfaf32e7c30ed8d1	-0.06093525177077342
129	0xc0066dd9a46cbc18	-2.8036377759631357
130	0x3fe0398643c33341	0.5070220302091927
131	0xbf830ec94bece040	-0.009305546407276322
132	0x3fd03c84bc3f6646	0.2536937559467315
133	0xbfb9860d418c1f58	-0.09970171785618953
134	0xbfd087785d10163d	-0.2582684429947653
135	0xbfd30cdf91e857cf	-0.2976607251051719
136	0xc006d2804329dc1e	-2.8527837035321815
137	0xc006b75d10050313	-2.8395329715280098
138	0xbfa940d7869f604b	-0.04932282942144236
139	0xbf9fb2aee3887701	-0.030955059659496523
140	0xc006880e528ee675	-2.816433567987412
141	0xbffc83fb045721f9	-1.782221810297527
142	0xbfbe60ab95ca532a	-0.11866257102003588
143	0xbf7b5886f678a1c0	-0.006676222990372016
144	0x3f8873f081e20611	0.011939887012206747
145	0xbfb25132f29b57f3	-0.07155149863260117
146	0x3fc0950337145ff5	0.12954750241692606
147	0x3fc835a0386d99bf	0.1891365314033475
148	0x3fcd877e30d068b7	0.23069741614819403
149	0x3fd0c14547a09da1	0.26179630274642746
150	0x3fcb9c14badcf5fc	0.21570071338821595
151	0xbfa27ce1b27ab770	-0.036109021222144544
152	0x3fc4b2d6f0af0a2d	0.16170775177131827
153	0xbfa8513f0d6a57b6	-0.047494860065099884
154	0xbfc21ed215c6938b	-0.14156557143465096
155	0xbfb278c92d704bb9	-0.07215554580061125
156	0xbfbb96d1e837ea66	-0.10777007979769734
157	0xbfcfa14330fb2be8	-0.247108839909145
158	0x3fcdd4ce5c935f3e	0.23305682678505407
159	0xbfca1a6cb3fa7f99	-0.2039314154435459
160	0x3fc30f97b63b8f8a	0.14891334913329174
161	0x3fc6cb553e4a36d9	0.17808023015498156
162	0x3fc08b35c2763bca	0.1292483520050765
163	0x3fbe792086a3a081	0.11903575217331942
164	0x3fc20ff85d084b83	0.14111237089727177
165	0x3f90573b7b6de4d4	0.015957765015149075
166	0xbfa59edc15ca2d03	-0.04222762838352347
167	0x3faac1fd4603679f	0.052261271282716175
168	0x3fb3fad5db31f395	0.07804619409030374
169	0x3fb42b70b86f54a9	0.07878784659199546
170	0x3fd02ee0b7d61a07	0.25286119416014724
171	0x3fc22f64a736ac9b	0.14207132496571692
172	0x3f8bd7e890ef8de0	0.013595406458938919
173	0x3fd3abc32b110f22	0.3073585434506062
174	0x3fd8b620c8c155a4	0.3861162147998931
175	0xbf7f86076c16a5a6	-0.007696179383324708
176	0xbfc8e1e929d1200d	-0.19439425031509963
177	0xbfc1d16c039baeb1	-0.13920355011156496
178	0xbfa5083fcff7da38	-0.04107856191324227
179	0x3fa7dbddb5734ea0	0.04659931983920029
180	0x3fc89a57f932bfc6	0.19221019428141356
181	0xbfb6af2c0bdc3f35	-0.08861041345175809
182	0xbfa18316c9077363	-0.034203254737554166
183	0x3fcea441d5f1ed12	0.23938773104223593
184	0xbfc76a651f19d050	-0.18293441790194942
185	0xbfbf896e77a32ad1	-0.12319078846773414
186	0xbfb6562efcda1a71	-0.08725255654472065
187	0x3fd084d70e5e1171	0.25810791400024075
188	0xbf6b297ab1c14e8e	-0.0033156772970331433
189	0x3fa9aebbb090cb77	0.050161233237665685
190	0x3f849ef25f01b2cb	0.01006879188954581
191	0x3f9eddeb5cfe923f	0.03014343028157129
192	0x3fcf042a8bfb781f	0.24231464228699992
193	0xbfce1f8a5c451a49	-0.23533753877036848
194	0x3fd2c2463154ae44	0.29310755555590995
195	0xbfaaccb5257f3a02	-0.05234304506995004
196	0x3fd705c39dbbae89	0.35972681430460135
197	0x3fd08e3e2b69b0b0	0.25868181457077366
198	0x3fc89cfc9f26a183	0.19229085703888069
199	0x3fc043f40f385f1e	0.12707377188848396
200	0xbfcc5e27635a11c9	-0.22162334777034534
201	0xbfa0744977942889	-0.03213719925595721
202	0xbf9ef58f572aaf2d	-0.030233611769900626
203	0xbfb9bc68a97b2dbd	-0.10053114068721576
204	0xbfc338ef3f98de23	-0.1501750050099285
205	0x3fc1373bc561f5d8	0.1344980920584209
206	0x3f8b6f5abd8f77f7	0.01339598551743036
207	0x3fc8baeda4fc8969	0.19320459896068634
208	0x3fc6d09baaa29f3a	0.17824121314810687
209	0x3fcb4bc6cc6af78e	0.21325001698818052
210	0x3fa82a8abf224880	0.04719956954171867
211	0x3fe71c843d89b6d0	0.722231025878239
212	0x3faf5167f8854737	0.061167954527844896
213	0xbfb90e1bf204c79e	-0.09787153872164686
214	0xbfd378b4018c925f	-0.30424213553695795
215	0x3fe1e93d8d0ae78a	0.5597217325914567
216	0xbfd110a2d42d724b	-0.2666403839155335
217	0x3fc125d9c36197e7	0.13396760978792985
218	0xbfc75a84261d946a	-0.18244983540640486
219	0xbfb89606da1e256b	-0.09603922677174175
220	0xbfb559900dab963d	-0.08339786847826587
221	0x3fc0588b0c8e0c6d	0.1277021228125678
222	0xbfbbabe17e79e543	-0.10809144342228642
223	0xbfc4f54b5282a364	-0.16373578575919645
224	0x3fd2fa49eb733a93	0.2965264128987794
225	0xbfc35239e5382ac3	-0.15094684307435643
226	0xbfd22fc1cfd5bb6f	-0.2841648606908426
227	0xbfcd974249ba7f1f	-0.2311785564424946
228	0x3f8521adc8eb4b9e	0.01031814355284216
229	0xbfbbf0578e166387	-0.10913607806140933
230	0x3fb69ec14a0ec3b6	0.08835990961121251
231	0xbfaf794d6924dc6b	-0.06147233875747634
232	0x3fb9a392fed52477	0.10015219422816012
233	0x3fb8ce1c5e6980e1	0.09689500145896403
234	0x3fb2411b7a9cd891	0.07130595916246053
235	0x3fc65de031a1108d	0.17473986075686235
236	0xbfb1daa6e300ca7f	-0.06974261323993323
237	0xbfe3daf4bacf9ae9	-0.6204780243541254
238	0xbfded04055d04622	-0.4814606512091776
239	0x3fc363a719be51c9	0.15147866017345127
240	0xbfc4beb270798728	-0.16206961147241228
241	0xbfc868dd5b8e86f6	-0.19070021601242332
242	0xbf9fb947200ec510	-0.030980216342588796
243	0xbfb2daebee6f4677	-0.07365297862204466
244	0xbfb2b1255fcc9b50	-0.07301553334091904
245	0xbfc220cebaab6258	-0.14162620653839286
246	0x3fc30d6f17aeb51a	0.1488474717747657
247	0x3fa6a2b5f42ccec9	0.044210134560129406
248	0xbfd2a21d74e69cbe	-0.29114471832367517
249	0x3fc67368dc8ef7b7	0.1753970219560281
250	0xbfc724b11636b147	-0.18080724320078387
251	0x3f9bdcabb61cc74b	0.027208979597339405
252	0x4010cac163decac1	4.198003349755425
253	0xbfe066e1662396a8	-0.5125586504843413
254	0x3fb96cb1d37967a4	0.09931479847855812
255	0xbf7836004eda0fff	-0.0059108745605307425

V2 f8 [28, 19]
0	0xbfeceefefe3278d2	-0.9041743244922833
1	0x3fa33042ca1c3f6c	0.03747757641951818
2	0xbfd45d924e2425cb	-0.31821115141846396
3	0xbfd483b1c6279005	-0.32053799010304856
4	0xbf8007443d595dbe	-0.007826359865403695
5	0xbfd4930f2aea8b3f	-0.3214757842162505
6	0x3fdd5ed6ac9bd2cb	0.45891348701779283
7	0x3feb7e65702fb7b3	0.8591792288914263
8	0x3fdcb4af0fbfdb0f	0.44852806604414835
9	0xbfce99ed370eb598	-0.2390724676928755
10	0x3fd1180c736a7160	0.2670928122622822
11	0x3fdc0ba60d51f5cd	0.43821097660824365
12	0x3fd2514ce6a08aae	0.28621218225650125
13	0x3fbe8e4131f45cb5	0.11935813397973301
14	0xbfd0575a6f59f8d2	-0.255331619969991
15	0xbff197b48a8bb439	-1.099537411874975
16	0xbfe16915c03c1e0a	-0.5440777544581021
17	0xbfcfad369b6cb1e6	-0.24747355069247517
18	0xbfe0d75a0c6bf750	-0.5262880556690366
19	0xbfebefa801f441ac	-0.8730049169699234
20	0xbfd038c1931fe1d7	-0.2534641205561718
21	0xbfeb9470768fdbea	-0.8618700328505586
22	0x3fd4c9a50f4c050a	0.3248074197181984
23	0xbfc6ae22d91b9df0	-0.177189212808329
24	0xbfd1bc905bafca35	-0.27713402704026474
25	0x3fe1059c9c7db381	0.5319350296464195
26	0xbfc2fdfe2ed314af	-0.14837624822954384
27	0xbfb4b9732cb63fa1	-0.08095474092101408
28	0xbfde0d581797421f	-0.4695644598369046
29	0xbfef745d79cc3591	-0.9829547289715937
30	0xbfe13a19fc0228cd	-0.5383424684562442
31	0x3fc7a458caa67bf3	0.18470296759639346
32	0xbfcc0ddaf1c5e9ec	-0.21917282872512034
33	0x3fde2cd4da769b21	0.4714862950735768
34	0x3fd3d649b6eb651a	0.30995409835084475
35	0xbfd48b24bc91cd2c	-0.3209926454066643
36	0x3fd7ea87fd352f76	0.3736896488887774
37	0x3fbe465bf5fafab8	0.11826109652882166
38	0xbfe081ebec7a3b14	-0.5158595675182789
39	0x3fb69b1c3381a229	0.08830429322700496
40	0x3fea151cb248d927	0.815077160083807
41	0xbfe1bf70637288c3	-0.5546190206844347
42	0xbfc9dc60dc9a7675	-0.20203791400574614
43	0x3ff50e34e2c04a93	1.3159684045282674
44	0x3fc5dc787375fe73	0.17079072606792386
45	0x3f98b982a2b43ad0	0.02414516561571639
46	0x3fe063530b8bc009	0.5121245599275436
47	0xbfdb4a56215f67d2	-0.42641213664103106
48	0xbfe3d44a80a4bdad	-0.6196644318169341
49	0x3ff51b459394cc6d	1.3191581501858096
50	0xbfade786d9027a7b	-0.0584070339111706
51	0x3fcb850b65712887	0.21499769643043384
52	0x3fb3eafc9e0d89a4	0.07780436381066252
53	0xbfe979b632ebda9d	-0.7961073870236138
54	0x3fda6794559046a0	0.41257198673074846
55	0x3fb23aff4aa9f3b1	0.07121272633408073
56	0xbfa947fe3d80b8d2	-0.049377388961475824
57	0xbfd022a48124392c	-0.2521144162318645
58	0x3f9cdda57efae99f	0.0281892641785163
59	0xbfb888ebbf7f6c94	-0.09583924699056673
60	0xbfe6b943a0c7e008	-0.7101152553796064
61	0xbff0897ff76bae01	-1.0335693039768332
62	0xbfeca106b16a1c58	-0.8946565117956977
63	0x3fb02eae2c4e4099	0.06321228582078432
64	0xbfe41d657a48d971	-0.6285884273882357
65	0x3fe02e3ad4445337	0.5056432863080776
66	0xbfc7c4e4845fb1ed	-0.18569618667187573
67	0xbfe046e137c8598d	-0.5086523141388156
68	0xbfe9f03c588c9111	-0.8105756501650224
69	0xbfb844e8f37ff58b	-0.09480148262806247
70	0x3fcc34d5ce44baa7	0.22036240169241703
71	0xbfb146354819955d	-0.06747754106762245
72	0x3f983029cd5b80d2	0.023621228369734855
73	0x3fa634c7550f366c	0.04337141908000039
74	0xbface5f681e4e6a7	-0.056441977840632256
75	0xbfdf93ca420561ab	-0.4933953900085963
76	0x3fa1544fc24c702a	0.033846371143426104
77	0xbfe6d1b403a37dad	-0.713098532778465
78	0x3ff04372c8d12637	1.0164668888486525
79	0x3fb7975aa5a18f06	0.09215323013046026
80	0xbfb46db5f2b0a393	-0.07979905295418481
81	0xbfc919d8aade0210	-0.1961012682259171
82	0xbfbb97ef511929ea	-0.10778709154070723
83	0x3fdaaa2616fadd84	0.41663505787024513
84	0xbfde5983da237c50	-0.4742135648975294
85	0x3fc24c526edf64ef	0.14295416272833658
86	0x3fe5f01aeef77887	0.6855597178762459
87	0xbfbc5512c647ecf4	-0.11067311611980185
88	0xbfd37fdf418fd519	-0.30467969324611627
89	0x3fd4ec287ea16a58	0.3269139515520343
90	0xbfb862c75aa87a7a	-0.09525724376042347
91	0x3fc05ed84ae53cfb	0.1278944364262101
92	0xbfcc223fef103e2f	-0.21979521916408504
93	0xbfdac2f3a3a64306	-0.4181489084376583
94	0x3fe1e9d0a688fda1	0.5597918751372398
95	0xbfdaa282933b9cc0	-0.41616882684907
96	0xbfc34868063f2052	-0.150647166299907
97	0xbfe19993fbf197ef	-0.5499973221565123
98	0x3fdf150f08b1c1bb	0.48566032265719244
99	0x3ff110228401f5a3	1.066439166693592
100	0x3fe3a4afa1c0e885	0.613853279042147
101	0xbf911acbceff2160	-0.01670378161341668
102	0x3fd309baf9ec6ee4	0.2974688950214228
103	0x3fd1630d56b58267	0.27167066066434703
104	0x3fe302e8f687c949	0.594105226044385
105	0xbfe431493696b78b	-0.6310163561044971
106	0xbfe5ae0867e42a94	-0.6774942425848445
107	0x3fd1e792390c4dd4	0.27975898333644733
108	0x3fe7d802de618440	0.7451185553910662
109	0xbfc23ab408d165aa	-0.1424164813095506
110	0x3fd41ef715b1bd85	0.31438996428092764
111	0xbfdb6580b0cfe40f	-0.42807023302845065
112	0xbfd37d6c68e47771	-0.30453024142649726
113	0xbfa5e1389c8177b7	-0.04273392591925023
114	0x3fc0b84a23dd6631	0.13062407256329459
115	0x3fc2f8ad76691581	0.14821403772127087
116	0x3fdad958126af192	0.41951562689407595
117	0x3fbf1c598de6630d	0.12152633394579145
118	0xbfc0bc83be91a039	-0.13075300984496765
119	0xbfbbd0b662af8187	-0.10865344914737395
120	0x3fe1158e4902db68	0.5338813234328486
121	0xbfe7310f5ac6ee4b	-0.7247387669553488
122	0xbfd1c0caac1d5c26	-0.27739207084727224
123	0x3fd6a8cf0aea166d	0.3540532690607055
124	0x3fb2a05231983904	0.07275880537801888
125	0x3fb16e771c8bb61f	0.06809181639592808
126	0xbf9d11b04d9ab72b	-0.028387789475053864
127	0xbfddf247fde54251	-0.46791267199026715
128	0xbfd3816eedc2e2d2	-0.30477498263239255
129	0x3fdfc4ff56256ba0	0.496398767592547
130	0x3fd085551883ad16	0.25813796419125035
131	0xbfe75c2e06b29237	-0.7300024157344244
132	0x3fdce2fc9bad0627	0.4513541717788904
133	0x3fe949efd8f3a76d	0.790275500997479
134	0xbfbed62b247b1613	-0.12045545235294979
135	0x3fbd59ab4ca97ea0	0.11464949247010248
136	0x3ff195a94ce6a222	1.099038410562692
137	0xbfd085d387ba184a	-0.25816810850699723
138	0xbfc2dd1298227110	-0.14737160137600158
139	0xbfd07ff2982cc5b4	-0.2578093038638045
140	0xbfdacb8d393c340e	-0.41867380704280854
141	0xbfcce42a001d7f37	-0.22571301465631574
142	0x3fd1fa46f4380e3e	0.2809007058096745
143	0xbfd95d3ba7819cb2	-0.396315492229813
144	0xbfdf37387036c213	-0.48774538954151686
145	0x3fd42634c305a077	0.31483191533198557
146	0xbfe1f727dede7485	-0.5614203789624673
147	0x3fd91eeaadbd068a	0.3925120064414861
148	0xbfdee1a58e3cb2bc	-0.48252238169042605
149	0xbfd26155c5191a93	-0.28719085929734794
150	0x3fd964dc2197f33e	0.3967809989988388
151	0xbf98ac195ad793d5	-0.02409400574642347
152	0xbfe45792c7420bc3	-0.6356901065595298
153	0x3ff0db3a0337a0a7	1.0535221219707098
154	0x3fd687af33ec4f95	0.352031517702238
155	0x3fe33b87cac6bffe	0.6010168991542739
156	0x3fdd5657b51ae331	0.4583949345210839
157	0x3fd036c5d91603e7	0.2533430690746727
158	0x3fced73def7540c9	0.24094366256986735
159	0x3fe07bf546099d4b	0.5151316039963744
160	0x3fdbd9d15ec49d78	0.43516954664888585
161	0xbfdf6a644f2fbf37	-0.4908686421685959
162	0x3f8df770a02324bf	0.014632110487939774
163	0x3fd4a21ceb1b3e67	0.3223945899926321
164	0xbfccfc0e7fa6c2a1	-0.22644215805987236
165	0xbfe54ce2cd5c9893	-0.665635491463734
166	0x3fc2104f2c852143	0.14112271951513308
167	0x3fd8c969bd1b9c13	0.38729327647746564
168	0x3fdece08700d6d70	0.4813252538931101
169	0x3fd2061bc6896e5b	0.28162283314097686
170	0x3fb5031c4d2fee76	0.0820787132687942
171	0xbfd0ad4e963a1206	-0.260577818590065
172	0xbfe858c2f38cc355	-0.7608351475556484
173	0x3ff37e88933637bf	1.2183919668636773
174	0x3fd6d5b7977fd47e	0.35679425997597736
175	0x3fe347c9f7716ff5	0.6025132973550159
176	0xbfbbcb0028d550d5	-0.10856629368692279
177	0x3f9471ab9ddb6619	0.019964868078068052
178	0xbfdafe2cc0aa5c95	-0.42176359953868686
179	0xbfbbda898d84343e	-0.10880336480131889
180	0x3fe116adf90cbeaf	0.5340185035947423
181	0x3fde265cdf6bc954	0.47109147852383626
182	0x3fc7acb0aa32b6ce	0.18495758352712816
183	0x3fcaa7acd25a4503	0.20824203749774747
184	0xbfb8a56314168846	-0.09627360573225116
185	0x3fd404898eb233ed	0.31277693686644065
186	0x3fd094e96172a3eb	0.2590888454092794
187	0x3fe34c0bbff03b79	0.6030329464718839
188	0x3ff1484f3b994288	1.0801536872933486
189	0xbfdb41d0d0664b17	-0.4258920703079396
190	0xbfe2cf76c41874a5	-0.5878251867285554
191	0x3fd16cfc4703bc64	0.2722769444944275
192	0x3fe9b5e7f9fbc9ca	0.8034553415766876
193	0xbfe923b9acd98e48	-0.7856109977696599
194	0x3fd3ea16ade7c9ba	0.31116263373328545
195	0x3fd3c96fea2da423	0.3091697489640543
196	0xbfc02775de56636a	-0.1262042365676977
197	0xbfdf80146bf40a85	-0.49219236891091384
198	0xbfd7e4e72b6e71ca	-0.3733461307654379
199	0x3f9dafd89d5cd912	0.028991112332016185
200	0x3fc104e65314b276	0.13296202713663136
201	0x3f95bc53e9b5b81a	0.021226225986019732
202	0x3fe1c334c78780df	0.5550788781220283
203	0x3fb7c0dde2654b48	0.09278666283834724
204	0x3fc47c18ebf34437	0.16003715058335086
205	0xbfd9f067c2389463	-0.40529817549606245
206	0xbfd79b6d9108aa63	-0.36886157191717056
207	0xbfac2ea9e3411e34	-0.055043515196811305
208	0x3fdf65fc19b083b5	0.4905996561884039
209	0x3fb247a0df837ac3	0.07140546280741504
210	0xbfd361d4ca4d2bbd	-0.30284614330292553
211	0x3fc5c0bb9f673b84	0.16994424136506947
212	0xbfd5591480a48b56	-0.3335620170857302
213	0xbfb214ce32daacf7	-0.07062996617849025
214	0x3fd57b3922f0b683	0.3356459466184349
215	0xbfca77635db6200a	-0.20676843715432397
216	0xbfc38fe8aa49d2e5	-0.15282924952375435
217	0xbfded2d0c0ab91dc	-0.4816171533150546
218	0xbfc844ae59656ab0	-0.1895959793572124
219	0xbf9d54ed291e9d7b	-0.02864428103899062
220	0xbfdded0b9c8c4d92	-0.46759310043236113
221	0xbfe62dbb3ea88d69	-0.6930824493214632
222	0xbfe4df35f87d1608	-0.6522474149030026
223	0xbfe6aaf8952a2263	-0.7083704865809292
224	0x3fc5b9d4e3a52156	0.1697336303279921
225	0xbfd1e7979695e625	-0.2797602625429099
226	0xbff2a61c43aacbb8	-1.165554298710715
227	0xbfdb3b07fb8bf3fa	-0.4254779774199161
228	0x3fb5b5ff3923b46d	0.08480830330855023
229	0xbfac3e9d96970aca	-0.05516521895653666
230	0x3fea98ae9b1b1126	0.8311379460724637
231	0xbfdbdbdcf1191e53	-0.43529437584627323
232	0x3fe83c827f80e851	0.7573864450744258
233	0xbfcdf29f118b5271	-0.23396671635295577
234	0x3fdc5e1b067aa11b	0.44324374802319405
235	0x3fa29b337bc8b39a	0.036340340481138614
236	0xbfd31a4d5c95840f	-0.2984803585187032
237	0x3f88bb9bfe35ae04	0.012076586432804078
238	0xbfe6016b4b47863d	-0.6876732321072222
239	0x3fb9e38e5f484e7a	0.10112848116141918
240	0xbfe4c3728a8608ff	-0.6488583283937998
241	0x3fd4dac793158dc8	0.32585324634257207
242	0x3ff17cc35f7f1cf2	1.0929597597440162
243	0x3f99830e2f33d954	0.024913999205602735
244	0xbfae524e364389d5	-0.05922169124984903
245	0x3fbb8336a35075ff	0.10747090804257907
246	0xbfde8e42119a0d83	-0.4774327442066452
247	0x3fd0f5e0f822598e	0.2650072501359312
248	0x3fb1233d0e075417	0.06694394676681302
249	0xbff0584db5523b30	-1.0215584833965288
250	0xbfdd0003e991b282	-0.45312593278394087
251	0xbfd77cd2c435cb5b	-0.3669936100115387
252	0x3fcca28808b4a37a	0.22371006417349887
253	0xbff07d2d80bdc330	-1.0305609730678036
254	0xbfdb55653d7d6c11	-0.4270871258246994
255	0xbf8542684d8c982f	-0.01038056837712639

V3 f8 [21, 28]
0	0xbfce373fda3837f8	-0.23606107859853842
1	0x3f9667bd20c689db	0.02188010704561259
2	0x3fd0417b2687c38c	0.25399664652564335
3	0x3fca55db29b0945c	0.2057451203883457
4	0xbfb6da7715a82d5c	-0.08927101401075305
5	0xbfa5c881f8b754c4	-0.042545377360207165
6	0x3fc77ac4d8f48475	0.1834341105796146
7	0x3fd1d7353fa358cc	0.278760254046017
8	0x3f9e724941618395	0.029732842078718475
9	0x3fa06e5ed2254d9e	0.032092059280923055
10	0xbf9daa6bde897672	-0.02897041841276011
11	0x3fcd238b3d5799f8	0.22764721389030718
12	0x3fb04cb826d5026b	0.06367064426468409
13	0xbfd07bba0f44fa93	-0.25755168429524494
14	0x3fc0b8d375589405	0.13064044217858864
15	0xbfca27e8449e11e2	-0.2043428740545457
16	0x3fcb9a91bac68bda	0.2156545793523879
17	0xbfc3917c431f8b5d	-0.15287736203671445
18	0x3fd06560e2b029ff	0.2561876500846267
19	0xbfcfe9512bccdab8	-0.2493077720516419
20	0xbfcdf38992cde62f	-0.23399467151811978
21	0x3fcd12aa9b13a7fd	0.2271321541987276
22	0xbf9e3aaa027ebc4f	-0.02952066078404086
23	0xbfcc1427f65e9e70	-0.21936511544957993
24	0x3fc8a8ab9d602367	0.19264741119720982
25	0xbfa5ef4525c22c31	-0.042841111048879894
26	0xbfd095d64f391ed3	-0.25914533363946396
27	0xbfd14873de47b091	-0.2700471564010139
28	0x3fb39bbc01e529fc	0.07659506841915936
29	0x3fc7649c556c8714	0.18275789424029
30	0xbfba7e6018c7a537	-0.10349083523728529
31	0xbfb88d08d3a6d92b	-0.09590201537398417
32	0x3fbc90e6a08dc0a9	0.11158601207512454
33	0x3fab8fba1e0870ee	0.0538309251462311
34	0xbfc61ad9c44d6043	-0.172694416857441
35	0xbfb23cd142bc6c0c	-0.0712405002526994
36	0xbfb273cee4b795ff	-0.07207959255136841
37	0x3fd4ab21361ae89d	0.32294492992117246
38	0x3fc82f5e8831f1e2	0.188945595265877
39	0xbfc6e84ca7b9280a	-0.17896421613323837
40	0xbfda03375fc7bc55	-0.4064463076928793
41	0xbfcb49da4bfe0c92	-0.21319130621495624
42	0xbfb2995f539b3721	-0.07265277663392712
43	0x3fc2bf021283e3c4	0.14645410446226326
44	0x3fc6cf4c946cd77f	0.17820126769373343
45	0x3fd0e70f1dd79c24	0.2641027251651755
46	0x3fca8a1ccca0cb7f	0.20733985892874426
47	0xbfcb7bcc9b9823d0	-0.21471555325868374
48	0xbfd0799055050eab	-0.2574196653624578
49	0x3fc7ff79246c06a6	0.18748392370621508
50	0x3fd8fc3a3d193b4a	0.39039474455505696
51	0xbfbc2cae651781a8	-0.11005678146421494
52	0xbf9d70a1c2aef89a	-0.02874996901277225
53	0x3fb1ac255f6977b7	0.06903298930544009
54	0x3fbc67a7dcb252d3	0.1109566606340409
55	0x3fa42166c5072ab7	0.0393173327934923
56	0xbfae708d3802ce7b	-0.059452450835490965
57	0x3fbcd4c51ca69f6d	0.11262161206707129
58	0x3fa4408995096412	0.03955488151832055
59	0x3f93401fb8584cb7	0.018799300791283637
60	0x3fdcea94d93b8d9e	0.451817714825859
61	0xbfb9b951c82c3f77	-0.10048400055916128
62	0xbfa6354d46bd198e	-0.043375410924045274
63	0x3f92fe4f5b35e4c8	0.01854824060635421
64	0xbfdf4763f8436cf5	-0.4887323307463725
65	0xbfb29df42ed0e3f0	-0.072722684316332
66	0xbfc0a0b5d3113f44	-0.12990448766731266
67	0xbfc2641bd4419915	-0.1436800753028328
68	0x3fc046a9a78d801d	0.12715645486150687
69	0xbf81c2fb24581fea	-0.008672678038251964
70	0xbfdb3ad5217f070c	-0.42546585341561705
71	0xbfbb93e9cae36659	-0.1077257271130291
72	0x3fbaa326e4f0f4f5	0.10405200089822471
73	0xbfbf3315fe63f79f	-0.12187325916963097
74	0x3f46ea2e559a6020	0.0006993032686351021
75	0x3f75b8f8cfe300c4	0.005303356096362847
76	0xbf4155e8d92e0a40	-0.0005290400462033065
77	0x3faa86d6041114cc	0.0518099670376074
78	0xbfb69381fbd50afd	-0.08818828962561649
79	0x3fc06cbe078ee44c	0.1283185517220623
80	0x3fcfe6fde9ecf36c	0.2492368118490974
81	0x3fd95c78596ef1e6	0.3962689278958166
82	0xbfa8046dcdbeeed1	-0.04690878998323245
83	0xbf9e632ddaf6fc6d	-0.0296752133269788
84	0x3fb5db90bd71962c	0.08538155198183323
85	0xbfdfbd6e1893163d	-0.4959368934617919
86	0xbfb0ee533b6ecd7f	-0.06613655282017382
87	0xbfa193d6873130f4	-0.03433103943152274
88	0xbfa92501971572af	-0.04911045998844565
89	0x3fb19a502d8598c6	0.06876088248609155
90	0xbfd7f2d82559683a	-0.37419704100978246
91	0xbfac442423f3f282	-0.05520737589720161
92	0xbfb0edb375ee0771	-0.06612702969689878
93	0xbfd1626b2d2903ea	-0.2716319981591925
94	0xbfe162dda5c35a39	-0.5433185803947885
95	0x3fbe2c1f72422d5d	0.11786076106561923
96	0x3fc27cb4db27858b	0.14443073941133053
97	0xbfba04c644f34fa0	-0.1016353529296894
98	0xbf8ac638f685c0dc	-0.013073391936558591
99	0x3fb9962acb6b9d3a	0.09994761911695074
100	0x3fb4934178c7f9ea	0.08037194441565246
101	0x3fbf1c96e5697667	0.1215299902046013
102	0x3fc3cf7fa86c3a8d	0.1547698566796111
103	0xbfa11a531549ba0c	-0.03340396532881948
104	0xbfc2d8b41806035d	-0.14723826573392787
105	0x3fc16ddd3513b51f	0.1361652859845117
106	0x3fce49577dcaff6f	0.23661321298822766
107	0x3fa34fa89a1d5570	0.037717121899428885
108	0x3fb17b89d1fa98fa	0.06829129578054341
109	0xbfb9cbf9e8df1eba	-0.10076867995587238
110	0x3faa007d7c88f8a2	0.05078498978808567
111	0x3fa0c98040e671a3	0.03278733055342122
112	0xbfb97464669dcda3	-0.09943225388797443
113	0x3fd25da0af2062b8	0.286964579603175
114	0x3fc20b72d04d3044	0.14097438021633668
115	0xbfa30d19e9916295	-0.03720932937784941
116	0x3f9dee81b53c59eb	0.029230143248321665
117	0x3fe2d1b95afeed8e	0.588101079679676
118	0xbfb7a2afbdeb2b27	-0.0923261488598369
119	0xbfc51c9b30bdd538	-0.16493549232442617
120	0xbfb7296511df62bb	-0.09047538458197384
121	0xbfcfa31469ed2081	-0.24716429874593263
122	0x3f91a1791d74b6f4	0.01721753351483009
123	0xbfc920de13ad4776	-0.19631553612503766
124	0x3fb0fe5b3f7512cf	0.06638117121935781
125	0x3fc56f8e6cb8aa4e	0.16746692951831438
126	0x3fc68fcf73de3d2d	0.17626374395011038
127	0x3fbcf9b2b8165c89	0.11318509096450859
128	0xbfcdac0d560de337	-0.2318131132303962
129	0xbfc5dbf013cd3b46	-0.17077446905974564
130	0x3f9aab49f08736ac	0.02604404001777165
131	0xbf79c95c80628c64	-0.006295548757552092
132	0xbfa26622460bfe39	-0.03593546967567502
133	0x3fa30f3fcf4ccc68	0.03722571759717469
134	0x3fc04937ca34fbed	0.12723443387400782
135	0xbfd09c40b81795fa	-0.25953691461322104
136	0x3fd7581e836d2a8d	0.3647533687077747
137	0xbfc04d85b9084933	-0.12736579451354543
138	0x3f94d0f30c405699	0.020328328726540865
139	0xbf83bdb0b51c67a0	-0.009639149214809184
140	0x3fcda5d97bfb49c1	0.23162382653988625
141	0xbfc166af5f55ba42	-0.13594619898818122
142	0x3fa8642c1d9b282f	0.04763925420191161
143	0xbfd30f1ad2fff5d2	-0.2977969227357252
144	0x3fb20adb5e1dd8c9	0.07047816322105684
145	0x3fc8ce8de94d1485	0.1938035382428646
146	0xbf9a0c58a3f22061	-0.025437722212274475
147	0x3f9547aebda97c76	0.020781259847691712
148	0xbfd0b6c2cbb7c9cd	-0.26115484136894623
149	0x3fcc116cf1b2e8e5	0.21928178598120165
150	0xbfc0e05ed7fcfb1d	-0.13184724375056414
151	0xbfbf128531c8e1e6	-0.12137634721228316
152	0xbfcabf8170f10cce	-0.20896928801275866
153	0x3f830d4808269c7b	0.009302675961249776
154	0x3fc2d7ad75a7e24d	0.1472069572917171
155	0xbfdaba36a819e92f	-0.41761557022222723
156	0x3fd3112c184869fc	0.29792311068891286
157	0xbfae12cdb3270d9b	-0.0587372094337539
158	0x3fb9ea7d66b48cd9	0.10123428113415701
159	0xbfa5568d81dc62a3	-0.04167597017494031
160	0x3fc4cce6115daaba	0.16250301216071766
161	0xbfc79277c1d31449	-0.1841573425682859
162	0xbfd47c202bace4c8	-0.3200760294453855
163	0xbfb6a220230ff3fd	-0.08841133934033958
164	0x3fa261d84182c2e6	0.035902746197626276
165	0xbfd55bec219bdac2	-0.3337354973040584
166	0x3fc0683998a35050	0.128180694132086
167	0xbfa1c10822ab4d92	-0.03467584059913088
168	0xbfc953c1415252e7	-0.19786849679498816
169	0x3fcacdc13c8e813d	0.20940413910740033
170	0xbfb7e350e24ca9e4	-0.09331231617822017
171	0x3fd4bcb6c68d9a35	0.3240181864734127
172	0x3fd48348ee0bdd62	0.3205129933043819
173	0x3fa3c6f38d72b4be	0.03862725354825035
174	0xbfb98f53b0165b28	-0.09984324501997988
175	0x3fb24ce59abb1c45	0.07148585345849863
176	0x3fb9dec991e06ac8	0.10105571567002436
177	0x3fa02977a6a9dae2	0.031566371054329925
178	0xbfc658df54ccda89	-0.17458717003474458
179	0xbfae26d0037bf7f2	-0.05888986628086447
180	0x3fab1d8f927fac87	0.05295990622820406
181	0x3faaacdeccd5a920	0.05210014582083233
182	0x3f7ab1b838ef33aa	0.006517142885923125
183	0xbfcd6e3b940e443a	-0.22992653588565465
184	0xbfa458a66949d8bb	-0.039738846161456697
185	0x3fe0a4bf7edaf0af	0.520110843433505
186	0xbfbb7ad35c3adb9c	-0.10734292031962273
187	0x3fc24a99c25546ee	0.1429016302959591
188	0xbfbe8dd2d545f744	-0.11935155588977603
189	0xbfd234d98d58f50f	-0.2844756965967727
190	0x3fb26a41ff8761fc	0.07193386543747943
191	0x3fb098fc94abefdc	0.0648343909232944
192	0xbf8e23c5ebea712c	-0.014716669332579167
193	0xbfd388d6cc9ae779	-0.3052269933792711
194	0xbfb70293ff5b9b28	-0.08988308891603636
195	0xbfd0fa4dfa200313	-0.2652773802401935
196	0x3fc3e9db08e3da99	0.15557420667729074
197	0x3fa92f12c8e2e80b	0.049187266371021186
198	0xbfd5a843e1932750	-0.33839509037772064
199	0xbfd27e13cc7d561e	-0.2889451500862793
200	0x3fd1a5ff82a38270	0.2757567191856998
201	0x3fd2f27548f2eb81	0.29604847072521784
202	0x3fbfbf2eea44fb54	0.12401097506970632
203	0x3facaaaf7714f309	0.05598972633968031
204	0x3fd0a4ca90c45326	0.2600580610026547
205	0xbfda57886ca5aa6f	-0.4115925847060344
206	0x3fc0c4cd039d585a	0.13100588490005088
207	0x3f9e921264cdafb9	0.029854094889216507
208	0xbf9eec69846fb756	-0.030198715885425408
209	0xbfba05d239726d95	-0.10165132429613373
210	0x3faeee2001c6cc7f	0.06041049977957246
211	0xbfae046235931353	-0.05862719444261324
212	0x3faea8750bc9e33b	0.05987897652534576
213	0x3fb12f76c94a63c0	0.06713049330063736
214	0x3fb9dd7558f92274	0.10103543684193445
215	0xbfc503b396a5b3bc	-0.16417546134780803
216	0xbfc2951b1641aa3e	-0.14517534815543515
217	0x3fc25e5c0e54fb2c	0.1435046262722265
218	0xbfcddfef815cc8bb	-0.233396471181157
219	0x3fd196e6a76e630b	0.2748352656431485
220	0xbfc33f6e8b78499b	-0.15037328538944625
221	0x3fb6c9d86c1862e1	0.08901741637272266
222	0xbfd065b5256e55a8	-0.25620773940439756
223	0xbfb4dd4e30ffe580	-0.08150185295371237
224	0xbfc929ed06293c65	-0.19659197617372395
225	0xbfcaab35dbb55631	-0.20834992626139262
226	0xbfa201a26df539aa	-0.03516872017154367
227	0x3fcdf62a8c4a19e9	0.23407489633628067
228	0xbfb64820d6b19f66	-0.08703809014843741
229	0x3fd8d481a5632302	0.3879703631505863
230	0xbfd25c147b07e37a	-0.2868701173279572
231	0x3f791bcbbe3f71d9	0.0061300238339438646
232	0xbfb610f412c693b4	-0.08619618852988148
233	0x3fc21ea921b6c5a8	0.14156068941296707
234	0x3fc5cb5889c13943	0.17026812292392365
235	0x3fa1e2475fbb27ea	0.034929495273516256
236	0x3facd1b40cd5e432	0.05628740936931144
237	0x3fb6d5441bbc7622	0.0891916816439893
238	0x3fb72d640639d657	0.09053635742187659
239	0xbfd05182d5726b0a	-0.2549750408594923
240	0xbf9bd149ae486db5	-0.02716555715788412
241	0x3fa59a53618ac4c6	0.04219303670596157
242	0xbf9748cf44a6a5f2	-0.022738684239504488
243	0x3fc63277adbb7cfc	0.17341514571214833
244	0xbfbc3bb752791ed0	-0.1102861954069525
245	0x3fcb14e119bdfb48	0.21157468563975557
246	0xbfc96a58abccd157	-0.19855793369937189
247	0xbfb509a91a294452	-0.08217865837765828
248	0xbfd702f3cdb44770	-0.35955519760420085
249	0x3fd9b4620fb04a71	0.4016347077569327
250	0x3fc980c2d474a375	0.19924197553452996
251	0xbfbd27e913cc9506	-0.11389023526551875
252	0xbfc0d83f96bd3d9c	-0.13159937725366155
253	0xbfb14638b4c798c1	-0.06747774518553042
254	0xbfc3bfe3e404f833	-0.15429352411041605
255	0x3fc0f5f6e43a6a3e	0.13250623840288428
