Fuentes/model_rdim.npz (npz, 30232 bytes, 6 tensors)

V1 f8 [42, 41]
00000000: b5a5 9383 9411 ab3f 8d7f 9327 cb96 b23f
00000010: 4bc1 14b6 632c a13f c47c 1e3b 7a69 f8bf
00000020: d7ad 9f58 a5e6 d83f 71a2 7781 b36e e1bf
00000030: 2e2b fd9c 3cd5 cebf 82d5 d4e1 f371 c5bf
00000040: b68f eec0 3274 b0bf d901 f2fe 7202 ea3f
00000050: 7acd 0f0e 85a9 f43f a088 e6de 193b bc3f
00000060: 6bf5 cf72 2b78 0cc0 c00f 6701 78ec d1bf
00000070: 60cf be2c 0588 4fbf 584f d21f cea8 f83f
00000080: d1d5 a7f8 9d5b f3bf 5939 5cc9 91ae d4bf
00000090: b0b8 10d7 8bf6 e33f 3082 e3c0 e355 a33f
000000a0: d006 90d1 dac6 b03f b260 a1c2 61bc d4bf
000000b0: 6668 dc9c 84cc c0bf b619 10c1 ad49 e53f
000000c0: b20c 6700 5410 f43f 069f 3300 796c ab3f
000000d0: f66b b368 5d76 bdbf 1379 39ed e41d f2bf
000000e0: 9d72 bc14 aa46 c53f c901 3763 3d69 b23f
000000f0: 1ffa 2188 b406 e73f e210 1a96 3247 a53f
00000100: 056c 7d9e 94ad db3f 65ec f7da 685b b0bf
00000110: 2d04 79b7 2550 e73f b5f2 8206 31b2 b5bf
00000120: 8dbc 756c bc59 a0bf e837 70ac b368 babf
00000130: faab ce3a 5141 ddbf 2059 f4d5 6545 d33f
00000140: 0642 51a4 8a31 d4bf 60ef 4764 6d33 c93f
00000150: 960f ba96 3885 c53f cc09 054b 77d3 c93f
00000160: 1ae0 ac44 af1f e3bf ed64 6bf7 6db1 cc3f
00000170: 03ed dfe3 163b c73f 519d f912 d310 d33f
00000180: 65f0 c4dc e2d6 0ec0 0046 fffa 2052 99bf
00000190: e47a 0bad eb51 edbf 440c d2ff e798 11c0
000001a0: eb46 edcd db91 953f d242 e813 c8a2 e3bf
000001b0: 452a c83e 0e6d d73f 8aa0 5be4 f851 12c0
000001c0: 28ee 503d 28a9 9abf 0a38 18c7 0048 d4bf
000001d0: 3632 9e26 da7a fbbf d279 44b8 95d8 fb3f
000001e0: 6091 837e b7b4 b43f fc6e b1e5 8b8a cabf
000001f0: 55f9 436d 3e11 e13f 0f83 350a 8a6d dc3f
00000200: 4612 43b8 82a0 e4bf 2a90 eed9 0bcd d63f
00000210: 20bd 036a 02ab a93f a25a 7658 46d1 cfbf
00000220: 50a6 5179 488d f1bf 3ad9 4bc7 94e6 d13f
00000230: 861c 2d15 3eaa e5bf 8adc d7d7 93bc b03f
00000240: 6f86 c701 e343 d93f 3d8a bb2d 0c83 e4bf
00000250: 0de6 bd74 9041 f03f 199e 28f5 e5f7 d73f
00000260: 0341 12ae c89d d1bf 360f 80e7 21b7 d4bf
00000270: d718 acc8 d9fc cbbf 4730 01a2 93ec dcbf
00000280: 37ee 591e 6b53 92bf 42cd 2a7e af30 ea3f
00000290: 5196 7f42 1d3b f43f 509d bf67 461b c93f
000002a0: 14e5 14e2 1986 c13f 5be8 67c6 45d7 f1bf
000002b0: e5f4 3362 ccd2 e43f 42fe ed8c c8ef f0bf
000002c0: 46da a551 56ba 10c0 3d0f ca6e a19d ec3f
000002d0: 90e8 e506 f569 a73f 0918 ad5c 828b e6bf
000002e0: ae2d fac2 ca71 f03f 6738 75b3 869f d4bf
000002f0: c616 43de a774 bd3f bfce b8f8 ee82 f5bf
00000300: dd68 ba34 e59c d7bf f1ab 0fc1 bbfc c8bf
00000310: ef6d ac7e 592a f0bf beab 008d bf57 11c0
00000320: ffd1 808f a249 ecbf 800f 2f91 88b5 823f
00000330: 6e89 dce5 b657 cebf 3533 3385 3b73 0240
00000340: 1a92 e174 87b6 773f 0962 c43a 3ebb ddbf
00000350: c795 2786 4528 f93f e8ba 5615 f7f6 f23f
00000360: 27b3 2656 93c3 d8bf 874f e8f1 c23a ce3f
00000370: b99e 607b 1305 c4bf 329b 8ce2 e225 e7bf
00000380: 2cf9 1f0b b72a d13f ffd0 a1e5 f1e4 cdbf
00000390: b187 5e2c 4203 b8bf 6f4f aa52 ae72 d7bf
000003a0: 88da 8847 e746 f2bf b429 9264 67dc d9bf
000003b0: 13a4 dd4c 915c e43f bd1d c538 3c4f 0340
000003c0: 25ee d7b6 4cde c4bf 7dd9 79bc cf2d d9bf
000003d0: 83e3 ad28 2207 0440 1282 84c9 59bf ef3f
000003e0: 1ba4 0cda 7705 c1bf 45a5 1cb4 fb7f e63f
000003f0: 02c7 3b69 abda d13f e52a 98e1 242f d1bf
00000400: 20cc e7f7 c197 d13f 4d40 5506 4066 d1bf
00000410: 0913 4816 a76e d6bf 0ca6 6911 05ab c73f
00000420: 7aa1 346e 8eca bfbf 09be 7ca6 e33e d1bf
00000430: 4877 d85c fb87 ccbf 70f1 3f17 b3bf f4bf
00000440: dc17 0aa2 b392 1540 ee15 4e31 cace 1140
00000450: 857e e628 846e db3f f0bd 393f fd33 eb3f
00000460: 3a94 ab5c 5b7f c0bf a0db 3002 1257 c4bf
00000470: 3a55 95a4 14b6 c13f bbd2 9422 d18a d03f
00000480: e607 2813 9be8 d4bf 8f02 9b52 f6f5 b7bf
00000490: d8d1 92d1 da3e c6bf 3911 ee4d 87e2 debf
000004a0: ee1b 2fac 2958 cabf ba17 c681 b342 d23f
000004b0: c586 99a3 f730 ebbf 3b2f 2598 a855 b4bf
000004c0: b67c cc83 4e94 a23f ca20 c902 f414 c83f
000004d0: 5279 f222 6343 cebf c687 ccb1 2df6 ce3f
000004e0: 4da3 aa40 8f4c e1bf 1802 b42d a4f2 d0bf
000004f0: 7740 3831 cd68 cebf aced 4644 ec6c e13f
00000500: bc16 ae44 9424 ea3f ae9d 2897 9210 983f
00000510: 8b62 da51 c554 d2bf af0e 12d6 a949 ef3f
00000520: 9379 421e 0816 e7bf 8c75 bed6 c2dc cabf
00000530: 71fe 8685 1360 b63f a412 76a6 22d7 cd3f
00000540: 5caf 9b65 416a d33f 17ee c464 f7d3 d13f
00000550: dbbc 65f1 8ecb df3f 6000 0fae ae5f d5bf
00000560: e8e3 6a8f 2270 a7bf 495e acf8 1399 de3f
00000570: 4914 b061 e28b e3bf 8fb2 5cff 8b23 cbbf
00000580: c74a b796 743a ec3f 1c8a 4794 8a67 e7bf
00000590: 7342 27f1 a87a f63f d233 0327 30f6 eabf
000005a0: a978 f7e5 2c26 c9bf 1d88 253f c147 d93f
000005b0: 4990 73b0 5f86 dfbf 744d af94 fceb c63f
000005c0: e0b4 b8c4 2461 90bf c63b e7b6 c39d f3bf
000005d0: ae2f 127e 05c2 b43f af4f 3c09 8d77 c9bf
000005e0: f12d b80d 2391 af3f 62db 128f 1c32 c93f
000005f0: 30ac 23a5 da3e dabf d7d9 ae6b 118b da3f
00000600: 29b7 be58 5884 b43f 436c bbdd bc4f e03f
00000610: 22db f852 b83c b73f 0816 b37c 9883 88bf
00000620: 36bb be16 59d3 f83f e679 89c7 128c b33f
00000630: 9326 80bb c424 d13f 4d4f 1773 8749 733f
00000640: 9698 9fbb 0821 b4bf 9a5f 6b90 5f78 d8bf
00000650: 033a 2d29 955a f13f 5ec4 3c07 6628 d7bf
00000660: 8c91 b37f 7e9a e33f f80e 6510 657b d33f
00000670: bc97 eaa8 9082 b83f 5b7f 186c 847a e13f
00000680: d19a facd 833c a7bf 13d1 719c 18d6 f33f
00000690: eb07 5c8f bd5c c0bf 4a2c 8931 4b4f e4bf
000006a0: 8587 7e8a e604 c33f 5386 474d b576 c6bf
000006b0: 15a4 d21a 86a6 e43f 84fd c63d e84d f0bf
000006c0: 01e0 d0dc 705c b4bf bd13 46f5 7866 debf
000006d0: 5f71 fa8c a43a e13f d575 5b56 380d e4bf
000006e0: c52b da4e 42f2 dabf 4173 3d82 56d8 dd3f
000006f0: 4d9a d715 5686 e0bf 1349 696b f7c9 cb3f
00000700: b673 c0b7 a6e4 c83f 44c7 eb5d 8e76 c73f
00000710: 0586 8ebb d270 d93f e15f 0a66 0278 cf3f
00000720: 0751 0126 700d 9cbf 1d4a 5140 386d e43f
00000730: 68a8 e656 7106 97bf eb74 aaaa 2239 d4bf
00000740: 5e7c 5fb9 9ab7 ee3f 690b 7a9d 3c33 cfbf
00000750: d1e7 1578 72b9 d83f f4d6 9eac 1e87 b03f
00000760: df18 296d 2e5f cdbf b255 2374 fa45 d03f
00000770: 9043 86ec 15eb ce3f 9ca5 6647 0cab e6bf
00000780: bb7a e927 06d6 d73f a7d7 0fff 32b7 dcbf
00000790: e855 5dc4 cd8f c73f 44b7 d713 7684 e4bf
000007a0: c9a2 58e4 c345 d13f 532e a7f4 ad30 eabf
000007b0: 4100 7ac0 ee4a c2bf aefc f5dd 7145 afbf
000007c0: 9c25 2e33 356d c5bf 76c5 ddad 259d 0140
000007d0: 2a82 901d f069 da3f d276 9560 5d79 ecbf
000007e0: 74fd 412f 257f 20c0 f10d 931c 3a19 f5bf
000007f0: bc99 040f 411a c3bf 1e93 1c72 517e d33f
0.052868500768294004 0.07261342731680838 0.03354178998631826 -1.5257513341273787 0.38907750754034737 -0.5447633293779984 -0.24088246980167 -0.1675400593464183
-0.06427304468394265 0.8127989749337373 1.291386656693105 0.11027681056887895 -3.5586766214097927 -0.2800579084107504 -0.0009622597949516636 1.5412122004535913
-1.2098674500569937 -0.32315487541281623 0.6238459778303618 0.037764661117538956 0.065534282839532 -0.32399791724084104 -0.131241394607801 0.665243985248529
1.253986360142147 0.05356195571385851 -0.11508735471890916 -1.1322983995992828 0.16621900570398376 0.07191833183515607 0.7195685061304323 0.04155881960198983
0.4324695155862062 -0.06389479967030949 0.7285336097194254 -0.08475023659679944 -0.03193463157628527 -0.10316012344284753 -0.4571116518297341 0.301110705318381
-0.3155237774526828 0.19688193699391388 0.1681280837984757 0.20176592982359265 -0.5976177541078898 0.224164720354373 0.18149076582617604 0.2979018864920891
-3.8549248931504274 -0.02472735912289714 -0.9162500743658168 -4.3993225070908615 0.021064218944338114 -0.6136207951368198 0.3660312283615535 -4.580051010220027
-0.026035908453407114 -0.3168947166713002 -1.7174932011140647 1.7403771589230144 0.08088251913756528 -0.20735310283168207 0.5333549627392055 0.4441857433030671
-0.6445935820452824 0.35626503260050646 0.050132823411212835 -0.24857405967187157 -1.0969929446240663 0.27969855749633477 -0.6770315564725855 0.06537746448144524
0.39476847814339683 -0.6409970181669632 1.016006904623626 0.3745055097701609 -0.2752553653636058 -0.32367751700825254 -0.21865389154863266 -0.45193949528470906
-0.01789634106397228 0.8184430565073983 1.2644322011559732 0.1961448675713009 0.1369049409784472 -1.1150567770223663 0.6507322233225322 -1.0585408692421798
-4.181969905612794 0.8942420162061137 0.045730263797808424 -0.7045299348908439 1.0277812591838074 -0.3222367050665355 0.11506127525634743 -1.3444661822986033
-0.3689511313365424 -0.195212811725781 -1.0103392551599162 -4.335691645780512 -0.8839886477276763 0.009135310106905825 -0.2370518324251622 2.3062658697366722
0.005789307715620607 -0.46455341090180063 1.5723319282927706 1.1852942307993377 -0.38693698323440845 0.2361682587803637 -0.15640491031921558 -0.7233747887411026
0.2682321175233422 -0.23354934418205883 -0.09379972060426557 -0.3663745696333 -1.1423104090041836 -0.40407738515264247 0.6362997533116207 2.4136890826373176
-0.163034047392885 -0.3934211102090542 2.5034831216875673 0.9921082435503783 -0.1329793753332361 0.7031229512987599 0.2789715316458655 -0.2685024455137593
0.2748875542594664 -0.2718658506246399 -0.3505037038415116 0.18490661001423836 -0.12418451490942131 -0.2694634557583134 -0.22289983781313993 -1.2968016536898084
5.393263370386162 4.4519431785497385 0.42862037653137747 0.8500963435052977 -0.12888662362016295 -0.1589071760842815 0.13836916004462713 0.2584727132519153
-0.32669712897052106 -0.0935968352960208 -0.1737931750591446 -0.48257620439860066 -0.20581551463530395 0.2853211180994283 -0.8497274585062874 -0.0794320460747117
0.03628774031516839 0.18813943992632282 -0.23643149572758176 0.2418877714308662 -0.5405956519144667 -0.26480965102385445 -0.23757328894908245 0.5445462544952782
0.816965231075947 0.023500719524376094 -0.2864239978166913 0.9777421170296828 -0.7214394179352887 -0.20986209378763154 0.08740350732750259 0.23312790992726662
0.30336031840010036 0.27856240120647285 0.49679921697584256 -0.33396498678121667 -0.045777397162460265 0.47809314045432366 -0.6108257205929785 -0.21202230423786658
0.8821356719657495 -0.7313893219073324 1.40494627190142 -0.8425522577250553 -0.19647752026407275 0.3950045696893783 -0.49257652503570576 0.1790767408370858
-0.015995573527267548 -1.2260167259844237 0.08108553245455027 -0.1989609046073588 0.061654181885469124 0.19684178339022212 -0.41008630873574514 0.4147380401222142
0.08014442602754158 0.5097336130815012 0.09077026391683465 -0.011969748788383874 1.5515986336210523 0.07635609981068789 0.2678691702900348 0.004708794689083207
-0.07862906056070282 -0.3823470030160877 1.0846149071181805 -0.36184073168539566 0.6126091474694007 0.30440641976404903 0.09574226497588162 0.5462057219738016
-0.04538356675521061 1.2397695647351312 -0.12783021450019247 -0.6346794097420425 0.14858705294050992 -0.1754976870861805 0.6453276180155877 -1.0190203107048044
-0.07953553572667717 -0.475004424595962 0.5384085420114778 -0.6266137777963033 -0.4210363168755829 0.466329219043292 -0.51639847055487 0.2171010279149149
0.19447788212064915 0.1833055456732443 0.3975111800774303 0.24584989530990156 -0.02739501220669729 0.6383324867441079 -0.022485514573113013 -0.31598726908289504
0.9599126453939666 -0.24375112237256794 0.3863187954626684 0.0645617648541153 -0.22946720438102994 0.2542711385879911 0.241549244394744 -0.7083798784780586
0.3724379911199482 -0.4486815920675959 0.18407604301562164 -0.6411695849944654 0.26988313006817727 -0.8184423235301871 -0.14291176222104876 -0.061076696724734134
-0.1673952579406376 2.2017320235542526 0.41271593939930773 -0.889815033569642 -8.248330570989062 -1.318658935183404 -0.14923871262835842 0.3045848478671348

V2 f8 [28, 42]
00000000: 4a7e 9468 346c d73f de7e 598e 3022 fd3f
00000010: 6245 f612 f2db ccbf eef7 d112 87b6 d03f
00000020: c158 839a 95d7 df3f 2c7b 7194 eee8 fe3f
00000030: d027 7e0b eb73 d8bf ce4f 25a5 8433 0940
00000040: 353a adf2 a2f1 e1bf 71d4 341c d7b8 dcbf
00000050: d2da a2ce dd78 f83f 4778 c897 a5b2 da3f
00000060: aa57 012a a2e7 d03f 48ee eda0 79ca d0bf
00000070: ab0f 8e07 e8bd f4bf 02ee d49f 1a37 d43f
00000080: 5c53 5e0d a64b debf a4cc d649 9895 e13f
00000090: e17e a4c7 b750 d9bf eadd a9fb aa3a e6bf
000000a0: 2df6 36d2 34ad be3f 5fa2 d8b2 f8da c0bf
000000b0: 3f50 5aee 5170 a63f 374a d79d cc79 d2bf
000000c0: d604 4cb0 2694 e63f 6065 8663 2709 fb3f
000000d0: eb06 5ddf 3629 ee3f a279 3fa3 d9f4 f4bf
000000e0: b07a 05ef 4823 ee3f 30d8 0d49 b976 b83f
000000f0: 4a6b 161e 67cb f4bf cfc8 503d cbb3 e6bf
00000100: 312a 4fd6 15a3 e8bf 3a56 31d2 d170 eb3f
00000110: 0d0e d29b c7f5 ecbf 09db dcf5 9634 f3bf
00000120: dba2 5cae cce6 c33f 6718 d00f 6cf8 f1bf
00000130: d554 7e2d 07cf bfbf fe75 9e96 f722 e2bf
00000140: eec8 546f 9e70 ba3f 86d8 fef5 3cf6 f8bf
00000150: 4ba4 3c5f 4bb9 d63f 9fd8 84a7 ef37 b23f
00000160: 25dd b3a4 32a4 f53f 6174 4547 c6b2 bf3f
00000170: 55c3 ff13 7c6d febf 581f c11e a5a9 ef3f
00000180: dc50 2454 62c9 dabf 3ec4 d44d 830e eabf
00000190: b44c d9dd 2515 cabf 5f82 f85a 9056 e6bf
000001a0: 0b09 060a 9295 03c0 c127 9ddc ae38 f3bf
000001b0: 4549 2314 ab27 ee3f d2a5 3bc1 f49a f83f
000001c0: 0395 b277 dbbf a2bf b3b3 24eb 5e3d f0bf
000001d0: 572c 0e1f 9b88 e7bf de27 313f bf3f 0240
000001e0: 4654 ebfa a94b e3bf 8872 c860 e296 fb3f
000001f0: fe13 3014 3880 e3bf aea9 9bcf b073 f43f
00000200: 46ab af28 5eed c23f 6d7b bc91 4aa7 0240
00000210: dae5 b175 3225 f8bf b6ea 5927 ae01 f1bf
00000220: fcfd 2c1b 21b2 e2bf ae19 9d1f 268a c33f
00000230: 8509 716d a25b f0bf 2a67 3428 170d debf
00000240: 6dc1 3fc3 c650 a4bf 4edb 39a5 c713 9f3f
00000250: 8b0a 2313 c2a7 f83f 8afb 92b0 d417 0140
00000260: 7d02 1446 d0f2 04c0 55b0 8c59 699c e33f
00000270: 9af8 55d1 3deb e4bf c6a6 ba76 ca3f d3bf
00000280: b8e5 00f6 2b78 e63f abfe 0e82 6ae5 d9bf
00000290: e971 754e f012 f33f 1529 7cff 0e79 fbbf
000002a0: a6af 62c1 8e45 ec3f 248d ef81 03f4 d1bf
000002b0: cf2c 3d5b 4e18 f23f 7f34 9384 a3e0 b4bf
000002c0: eb98 7ee5 23dd d63f 49bb 4a01 a78b f1bf
000002d0: 5c6a 258c 0d9f e93f afce c90c ebf7 f13f
000002e0: 6e41 db62 266e bbbf c3af 6b50 c994 f2bf
000002f0: d9bd 2256 61ba e0bf 0a00 383c e829 e83f
00000300: d0f6 895f bc7f debf a1d2 58a2 a009 ebbf
00000310: 2544 a12c 0c2b f5bf 04fa 276a 578c c63f
00000320: 19a2 fba9 d40d e13f 3c89 789b 8566 debf
00000330: f0b2 7c49 91a0 d1bf ac61 88da 099c e83f
00000340: 2ee0 361a a8e9 d4bf 47eb 8ff5 c57f e8bf
00000350: 42dd 756a 7177 ef3f 870c 34d4 ae30 d23f
00000360: 9020 bc4a da41 82bf 851a d2b6 2a9a f0bf
00000370: a35b 59fd 0eca ccbf ca8a 7a97 1e4c f0bf
00000380: 7d88 11fb fcc4 fb3f 51e0 fdfc 8a0a d33f
00000390: dbfd baab bd11 da3f 6704 efae a589 d33f
000003a0: 5f73 695a fefa fd3f 9f40 ef82 77f1 f13f
000003b0: 0f8b de0f c53c f7bf 2ebe b583 9442 dbbf
000003c0: 0e8b 0a4e 123a f4bf 9281 414e 8bef d9bf
000003d0: 77d7 cd30 2046 fdbf d346 4c7e 7307 94bf
000003e0: 0b87 af1c 562a f6bf 0c41 a43b 11d9 0140
000003f0: 1182 2d8e 3227 ed3f 884e 4d28 97ad 923f
00000400: 7875 4902 95de ecbf 9dec 8bc9 7bce e4bf
00000410: 74f1 755c af2b f23f 0455 7e15 f148 d73f
00000420: 4936 6348 54d1 b4bf 1572 3230 17d0 da3f
00000430: e284 a1ae 8b10 e23f 3ed7 ad48 5ca7 ef3f
00000440: e7a8 f83e 3ec7 00c0 7490 2a0e 4b19 ffbf
00000450: 0599 3410 0f44 e1bf 2889 4d14 5401 e5bf
00000460: fd12 540c 5d5a f4bf 248c 37a7 c77e a83f
00000470: 6e7a 5c97 11a7 723f f9ea 9956 abc8 92bf
00000480: 6da8 be42 a7f8 fc3f 76f1 62a1 174f d7bf
00000490: 23e9 e935 962c e4bf 4140 25ee 5a78 e5bf
000004a0: 1e0e 8b0c a8e4 ecbf dad4 fc81 4977 f33f
000004b0: 9b9f f97c 9421 dabf f46e 35f7 bc8d d83f
000004c0: bbd7 952f c954 d5bf 1c69 896d 9d48 ea3f
000004d0: 630c 014a 8c3c d13f e996 11b2 81bd c23f
000004e0: 26b0 87b0 3ff1 d23f b6d3 1c7b 5780 eabf
000004f0: 82e0 c5dd 7d5d ef3f 3d87 8473 6c86 d3bf
00000500: a00b 0179 55cd f13f eccd ec3e 8b4c f5bf
00000510: 1750 dff8 b346 0140 72b2 7b08 c529 febf
00000520: 5d42 c3be 0e09 e0bf b873 b264 7cb1 e43f
00000530: 478f ca09 395c 933f d1bc 7fcd 3012 dd3f
00000540: bb40 47a8 c8dd c33f f8ad b411 636d ee3f
00000550: 24a7 dc6d c25b e1bf 3309 ffd0 f42e f1bf
00000560: b534 90b5 fc81 8cbf fb67 506b 1d25 e03f
00000570: edf3 ce54 cbec e8bf 62be 82e8 5550 ecbf
00000580: ca0c d313 cd3b d1bf ffe3 b4fc b6e3 e63f
00000590: 964d bab1 8cac c73f 2858 a439 5b76 d33f
000005a0: 93df e9d6 fdac e53f 0824 4aaa 7a9c e7bf
000005b0: 9a25 35bf 34bd fa3f 0e7f 6601 58a4 ef3f
000005c0: 25b4 3499 1cb2 02c0 29e3 281e 540b debf
000005d0: 141e 0c34 8dde 89bf 319c a4a0 dd81 e3bf
000005e0: 7393 d712 7abd b4bf 3bff 22a1 2fba ed3f
000005f0: 279e d899 4225 fd3f cfd5 a137 2f9e fe3f
00000600: 17dd e79b 5477 d13f 372d 9296 770c e33f
00000610: 2254 b91c 0cd8 fbbf 5a4f 8596 bd26 ea3f
00000620: 643f 5a1b 7957 d03f b28a b48e 9429 e3bf
00000630: a26b 45eb 123b bd3f e244 a2ad c785 adbf
00000640: a08c d26a e89e c8bf 89de 55a4 b2da bfbf
00000650: c917 f168 7981 95bf d28a 9948 eefe d03f
00000660: 6ca1 f69c 5416 fabf 5d99 a45e 9c64 ecbf
00000670: 6129 ca76 7d9f df3f 289e 20bc 4e9f e43f
00000680: e9db 09eb e9ed d8bf a3d1 bf49 8099 b53f
00000690: 1cf8 4d8b c4b6 c33f b56a a514 40be fc3f
000006a0: a2d2 62c2 a3cc f53f 10be bdf9 4718 fa3f
000006b0: 5613 2af7 e49e cc3f ed68 d934 438c f2bf
000006c0: 997b dffc aef0 ffbf a0d7 7189 1b03 edbf
000006d0: 70aa c176 3f03 e9bf 9d94 47e2 d32b f1bf
000006e0: 2a03 7984 132f f63f f0ab 0804 4e69 e3bf
000006f0: 28f9 baf0 7cbc f3bf 0ae2 eb46 1d9f da3f
00000700: 1150 124a 72c6 f23f 02ba 7958 93e0 ee3f
00000710: ea65 3058 844c e7bf ef0d 84f1 c4d0 e1bf
00000720: 014a 22b6 ba9c ec3f fedf a501 6329 f53f
00000730: bf9d f82b df23 0bc0 28b6 a8b1 29ff e4bf
00000740: e6a9 0234 af9a 07c0 3b60 5088 a75c e4bf
00000750: dbe7 23c4 5123 eebf a9de ffd2 1170 d83f
00000760: d778 32fc 8f0a d23f a304 21b2 349d c1bf
00000770: bd46 79b8 d52b e53f c5ab 556c 72eb e6bf
00000780: 1090 c4f5 f777 e13f edc0 a946 9c39 e33f
00000790: f468 10e3 fb40 ddbf 73a5 dc07 805e dfbf
000007a0: 4351 8166 d581 f4bf 02f4 59c3 c682 f33f
000007b0: 8b4f 9752 d007 f73f a387 e914 0cf0 c3bf
000007c0: 629f 91d6 4c5e 0140 0aac f374 9238 d6bf
000007d0: e9f0 d306 a210 0540 137e 0e6b 9230 f03f
000007e0: 5bab d978 4dc0 cebf dcb1 830d 8745 e8bf
000007f0: ae2b 3699 6f88 e13f a6a3 2729 e0ee f6bf
0.3659792920388766 1.820847087910742 -0.22546220708731385 0.2611406024733459 0.4975332268635491 1.9318681524816368 -0.3820750820383383 3.150155344201244
-0.56074664495265 -0.4487817550137328 1.529508406803576 0.41715373823706553 0.26413778402399635 -0.2623581000877704 -1.296363858710701 0.3158632813317298
-0.47336722665322895 0.5495110933465139 -0.3955516290315995 -0.694661609201771 0.1198304188937633 -0.13168247921682316 0.043825683923529805 -0.28868403829725103
0.7055848544406682 1.6897348296827985 0.9425310480657719 -1.3097778679726635 0.9418072384249481 0.09556158097788692 -1.2996588874145396 -0.7094474980897533
-0.769907873699884 0.8575219254805184 -0.905002407395331 -1.2003392795574561 0.15548094285738653 -1.1231499307337118 -0.12425274716072761 -0.5667684499528034
0.10328092783018736 -1.560116730613602 0.3550594739959407 0.0711660179120792 1.3525873597807927 0.12382163276693482 -1.9017296582425918 0.9894586182281087
-0.41854150979021454 -0.8142715950144817 -0.20377038319074858 -0.6980668808719875 -2.4480324538318476 -1.2013386361818308 0.9423423188511967 1.5378310726322195
-0.03662000499870468 -1.014983099488046 -0.7354255301046447 2.281126493156065 -0.6029863262907689 1.7243369846902699 -0.6094017404835765 1.2782447919549713
0.14786889063483438 2.3316851983685667 -1.5090813252885398 -1.0629102265508386 -0.5842443018700005 0.15265347045551664 -1.0223716998158079 -0.46954897810211327
-0.039678775152313196 0.030348891696543583 1.5409565684828148 2.1366361422400972 -2.6185613131386263 0.6128432034506753 -0.6537160004225087 -0.30076848597182637
0.7021693997150384 -0.4046274442771202 1.19212370536763 -1.7170553188212285 0.8834909226475147 -0.2805184143928321 1.1309341014883108 -0.08155271517462558
0.35724732791494657 -1.0965948152986178 0.8006656396131109 1.1230268954795226 -0.10714950479019134 -1.1613248006278674 -0.5227514917696069 0.7551156211993668
-0.4765463765141762 -0.8449252291525974 -1.323009657226302 0.17615788157850443 0.5329383201579417 -0.47500744040202725 -0.2754252641341699 0.7690476673333726
-0.32676127014156264 -0.7655973240028765 0.9833304480843383 0.2842213699625024 -0.008914666562773982 -1.037638391631533 -0.22491633768615057 -1.0185838620315502
1.7355928237307403 0.2975184889433012 0.407332818704132 0.30527631839146924 1.8737777263370032 1.1214518656379722 -1.4523363704581163 -0.4259387289266411
-1.264177613113762 -0.40524561540771586 -1.8296205431374497 -0.019559673865905246 -1.3853360291036008 2.230989900541436 0.9110348488721361 0.018240320048177355
-0.9021706623713461 -0.650205510755217 1.1356652843233777 0.363827010144931 -0.08131911055826281 0.41895084101432306 0.5645197306404521 0.9891797465813637
-2.0972866935381833 -1.9436750939721863 -0.5395579639923943 -0.656412162450839 -1.2720613938883496 0.04784225383971144 0.0045538603933708965 -0.018343617592544856
1.8107063872544373 -0.36420241127395714 -0.6304427197458476 -0.6709417964248204 -0.9029121632560793 1.216622836841728 -0.40829956249808114 0.38365100995518664
-0.333299919576685 0.8213641299619527 0.26932055689775874 0.1464082831836813 0.2959746574331369 -0.828166714147861 0.9801625567915979 -0.3050795677282741
1.1126303412172334 -1.3311874826439363 2.159522957148521 -1.8851976710676834 -0.5011056638559911 0.6466657606830415 0.018906489584551236 0.4542352682901312
0.1552058049842396 0.9508529039207465 -0.5424511094799738 -1.0739639438548465 -0.013919805804130861 0.5045306297281508 -0.7789055496610878 -0.8848065892434074
-0.26927496849039 0.715297216003023 0.18495329549896827 0.3040988982114663 0.6773671338587398 -0.7378514600724211 1.671192881493289 0.9888114955283258
-2.3369686097344293 -0.46944144196781906 -0.012631514693125324 -0.609602750545383 -0.08101618728649189 0.9289777896119412 1.821596718751502 1.9136192486888495
0.2729083559529086 0.5952718678321735 -1.740245926096812 0.8172290744646304 0.25533893271584973 -0.5988257205211396 0.11418264621663224 -0.05766128534845351
-0.1923494836420092 -0.12443081390471823 -0.021001717596184997 0.26555974092313506 -1.6304517871268116 -0.8872815941329396 0.49410950279766125 0.6444467234004536
-0.3895211024568526 0.084373491292189 0.154015129108246 1.7964478308191876 1.362460860557953 1.630928016234865 0.2235990721566405 -1.1592437805580247
-1.9962606313563127 -0.9066293415514686 -0.7816464728796984 -1.0732001151130028 1.3864932226862927 -0.6066045836245149 -1.2335175899057251 0.4159615700332614
1.1734488385600381 0.9649140098607065 -0.7280904505197985 -0.5567345349413112 0.8941319997123288 1.322604185521413 -3.3925155101057665 -0.6561478109267158
-2.950529486018456 -0.6363103544599719 -0.941811450087012 0.3818401871244342 0.2818946802962165 -0.13761004159645038 0.6616009333613061 -0.7162410846625497
0.5458946037438199 0.6007825260294603 -0.45709130453327806 -0.49014282958758953 -1.2816976551158212 1.2194278365052473 1.4394076563084777 -0.15576315899948864
2.1710449946585166 -0.34720288678244116 2.6331215413502957 1.0118583852671506 -0.24024361039058814 -0.7584872497514499 0.5479047768034115 -1.4333192451106043

V3 f8 [21, 28]
00000000: 08f4 9dd4 9c97 cdbf dbb3 bcd3 8d60 92bf
00000010: f1b1 db6e 57f5 b6bf a3cb 26eb 07b4 a2bf
00000020: b62a 850c bd15 88bf 9353 a0d1 81da a13f
00000030: d408 eddf 8fba d0bf 95f3 cab9 a83e d5bf
00000040: 1612 c644 8324 b0bf f351 3305 a8c5 d2bf
00000050: 66cb ea10 d076 d1bf cdd7 966c 7064 a63f
00000060: 23ae 95f1 4c85 d3bf 5451 d995 0f89 9f3f
00000070: 9800 08f8 be3d bb3f 9c04 8e0c e69c d53f
00000080: 0f26 e05d 867e d2bf 4257 cbe3 f770 d33f
00000090: a271 625e 0eea 94bf 5c64 5430 cb24 b83f
000000a0: 615b 24ce 4b21 b3bf d1a0 9fb4 67a4 d03f
000000b0: 1039 74fc fcc7 b0bf 4e5b ab10 d412 d33f
000000c0: 42e2 7415 cf5e a13f 8d6f 0861 3ee6 97bf
000000d0: 72c0 eb48 637d a13f de6b dc2c 29ae c03f
000000e0: 0f75 f9ec b43b b1bf a463 ef9e 4aa2 db3f
000000f0: 8a8b 68c8 7e4f afbf c3b4 b292 92c8 d23f
00000100: 8e99 246d b711 d0bf 3a67 1307 1336 dcbf
00000110: 4cbb 23db df49 c3bf 5fbe 7b46 228a bbbf
00000120: a1b9 6271 6bcf b5bf 6ccf bfb3 5e90 cb3f
00000130: a897 50f7 96b9 d33f f1c8 ee66 7fc6 97bf
00000140: e713 9326 7ef9 b2bf 0270 6116 84d6 743f
00000150: 72e5 368e dddc ac3f 5beb 90a5 6b7c c13f
00000160: f977 cd9f cb79 adbf 643e fd72 7109 c13f
00000170: 9e04 780d 6e6f 923f ffc1 e88f f9d6 b43f
00000180: 1c8b 842e 33de 6abf 564a 306d e35d b83f
00000190: 223a f3b9 79da bb3f 6810 bb27 c66a cebf
000001a0: c586 92ea 3b2d 953f 28c3 77d7 737d acbf
000001b0: 8455 4a48 8c1a d8bf 90f5 c83f 2d45 913f
000001c0: cdad 3182 434e 8d3f 5835 4d95 876b cb3f
000001d0: 1554 0d8d d03e 81bf 8ad2 dfeb 21fd a53f
000001e0: 8c60 eba9 73dc 6dbf 92ab a430 4309 b13f
000001f0: 1b58 8bea 6b93 c7bf a5e7 ac81 3cea bf3f
00000200: 568d b618 efcf b6bf a058 1699 eb1a e1bf
00000210: 6e74 a9f8 1397 b13f 4b95 b7af 45b0 b2bf
00000220: b6ff 9943 c6ed cc3f d45d 0dac c4c9 c3bf
00000230: b831 30c7 99c5 873f fa3e c8c1 55bf c4bf
00000240: 547e 6f0d 04bf c93f 6779 4c48 e792 cb3f
00000250: f8d0 ac4c 5518 9cbf c9dc a1db 28cc ce3f
00000260: c102 7602 a967 b53f 92ac 8e39 8082 babf
00000270: c9ec 2c76 c9bf e13f 4575 efb5 92e1 a63f
00000280: 5d85 ad95 1c3f a7bf 9033 f58c 04a6 953f
00000290: d78d d253 8469 bc3f 9ccf 5e30 359a b23f
000002a0: 6b4c f678 68e9 c0bf 4e31 bc70 968f 98bf
000002b0: f450 d4d7 9e1d d3bf ec3c 11b1 73b7 ac3f
000002c0: 565f 1596 47cf d2bf 41e6 80a1 19d9 cabf
000002d0: 36e0 536f 96f7 d53f 9ba2 1580 d122 b83f
000002e0: f0d3 36ff 039b b1bf ec4e 5200 98fc c5bf
000002f0: 886e 1775 7bcd 82bf 6b9d 844e 8a8b a3bf
00000300: f737 7e44 af83 c03f 39ad e078 0d01 c53f
00000310: 62dc 7229 df01 cd3f 3f8c 3a6a 33f7 c23f
00000320: 36ab ed98 ce23 ab3f 365a bb41 6091 d5bf
00000330: cda1 7d79 f18a c2bf 9d5f 1ac4 cfbd d2bf
00000340: e620 d96b ae04 91bf b6bb d84c 09ad c13f
00000350: c682 d5d2 f894 ca3f 084f 1658 9b9c d13f
00000360: bbc0 b942 b2ef b43f 051b 3a42 7803 d4bf
00000370: 8a83 6793 0d9b bd3f c90d a3db 904f 9bbf
00000380: f8ca 1e09 4827 b53f 8902 df2a 9843 b63f
00000390: 1b94 007a 102a cd3f 83d5 6afd b1cf a73f
000003a0: 2db5 b6d1 d4ea bdbf cbf3 f155 af26 a6bf
000003b0: 6bf2 8c22 a336 c13f cad3 4c73 a0fb b03f
000003c0: e84b 0c53 ca46 b3bf 1edf e89c c550 a03f
000003d0: 56f8 6264 ec5b cbbf a7af a1fd 9e62 d1bf
000003e0: 5dab 842b 0888 b8bf 6aab 3a33 cbfe b63f
000003f0: 409d 54fb e581 c63f aa83 0c5c 0e40 b23f
00000400: 9a9d 451e a178 b03f 9587 d33f 3143 b3bf
00000410: 1c26 f52f 946a c63f 3690 0f56 e12f d23f
00000420: bca5 c25f 7531 c6bf 77e3 2621 855e ae3f
00000430: b354 fe6d e20f ad3f 5716 e090 85ef ce3f
00000440: 964c abf9 cdf3 d2bf 8817 5056 178a ce3f
00000450: cd90 d0bd d427 b3bf 3894 3642 bddc e2bf
00000460: 946b ad18 4602 5ebf 7fac 27b3 20e3 81bf
00000470: 3f77 6d6f f42f d03f 5595 289f 9bdb b2bf
00000480: 1c7b 3797 63db cabf bccd d51a a772 933f
00000490: 4ff2 dd9a d0c6 ad3f 2cd2 9fa0 3a17 c33f
000004a0: 6f49 e4a5 ef86 c43f 1567 3a9e 496b 95bf
000004b0: 253e 7c34 6aba 973f 3438 8be7 d4b0 b8bf
000004c0: 8cd7 5a6f e242 793f 9323 4422 6212 e1bf
000004d0: 167f 7fef a9b4 d83f 16aa 695b 0dbc a9bf
000004e0: f4a2 166a 180d b4bf d06f 1fb2 1913 c0bf
000004f0: fdf1 6439 0754 ca3f 0353 f60d 87d1 863f
00000500: 31b1 bd09 167d d7bf 77c8 2591 5f43 ca3f
00000510: d28e 76e2 f6f5 a3bf 3a62 2e1d 0d48 b1bf
00000520: 224d 1781 225f ca3f ff4a 4127 110d b63f
00000530: 69ed 517e 3d65 9e3f 9d7f 6957 023d d33f
00000540: 3805 e772 fe02 523f bdec e9ea 77ca babf
00000550: 3215 514b 6e50 d13f 0919 86cb 86fb b8bf
00000560: ea30 de95 059f bbbf a034 7b22 25e2 c7bf
00000570: 9e2f 914f b866 cb3f 4e42 2687 ba22 bebf
00000580: 3cff 5ade f5bb d3bf 5817 9678 7aae a7bf
00000590: b6b2 f513 47cd ae3f c084 16d6 2384 b2bf
000005a0: 2fc1 e30d cf1c a1bf c605 a136 20f0 d3bf
000005b0: 8700 4cbd 96e2 dbbf 1fde 02fe 3fb5 d13f
000005c0: 9d55 0295 5caa ac3f 642d e261 bc08 c6bf
000005d0: 1b83 69a6 9a47 cf3f 8d98 a4df e182 b03f
000005e0: 0be3 c5d1 b4de da3f 2c0d 8342 c57d b33f
000005f0: 328e b040 5eaf 8f3f 41ce c4e0 02ff c03f
00000600: 5de8 a2db dca0 a7bf e98e 886a b5ac a33f
00000610: b459 816f fe1e 993f a91e 3fcd 4fb6 c53f
00000620: 5b06 d0fb 9628 a53f ed2d afae b028 cc3f
00000630: 72eb caaa df37 b7bf 369f 766d 4316 b0bf
00000640: 29eb 2f2b 37c0 a53f 5529 7edf da09 cd3f
00000650: bc97 89be 62ae 6abf bda2 49d2 0a0f d73f
00000660: 0c8d af0d 66c4 dabf 0dc9 579b 3be6 c43f
00000670: de97 b596 ab2e d1bf 30c5 ed30 227d c6bf
00000680: b324 3556 a421 c0bf 2f0a 6da5 5d21 953f
00000690: 5f98 c8b8 d48d c8bf e659 6197 378b d1bf
000006a0: 525d a892 c7a7 aebf 22fd fb96 71fd b63f
000006b0: 1a8c 70e2 de9e b13f 368b 940f b883 a7bf
000006c0: 962b f4cd 84f9 983f fd6e 22e0 db94 d23f
000006d0: c8a4 064f 7205 973f c91c 864c b108 b53f
000006e0: 9de5 fd86 55c6 d73f 851a a3ca a94d c7bf
000006f0: 6386 1811 d996 c9bf 9681 e115 1f5a 84bf
00000700: fb83 2247 7349 9bbf 895c 1f9d 6dee 9b3f
00000710: cef0 e165 4e9b e1bf b13d 3926 3085 a43f
00000720: e4b9 7525 2218 d03f 872f 24a2 4eef b3bf
00000730: 4ed6 744d 9117 cc3f 9cd2 244d c5e3 a8bf
00000740: 3af8 4075 2ac9 a13f a54b b3f2 d303 d13f
00000750: 9305 4761 0cf3 dbbf ea57 92c2 085c 863f
00000760: 0e13 730f 669b b13f 1c4d ce04 6b88 d3bf
00000770: b20c 611b 8e81 bb3f 626b 0ccb 1302 ba3f
00000780: a32e f6af d945 c03f 87eb b567 2fa2 8ebf
00000790: 6e13 dbf0 543d ad3f 6c9c 4b49 5ba2 cd3f
000007a0: 0bfd 8b21 924d ae3f 1b08 6f69 75c9 a6bf
000007b0: 310d a0b7 e494 c03f 21b5 555f 0ddf b8bf
000007c0: 17e1 5b1b bc64 c7bf 58d2 37b2 abca bd3f
000007d0: 63bb b878 188e b3bf f6aa ad81 22aa c73f
000007e0: 784c 5ee6 74a6 c53f 2a89 a760 79d3 bfbf
000007f0: be56 b400 6e34 cfbf 22e5 205e fa67 d43f
-0.2311893499535531 -0.01794644932595078 -0.08968111473559028 -0.036529777007124474 -0.011760212845407163 0.03487020191111081 -0.2613868414665721 -0.3319494070417986
-0.06305714062734355 -0.2933139849458534 -0.2728767552572918 0.04373503995468262 -0.3050110205865357 0.03079628326516233 0.10641091876459752 0.33770133234072275
-0.28897246520554715 0.30377003903901223 -0.020424103270316636 0.0943114274017644 -0.0747268083835997 0.26003449095743486 -0.06555157817294721 0.2980241930758226
0.03392645966454612 -0.023339247391148944 0.03415975823543328 0.13031496706466233 -0.06731730256565903 0.4317804863072132 -0.06115337559119556 0.29349197698577373
-0.2510813299035356 -0.4408004349803495 -0.1506919689195122 -0.1075765058592366 -0.08519622343258117 0.215343320625489 0.30820249702298463 -0.02321814599754019
-0.07411945764313509 0.005087390867711152 0.056372569666062314 0.13660951217920111 -0.057569850213198444 0.13310068239887862 0.018003196308204232 0.0814052559223981
-0.0032797813074848647 0.09518262305963651 0.10880242147252564 -0.23763348522163885 0.020680366699372472 -0.05564462666723663 -0.3766203599892253 0.016865450876357324
0.014309432421405166 0.21421904363743738 -0.008420590691153898 0.042946872752428325 -0.0036451586778235064 0.06654758393840002 -0.18418644859656372 0.12466791311172061
-0.08911032060000443 -0.5345361700044755 0.0687115175328061 -0.07300220050782007 0.22600630093438462 -0.15459497834193192 0.0116073621666367 -0.16208908044836062
0.20114184051543538 0.21542063741885473 -0.02743657379615258 0.24060545658333002 0.08361297903139599 -0.10355378537376428 0.5546614940752984 0.044689736088666034
-0.04540337874528675 0.0211411200555634 0.11098506018111408 0.07266552382389907 -0.13212304979660713 -0.023985243445211517 -0.2986828906735035 0.05608712707964422
-0.29390134483900476 -0.20975036989129772 0.3432365500625595 0.09428128602088252 -0.06877160054030163 -0.17177104964922962 -0.00918098879895203 -0.038173982701034635
0.12901869625460424 0.16409462358692808 0.2266196205507383 0.14816897093723644 0.05300756089021379 -0.3369980470573951 -0.14486521179357084 -0.29283517981229484
-0.016619420368699254 0.13809314968372427 0.20767126364355287 0.27518352129230594 0.08178247574847124 -0.31271177737691885 0.11564717148531947 -0.026670707135748182
0.08263063643134305 0.08696890875490672 0.22784620244161222 0.046506464180690286 -0.11686449165309361 -0.04326389240393488 0.13447989642181155 0.0663395196432496
-0.07529892470874666 0.0318662408866983 -0.2137427797478632 -0.2716443516608202 -0.09582568228203799 0.08982534409248691 0.17583918354032768 0.07128991839682777
0.0643406580835432 -0.07524402435549711 0.1751275285881072 0.2841723766744083 -0.1733843534068863 0.05931488065420514 0.05676181404775473 0.241684623470223
-0.2961306512999696 0.23858920778746673 -0.07482652315281087 -0.5894457143045946 -0.0018315968070143672 -0.008733993022323581 0.25292693025209084 -0.07366345058161035
-0.20982022174481407 0.018992053044213128 0.05815746202913329 0.1491463932321876 0.1603679237383164 -0.02091708210227868 0.023172053769540697 -0.0964482369701905
0.006167301665916624 -0.5334940594922152 0.3860268439147928 -0.05026284924391093 -0.07832481946992315 -0.12558289716150606 0.2056893377538386 0.01114182959899202
-0.36700964881198944 0.20518107020649598 -0.03898593439524024 -0.06750566446715647 0.2060282831504106 0.08613688667655238 0.029683075747454355 0.30059870277727346
0.0010993466236047366 -0.10465192303847722 0.27053410868787175 -0.0975879904636693 -0.10789523037800888 -0.18658889945655677 0.21407226452936085 -0.11771741675898648
-0.30834719385528664 -0.04625303956986099 0.060159894167417446 -0.07232879616505539 -0.03342291874457925 -0.3115311177717469 -0.4357048843958257 0.27668762021809984
0.055987256230916695 -0.17214159755199454 0.24437268376916496 0.0644971056941321 0.4198429153980647 0.07613785623384633 0.015471206998035478 0.1327823255065699
-0.046149160204962604 0.038427037481850786 0.024532294803373225 0.1696262123280026 0.04132530044445267 0.2199917653036744 -0.09069631499998623 -0.06283971235700112
0.042482112905381016 0.2268632499002005 -0.003256981716094535 0.3602931073751668 -0.4182372220659125 0.16327614865401366 -0.2684735271235449 -0.1756937731657131
-0.12602667054514924 0.02063509294681348 -0.19182833693156717 -0.27412214072447083 -0.05987380662207421 0.08980474411145115 0.06883042362510175 -0.04592681112469281
0.02438933856050659 0.2903356255353485 0.022481714318620033 0.08216388815172872 0.37148035223762027 -0.18205759424582282 -0.19991601309543502 -0.009937517981769155
-0.02664737817451977 0.027276718821522414 -0.5502082815069345 0.040078644433943274 0.2514729848689099 -0.07787028749970491 0.21946922571230448 -0.04861275259682893
0.034737898648458956 0.26585863782127667 -0.43670949458836467 0.010917728841643954 0.06877744557557383 -0.3052012965137736 0.10744560402331407 0.10159419734229183
0.12713166324498557 -0.01495778117418013 0.05710854950078824 0.23151722983240874 0.05918556842333985 -0.044505757446600756 0.1295438667876652 -0.09715350701818128
-0.1827616818989177 0.11637375927950566 -0.0763869566660396 0.1848796017833007 0.16914235351996232 -0.12432058915832003 -0.24378752741238502 0.3188463134025189

X_mean f8 [41, 1]
00000000: 0b24 287e 8ce9 5440 dc68 006f 8184 0040
00000010: d49a e61d a7d8 3e40 c05b 2041 f1e3 1e40
00000020: c807 3d9b f508 bb40 d578 e926 1134 a140
00000030: 2d43 1ceb e236 1a3f 55c1 a8a4 4e40 a33f
00000040: 0000 0000 0000 0000 a4df be0e 9c33 c23f
00000050: fca9 f1d2 4d62 503f a9a4 4e40 1361 d73f
00000060: 0309 8a1f 63ee ba3f 2f6e a301 bc05 523f
00000070: 6132 5530 2aa9 433f 2db2 9def a7c6 bb3f
00000080: 8d28 ed0d be30 893f 2d43 1ceb e236 2a3f
00000090: acad d85f 764f 6e3f 0000 0000 0000 0000
000000a0: 0000 0000 0000 0000 5f07 ce19 51da 7b3f
000000b0: 2497 ff90 7efb 5840 48e1 7a14 ae97 3d40
000000c0: 2a8e 03af 963b d83f 842b a050 4f1f d83f
000000d0: 718d cf64 ff3c b93f 3880 7edf bf79 b93f
000000e0: 22a7 afe7 6b96 e23f 6ef8 dd74 cb0e a93f
000000f0: 1903 eb38 7ea8 b03f f4fd d478 e99a 6840
00000100: f31f d26f 5fc3 5a40 c118 9128 b4ac dd3f
00000110: 1ee3 8a8b a372 ab3f a6d7 6663 25e6 b53f
00000120: d808 c4eb fa05 8b3f 96cf f23c b83b d83f
00000130: 6244 a2d0 b2ee d73f bb0e d594 641d ba3f
00000140: 832b a050 4f1f b93f
83.6492 2.0647 30.8463 7.7226 6920.9594 2202.0335 0.0001 0.0376
0.0 0.1422 0.001 0.3653 0.1052 0.0011 0.0006 0.1085
0.0123 0.0002 0.0037 0.0 0.0 0.0068 99.9296 29.5925
0.378637 0.376911 0.098587 0.09951399999999999 0.580862 0.048941 0.065071 196.841
107.0527 0.46366599999999997 0.053609000000000004 0.08554300000000001 0.013194999999999998 0.378645 0.37394399999999994 0.102011
0.09813399999999999

X_std f8 [41, 1]
00000000: 77f7 2410 b44a 8c40 9945 c037 d3f4 d73f
00000010: f2d1 39fd a0dc 2f40 7f35 3278 9ff5 0440
00000020: 2d50 3ce5 35e7 fe40 61f3 895d fb4c ea40
00000030: df8a fa82 9f7a 843f 3803 6d13 02fe d43f
00000040: 3a8c 30e2 8e79 453e abac 7612 4902 fd3f
00000050: 247d 7bd2 5eb7 a53f 26c0 9fe9 20d1 de3f
00000060: bfaa 067f 2bd3 1440 8191 31b2 c6f8 a03f
00000070: 4fea 5ba1 1d30 a03f 12c2 1fd2 8588 1640
00000080: 54a6 c97e 00f2 dc3f 84dc 27d5 d0f5 8c3f
00000090: 6df4 00d0 5f86 b13f 3a8c 30e2 8e79 453e
000000a0: 3a8c 30e2 8e79 453e 215e 2ff8 d409 b53f
000000b0: 8fc6 661a 437a 5c40 4f63 927a 57c2 5340
000000c0: 0df8 74fb 13dc de3f fef5 d113 9ad8 de3f
000000d0: a189 2224 b9f1 d23f 1454 e4ae f5f3 d23f
000000e0: 2e33 df83 e70c dd3f cae1 5331 42b2 be3f
000000f0: fd79 37dd f8cc c93f 642c 9f7d 41b1 5640
00000100: 00cd b496 4189 5b40 105e fa6b ae5f dc3f
00000110: 43df a27d 6bc9 b93f 1937 b367 fa07 cd3f
00000120: 7502 6830 848a aa3f 8765 25e3 c8c5 de3f
00000130: 8a17 7b26 7ecc de3f f4de 4226 12d3 d23f
00000140: c01c 7c44 b3a6 d23f
905.3379214180012 0.374317936367413 15.93091574984371 2.619933070213562 126579.36846572226 53863.85516831908 0.009999509987499376 0.32800342461637255
1e-08 1.813057968257264 0.042414630120896996 0.48151419463011036 5.206220612317963 0.033148011448051136 0.03161709398951428 5.633322985828743
0.4522706258927418 0.014140731339450825 0.06845663860527092 1e-08 1e-08 0.08218127307133517 113.91034565006906 79.03658928199478
0.4821824985154997 0.4819703286701439 0.2960036137466436 0.29614011840141186 0.4539126193820263 0.11990750984467194 0.20156775285336428 90.76962223572042
110.14462821632696 0.44333992523886057 0.10072967355051525 0.22680597365836588 0.05183804598710121 0.48082182104334276 0.48123124845403054 0.2941327451367066
0.2914245766446122

svd_mean f8 [28, 1]
00000000: d2a8 17f6 9ca2 de3f 869e 5e36 efb3 d23f
00000010: 10a6 cff9 8382 e33f 779d 79bd 2735 d73f
00000020: b8df 16ee f8dc e43f 1b20 e1ab 8d2b e93f
00000030: 64df fe59 29f2 db3f b8aa 1016 30cb de3f
00000040: 18e5 04c9 d70b e33f 87e6 7509 62a2 dd3f
00000050: 4752 6300 01b5 df3f 7d13 f750 0288 e73f
00000060: a69f 2129 61fb dd3f 1b8e 96ed 8aff dd3f
00000070: ceea 96b0 1ebf dd3f a8bd a145 1cce e13f
00000080: 92fb 178d eb27 e13f 1895 f5e8 c9fd e33f
00000090: 3fc3 aef6 3806 dd3f 5d7c f781 4227 d93f
000000a0: 8f2d d6bd 4c58 e13f 1b0f 26b3 ad4e e13f
000000b0: 9467 7778 0a81 cd3f 5843 6292 a01b e03f
000000c0: 9c58 b882 341a e13f 5f47 450a 72d2 e03f
000000d0: 2229 c75d c4a8 e73f 8083 322f 3f5f e43f
0.4786751178022658 0.29223232564479706 0.6096820716022098 0.3626193380682347 0.6519741678412094 0.7865665776271301 0.4366553667891735 0.48115160136027724
0.5951956678538037 0.46303606914407464 0.49542260206115823 0.7353526669836438 0.46846798912747045 0.46872208787883246 0.4647900318629298 0.5564099655147645
0.5361230617271409 0.6247300672518206 0.45350479211906597 0.3930212277609309 0.5420287807223064 0.5408543108937666 0.2305005157675707 0.5033724650439622
0.5344488671423906 0.5256891441915562 0.7393514472580913 0.6366268083403241
